results/test2/MoveAgentToApple/MoveAgentToApple-200010.onnx (onnx, 76086 bytes, 7 tensors)

network_body._body_endoder.seq_layers.0.weight f4 [128, 8]
000000 23 f4 3b 3f 45 f6 94 bd 66 0c 2a 3e b4 54 cc bd
       0.734194 -0.07273535 0.16606292 -0.09977093
000010 d3 14 a9 3e 44 a4 20 3f 40 a1 a3 3e 07 b6 14 3e
       0.330237 0.6275065 0.3195896 0.14522563
000020 9b 2b 3d be 72 4a 4e 3e f6 68 21 3f 76 df f6 be
       -0.18473665 0.20145586 0.6305078 -0.48217362
000030 17 72 ff be f6 ca d4 3e a5 09 94 3e fd 86 82 3e
       -0.4989173 0.41561097 0.28913608 0.25493613
000040 b5 9a 4f 3f aa b7 fc 3d 74 a8 88 3e 46 c4 a2 be
       0.8109544 0.12339719 0.2669102 -0.3179037
000050 e9 46 0f 3d ed 3e 85 3e 83 a3 c5 3e 0f 0a 62 be
       0.034979735 0.2602457 0.38601312 -0.2207415
000060 49 9f fc ba e3 54 a8 3c 2e be 23 be 43 71 13 3e
       -0.0019273545 0.02054829 -0.15990517 0.14398675
000070 70 82 0e be b3 90 de be 63 bf 20 3e 38 75 9d be
       -0.13916945 -0.43469772 0.15698008 -0.30753493
000080 bb b8 42 be 4a 35 e0 bd 2c 87 8f 3e fd 80 74 3e
       -0.19015782 -0.10947664 0.28032815 0.2387733
000090 bc c3 52 bc b5 a0 38 be ba 67 af be 79 c7 1a bf
       -0.0128640495 -0.18030055 -0.34258825 -0.6046062
0000a0 82 b7 21 3f 90 df 79 be 22 af 22 bf 79 c3 bd be
       0.63170636 -0.24401689 -0.6354848 -0.37063196
0000b0 53 a9 9f 3e 77 9c 23 3e 2b d4 62 3d f5 f9 19 bf
       0.31183872 0.15977655 0.05537812 -0.6014703
0000c0 c3 e0 10 3d 52 f7 15 3f 98 bc ae bd 89 01 3b 3f
       0.0353706 0.58580506 -0.08532065 0.7304922
0000d0 c7 c2 c3 be 68 7e 7f 3c 1d f3 81 bf c5 2b 39 bf
       -0.3823454 0.015594102 -1.0152317 -0.7233241
0000e0 c6 2b 03 3e 18 33 15 bf 6b cf a5 3e 39 a4 45 3e
       0.12809667 -0.5828109 0.3238481 0.19300927
0000f0 01 ab 65 be 8c e1 62 be f2 da a8 be 4d 37 10 3d
       -0.22428514 -0.22156352 -0.32979542 0.03520899
000100 ae 60 be be 32 ee c9 bd 66 6f 7c 3f 1b 72 8e 3e
       -0.37183136 -0.09859885 0.9860748 0.2782143
000110 ad 4a 13 3f d5 b3 84 be d3 df 08 3e 23 4a 77 bd
       0.5753582 -0.2591845 0.13366632 -0.060373437
000120 4a 7d d2 3d 7c 4d 15 bf 42 ba b9 be 56 80 d9 3d
       0.10277803 -0.58321357 -0.36274916 0.10620181
000130 85 0c c7 3d 50 f3 0c bf 5c 0c 0b 3e 38 d0 b4 bd
       0.09719185 -0.55058765 0.13578933 -0.08828777
000140 2c 7e a6 bd c4 18 4d be 5d bb 2e bf 02 a4 ee bc
       -0.08129534 -0.20028979 -0.68254644 -0.02913094
000150 87 a8 9d 3e e2 46 55 3e 96 7e 05 bd df 37 bf 3d
       0.3079264 0.20827821 -0.032591425 0.093368284
000160 66 e8 cf bd dd b4 86 be 3c 42 2d be 7d 81 61 3f
       -0.10151748 -0.26309863 -0.16919798 0.8808821
000170 c4 62 7a bd 27 ef 45 bf 54 7a 23 be 1e 70 c6 3c
       -0.061129346 -0.7731804 -0.15964633 0.024223384
000180 b3 b9 f4 3e 5c b6 14 bf fa d1 1b be 3b 2a a7 bc
       0.47797927 -0.5809076 -0.15216818 -0.02040588
000190 c2 f4 a4 3e cd ac bf 3d 64 6e b3 3e cb 73 bb bd
       0.32217985 0.09359131 0.3504516 -0.09152945
0001a0 ba 06 d9 3d 23 de c9 bd 00 2f 2b 3e 00 71 51 bf
       0.10596986 -0.09856822 0.16717148 -0.8181305
0001b0 d7 49 e5 be f8 11 eb be b0 c2 5a 3d f6 74 bc be
       -0.44782898 -0.45912147 0.053408325 -0.36807984
0001c0 89 48 92 be f9 88 06 3f b7 6a bf be 34 58 8f 3e
       -0.28570965 0.52552754 -0.37386104 0.2799698
0001d0 de d6 89 bd 2a a6 40 bf 85 60 f3 3c 9b d2 da 3d
       -0.06730436 -0.75253546 0.02970911 0.10684701
0001e0 d8 23 52 3c 8c f9 26 3e be b2 50 bf 08 fe 27 bf
       0.012825929 0.16306132 -0.8152274 -0.65621996
0001f0 15 1f d7 3d 8a 95 b9 be af 8a 41 bf 15 e0 52 bc
       0.10503975 -0.36246902 -0.7560224 -0.012870808
000200 ae 7d e3 be 09 5e 5c be 78 55 6f bc 29 ed 23 bd
       -0.44431823 -0.21520247 -0.01460778 -0.040021095
000210 8b 1e d4 be 5e 86 03 bf eb 39 3a bf 93 1e 81 be
       -0.41429552 -0.51376903 -0.72744626 -0.2521864
000220 e9 37 95 3e f2 0c 14 3e ef df b6 be 90 da 35 be
       0.2914422 0.14458063 -0.35717723 -0.17759156
000230 d9 01 c7 3d fe 3d bd 3e 78 2b c3 3c 80 0d 7c 3e
       0.09717149 0.3696136 0.023824438 0.24614525
000240 48 30 5e be e1 0d ce 3e 47 19 f3 3e ee 38 4f bf
       -0.21698105 0.40244964 0.47480223 -0.8094624
000250 db 6f 4c 3e 65 71 e9 bd 30 4b 18 3f d0 4a 90 3e
       0.19964544 -0.113985814 0.5948973 0.28182077
000260 90 46 f6 3e 5f c7 53 be 6a c9 e4 3e 91 d0 b3 3e
       0.4810071 -0.20681523 0.44684917 0.3512006
000270 02 72 f9 bd 44 44 62 be 2a b5 8d bd 4b b4 47 3e
       -0.121799484 -0.22096354 -0.0691932 0.1950237
000280 2a 51 ee 3d e0 78 11 3f 12 0f 94 3d 95 86 93 3c
       0.116365746 0.56825066 0.07229437 0.01800851
000290 72 d4 7a 3e 73 f6 56 be c8 a3 26 be ff 1b 90 bd
       0.24495104 -0.2099245 -0.16273415 -0.0703659
0002a0 e4 22 28 be 65 c0 89 be a7 f1 11 3f bb f2 8a bd
       -0.1641956 -0.26904598 0.5700936 -0.067845784
0002b0 44 31 51 3e 19 9e 08 be b1 bb 3c bf 25 fd 04 3f
       0.2042895 -0.1334156 -0.73723894 0.5194877
0002c0 0a e2 52 be 36 cb 15 be 3b 88 85 3d de 87 92 3e
       -0.2059404 -0.146283 0.065201245 0.28619283
0002d0 2b 87 a9 be 1e 17 e1 be e4 f3 2b be 5d a9 b1 3e
       -0.33110937 -0.4396295 -0.16792256 0.34699526
0002e0 ba c8 05 3e 0d 30 10 3e 93 68 d6 3e cc 66 95 3e
       0.13064852 0.1408083 0.4187666 0.2917999
0002f0 b2 7c e5 be d8 9c c0 be 03 3a 07 3e 03 cb 26 bc
       -0.44821697 -0.37619662 0.13205723 -0.010180238
000300 7c 07 c3 3e fb c7 d8 be 80 5e 05 3f 33 e3 03 3f
       0.38091648 -0.42340073 0.5209732 0.51518553
000310 ed 3e f3 3e 1c 28 bc be b7 fb 4e be 31 b9 fe 3e
       0.47508946 -0.3674935 -0.20213209 0.49750665
000320 d2 47 76 be 11 90 e0 be a7 0a 9b 3e dd 31 d4 bd
       -0.24050835 -0.43859914 0.30281565 -0.10361073
000330 e7 ea 1d 3f 96 9d 49 3d 34 95 a2 3d 7e e3 b2 3e
       0.6168656 0.04922255 0.079386145 0.34939188
000340 92 af be be fe 0b 1b be 22 1c 09 3e c9 a9 63 be
       -0.37243325 -0.15141293 0.13389638 -0.22232737
000350 7d b3 7a be d1 21 8d be 38 b6 b8 be 43 b6 0a bf
       -0.24482532 -0.27564862 -0.36076522 -0.5418436
000360 f6 7d 48 3e ef 8c 14 be 20 89 0a be 0e f8 06 3e
       0.195793 -0.14506887 -0.13528872 0.13180563
000370 20 ff 67 be 7d 83 16 3f 96 70 d6 3e 5a 38 e1 3e
       -0.22655916 0.58794385 0.4188277 0.43988305
000380 40 2b cf 3e 47 63 0c 3f 5f c7 87 be 6d 37 84 be
       0.40462685 0.54838985 -0.26519296 -0.25823537
000390 39 c0 1d bd 1d 54 1e bf 1c 52 85 3d 39 2b aa 3e
       -0.038513396 -0.61847097 0.06509802 0.332361
0003a0 6d e9 18 3e 56 5b ac 3d 8c 9a 06 bc 7a 18 77 bf
       0.14932795 0.084158584 -0.008215558 -0.96521723
0003b0 7a 04 4b bf dd 91 3e 3f 05 66 76 3e 10 f5 62 3e
       -0.79303706 0.7444132 0.24062355 0.22163796
0003c0 66 26 d6 3d f9 ea 9c be 82 ec b8 bd 3d 14 3b 3e
       0.10456543 -0.3064802 -0.09029485 0.18269439
0003d0 f6 78 c5 3d 4d 86 8a 3e b8 f5 1f 3e 67 ef 98 be
       0.09642212 0.27055588 0.15621078 -0.2987015
0003e0 7e d1 97 3e 02 6e 89 bb 71 34 84 be a3 8d 33 be
       0.29652017 -0.004194022 -0.2582126 -0.17534499
0003f0 d2 aa b1 be 22 b3 3b bf d0 3c 74 be ee eb 54 3e
       -0.34700638 -0.7332021 -0.23851323 0.20793125

network_body._body_endoder.seq_layers.0.bias f4 [128]
000000 4d 13 e6 bb c8 9c 66 bb f9 88 7a 3d 39 d3 a1 bb
       -0.007021344 -0.0035188664 0.061165784 -0.00493851
000010 a5 55 97 bc 23 12 38 3c 7f 72 08 3d cb 10 b7 bc
       -0.018473456 0.011234793 0.033312317 -0.022346875
000020 ea a7 0e bc 34 87 9b 3c 55 45 4a 3c 76 89 95 3d
       -0.008707026 0.018985368 0.012345632 0.07301609
000030 3e 8f 27 3d ec 03 51 3d 29 83 87 3c a2 26 81 bc
       0.04090809 0.05102913 0.016542034 -0.015765492
000040 2c cc e1 3c 1d 0b 96 bc 8b 87 1a 3b bf c8 19 b6
       0.027563177 -0.018315846 0.0023579325 -2.2915626e-06
000050 e1 ad b8 3c 33 e0 f7 bc 2e 14 14 bd d7 84 95 bc
       0.02254385 -0.030258274 -0.036152057 -0.01825182
000060 b9 93 16 bd d2 7c e0 bb e0 c1 c9 3c 5c 13 7a bc
       -0.036761973 -0.0068508172 0.02462858 -0.015263405
000070 b6 23 9a bb 1c 6c 97 3c ac 68 a9 3c 29 6f 99 bb
       -0.004703964 0.018484168 0.020679794 -0.004682441
000080 9b de 7d 3c d4 cc c6 bc 13 9b d5 3c d6 23 b5 bc
       0.015494968 -0.024267592 0.026074922 -0.022111814
000090 6a ab 2a bd 3f db 32 bb c3 da 07 bd cf 75 75 3d
       -0.04166738 -0.0027291325 -0.03316761 0.059926804
0000a0 83 93 bb 3c dc 62 eb 3c 10 a7 85 3c f0 e8 60 3c
       0.022897488 0.028733663 0.016315013 0.013727412
0000b0 0b 0b c4 3b 03 4d 2f 3b 2d 1f 3b 3b e5 e6 8a 3c
       0.0059827617 0.0026748783 0.0028552518 0.016955802
0000c0 91 89 2d 3e c0 6a b0 bc dc c8 22 bc d8 2c 20 3c
       0.16947009 -0.021535277 -0.009935584 0.009776317
0000d0 f8 a9 38 3c 96 aa 0a 3c b3 7e 6b 3c 46 df 4e bc
       0.011270992 0.008463522 0.014373469 -0.012626475
0000e0 73 d7 6f b9 1e 22 fe bc 95 3f 02 bd 3f 86 29 3d
       -0.00022873077 -0.031022128 -0.031798918 0.041387793
0000f0 ad 4f 80 bb e5 4b b6 bb ac ed 19 bc 2f f2 9b bc
       -0.003915748 -0.0055632466 -0.009395044 -0.01903638
000100 e1 d9 8b 3c 97 c3 2e 3d 14 e6 22 3d aa 0c f5 bc
       0.017071666 0.042666998 0.0397702 -0.029913265
000110 70 a4 87 bc b7 5d 90 3b 8b 78 0c 3d 16 3c b8 3c
       -0.016557902 0.004405703 0.034294646 0.022489589
000120 69 64 e9 3c c3 fd 19 bd 2e 55 17 3d 93 cd ac 3c
       0.028490262 -0.03759552 0.036946468 0.02109412
000130 1b 5e af 3c 12 fe 18 3d f3 db 63 3c da 90 34 3d
       0.021407178 0.037351675 0.01390742 0.044083454
000140 5d ce 16 bc e8 4d 20 bc cb d1 af 3c c4 be 7a ba
       -0.009204474 -0.009784199 0.021462342 -0.00095651695
000150 59 b4 88 3d df e9 43 bc a8 4d 04 bd 67 06 21 bb
       0.066750236 -0.011957615 -0.03230062 -0.0024570466
000160 9c c7 6e 3c 6a dd ae bc b5 f0 af bc da 38 28 ba
       0.014573958 -0.021345813 -0.021477083 -0.0006417163
000170 68 17 c9 3c 6d 92 f4 3b 3a 74 42 3d 0c 43 cf 3c
       0.024547294 0.0074637444 0.047474124 0.025300525
000180 44 32 8f bb eb 37 0b bd 52 a1 a8 3b 24 97 79 3c
       -0.004370006 -0.033988874 0.005146184 0.015233789
000190 46 70 26 3d 5d af 22 3d 3a db 9d 3a 26 ec 35 3c
       0.040634416 0.03971802 0.0012043484 0.011103665
0001a0 d1 ce c7 3c bc 68 ca 3b 56 3b 1d 3d 5e 6d e1 3c
       0.02439061 0.006177036 0.038386665 0.02751797
0001b0 fb 17 0b 3b d6 5a 19 3d ea 43 c0 ba 48 67 7c ba
       0.002122401 0.037440144 -0.0014668677 -0.0009628427
0001c0 5b cc a4 3d 88 94 4d bc 19 40 4f bd 9e eb ed 3c
       0.0804679 -0.01254762 -0.050598238 0.029043015
0001d0 45 ac 65 3c 4f 09 ed bb 2a 36 fe bc 5d 18 ce 3c
       0.014018123 -0.0072337757 -0.031031687 0.025158102
0001e0 29 5e 25 bc 50 60 f2 3b 61 c5 26 3d b3 41 94 3a
       -0.01009325 0.0073967353 0.04071558 0.0011311084
0001f0 02 46 35 3c e8 c3 bd 3c 1e 31 87 bc 55 2f 20 3d
       0.011064054 0.023164704 -0.016502913 0.03910764

network_body._body_endoder.seq_layers.2.weight f4 [128, 128]
000000 ab 05 60 3d b0 f0 01 3e 4f b1 a7 3e f6 fd fd bd
       0.054692905 0.12689471 0.32752463 -0.12401955
000010 17 d2 8d 3b df e9 ca bd 15 b9 8f bd 00 b4 b4 3d
       0.004328023 -0.099078886 -0.070177235 0.08823395
000020 22 2e e7 bd f4 8f 49 3d e5 f8 8f 3d cc a4 b1 bd
       -0.11288096 0.04920955 0.07029895 -0.08674011
000030 e1 b2 e7 bd 49 d8 49 be 07 55 94 bd 17 9a 48 bd
       -0.11313415 -0.19711412 -0.0724278 -0.048975077
000040 ed 7a 18 bb 26 e6 a7 bd 4e 7e ab 3d 79 94 08 3e
       -0.002326663 -0.08198194 0.083737 0.13337888
000050 b6 76 b3 bb e3 52 2f 3d 06 d3 ab 3d 15 27 a8 3d
       -0.005476798 0.042803656 0.08389859 0.08210579
000060 54 11 e6 bd b5 53 d3 3d b7 a3 f5 3d 2d d1 89 3d
       -0.11233774 0.103187 0.11994117 0.0672935
000070 b4 80 a2 3c 8d 5c 13 be 11 ce 9b 3d df 10 94 3d
       0.019836761 -0.14390774 0.076076634 0.072297804
000080 1c 71 20 bd 4f 3f 05 3e c9 cf 02 3d 3e da 92 bc
       -0.03917037 0.13012432 0.03193644 -0.017926332
000090 a8 05 78 3d e8 05 74 3d 8d 60 b1 bc 31 f5 1c 3d
       0.06055227 0.059575945 -0.021652484 0.03831977
0000a0 62 8d 82 bd 2c 1c 6e bc a5 00 46 bc 67 82 05 3d
       -0.06374623 -0.014533084 -0.012085115 0.032595064
0000b0 8f 20 d8 bc 1c 18 93 3d 8d ad d3 3d 00 ae c5 ba
       -0.026382713 0.07182333 0.103358366 -0.0015081763
0000c0 c8 52 4c be f9 11 98 3b 0d 8c b5 bc 65 df f8 3c
       -0.19953454 0.0046408144 -0.022161508 0.03037996
0000d0 71 1f b3 bd ad 3a 28 3d 9e 14 b7 3c 2b fd 67 bd
       -0.08746231 0.041071583 0.022348698 -0.056637924
0000e0 ed 07 ea bc 53 fb 48 3c 8f dc 2d 3d 14 31 15 3e
       -0.028568232 0.012266952 0.04244667 0.14569503
0000f0 51 74 69 3e ff 50 63 3e 17 c9 9a 3d 74 8c 9c bd
       0.22798277 0.22198866 0.07557886 -0.07643977
000100 ae 69 87 bd 82 fc 30 3d 59 45 0d bc 41 d0 d3 bb
       -0.06611954 0.04320956 -0.008622491 -0.006464035
000110 e1 cc 63 be 6b 4c 49 3d 47 6c 1e be 69 7a 27 3c
       -0.22246124 0.049145143 -0.15470992 0.010222056
000120 53 30 b8 3d 0c a6 cc 3d c3 ce 77 bd be 37 55 3e
       0.08993592 0.099926084 -0.060499918 0.20822045
000130 c1 e4 a5 bd 57 1d 68 bc da a8 c0 3d 2d 32 90 bb
       -0.08100272 -0.014167151 0.09407206 -0.0044005127
000140 69 96 f0 3c 2d b9 11 3d 6c 8e 8c bd e4 b1 39 bd
       0.029368596 0.035576988 -0.06863102 -0.045335665
000150 92 b5 e5 bd 15 d4 f1 3d 37 9b a4 bd c9 03 a7 3d
       -0.112162724 0.118080296 -0.080374174 0.08155019
000160 7e 63 4f be 28 42 c7 bc de fe 98 bd 00 5b 06 be
       -0.20252797 -0.024323538 -0.07470487 -0.13120651
000170 68 55 91 3d de 81 4f b9 18 d7 b7 bd e7 d4 36 3d
       0.07096368 -0.00019789438 -0.08976573 0.044636633
000180 3b 44 47 3d ab d5 92 3d e3 43 ad 3c be 61 6a 3d
       0.048649054 0.0716966 0.021150535 0.05722212
000190 ca c3 55 bd 59 61 42 3e 3f 11 ee 3d 9e fe 1d 3e
       -0.052188672 0.18982448 0.11624383 0.1542916
0001a0 cb b6 be bd 79 14 73 bc f8 fb f0 bd 37 62 7f 3d
       -0.09312209 -0.014836424 -0.11766809 0.062349524
0001b0 ea 1a 6c 3d c9 87 1e 3d a8 0d 48 be 82 bc b8 3d
       0.057642855 0.038703714 -0.1953646 0.0902033
0001c0 f9 fa 33 3d e6 59 90 bd 2c 1c 76 3d f0 d2 ae 3c
       0.043940518 -0.07048397 0.06008546 0.021340817
0001d0 c6 a5 ed 3d 59 55 26 bc 37 f4 b6 bd 72 39 5f 3c
       0.116038844 -0.010152184 -0.08933299 0.013624536
0001e0 6e f7 53 3d 9d ac d5 3d c6 69 4e bd eb a4 56 be
       0.05174964 0.10433314 -0.050393842 -0.20961349
0001f0 3d 58 d4 bd da d4 57 bd 86 1d c9 3c 9d 84 4d bd
       -0.103683926 -0.052693225 0.02455021 -0.050175298
000200 6a 6a 6a bd b6 58 27 bd 64 0d 5d be 0c b1 aa bd
       -0.05723039 -0.040856086 -0.2158714 -0.0833455
000210 f5 87 66 3d e2 43 55 bd d8 94 f1 bd 3b a3 a8 3c
       0.056282002 -0.05206669 -0.11795968 0.020585647
000220 58 ea d3 3d 8b 34 38 3d 43 37 51 3d aa c1 83 bd
       0.10347432 0.044971984 0.051078092 -0.06433423
000230 25 7e 0d be f5 79 32 be 2d da 33 3d 14 88 8d 3c
       -0.13817652 -0.17429335 0.04390924 0.017276801
000240 57 2a 18 3e 06 09 29 be 92 ff 25 bd 1d 08 55 3e
       0.14859901 -0.16507348 -0.040526934 0.20803876
000250 dd c6 10 3e 01 26 a2 3d 45 3f 5c bd 8e 68 31 3d
       0.1413836 0.07917405 -0.053771276 0.0433126
000260 7b 4b 16 3e 58 4e fb 3c db ba d6 bd b8 61 f2 bd
       0.14677231 0.030677006 -0.104848586 -0.118350446
000270 c3 8f 39 bd 2f bc fb 3d e2 39 30 3c 58 bd ae 3d
       -0.045303117 0.122917525 0.010755988 0.08532208
000280 5c 1c ba bd ce 00 3a 39 37 7e 8b 3d 9d d3 dd bd
       -0.0908744 0.00017738642 0.06811183 -0.10831378
000290 6c e2 07 3d f5 c8 ce 3b 62 8b 8e 3b 88 06 13 be
       0.033174917 0.006310577 0.004350112 -0.1435796
0002a0 1c 99 24 be 57 61 c6 bc a0 06 80 be 91 e9 f7 bd
       -0.16074032 -0.024216337 -0.25005054 -0.12105096
0002b0 ae c6 da bd ab 7e 5c 3d b7 6c 9e 3c 44 0e 1e bc
       -0.106824264 0.053831737 0.019338949 -0.009646956
0002c0 9c 46 c0 bd db 6b 81 3d e1 9c c6 3d 20 ed 3e 3c
       -0.09388468 0.063194 0.09697891 0.011653215
0002d0 80 d9 33 bd ee 44 57 bd 31 3c 01 3e f2 ce ce bd
       -0.043908596 -0.05255597 0.12620617 -0.100980654
0002e0 c1 c9 3d bd 4b 6d 2a 3d dd ee bf bd ff ed 44 3d
       -0.046334986 0.041608136 -0.093717314 0.048078533
0002f0 c0 c8 8d bc 2a 37 eb bd ce f3 0d be 7e 24 d8 bd
       -0.01730764 -0.11485131 -0.13862535 -0.10553835
000300 7c 6f ed bd 95 dc bb bd 7f 5c b6 bd c9 61 5e bd
       -0.115935296 -0.09172932 -0.08904361 -0.054292474
000310 b8 2b 8f 3d b7 11 4e 3d 0f 08 17 be 1e 40 73 bc
       0.069907606 0.050309863 -0.14749168 -0.01484683
000320 d9 f8 d7 bd f2 e5 27 bd b5 30 67 3d 2f de 69 3c
       -0.10545511 -0.040990777 0.056442935 0.014274164
000330 9e ea 86 bd 1e d9 3f be 92 f3 a2 3d f8 7d f7 bb
       -0.065877184 -0.18735167 0.079566136 -0.0075528584
000340 bf b7 bc 3d a3 ac dd bd f1 c1 a3 ba bf ac c2 bd
       0.09214734 -0.108239435 -0.0012493712 -0.09505605
000350 22 d2 e7 3c f7 c0 59 bd a2 6d 08 be 51 3f 94 3d
       0.028298441 -0.05316254 -0.13323072 0.07238639
000360 9f 07 97 bd a8 80 5b 3d b7 c9 c1 3c 3f 52 04 be
       -0.073745005 0.053589493 0.023655755 -0.12922
000370 c8 97 01 3e 51 8f 3c 3e f9 aa 32 3c d6 05 9d 3d
       0.12655556 0.18414046 0.010905021 0.07667129
000380 ba dd 60 be a9 cb 51 bc 30 0c 27 3b c8 b5 cb bd
       -0.21959582 -0.012804904 0.0025489442 -0.099467814
000390 33 f7 0f 3e d1 e3 d8 3d 8d 6d 31 3d eb 1c c7 bc
       0.14059143 0.105903275 0.043317366 -0.024305781
0003a0 7e 32 2a 3d ec 0f aa 3d 66 b5 06 bd 2e 78 23 3d
       0.04155206 0.08303818 -0.03288784 0.039909534
0003b0 f8 03 23 bb bb a5 c8 3d 0e b7 1b be 2c d7 83 3e
       -0.0024874192 0.097972356 -0.15206549 0.257501
0003c0 e9 2a 38 3e b3 1d 2e 3e 99 b8 c8 bc 4a a2 a9 bd
       0.17985119 0.17003517 -0.024502086 -0.08282907
0003d0 bf 73 b0 3d 0d cd 55 bd 19 d1 8f 3d a1 a8 4e 3e
       0.08615827 -0.052197505 0.07022304 0.20181514
0003e0 c8 39 fe bd 4a 75 8b 3d d4 4e c9 3c 68 02 bf bc
       -0.12413365 0.068094805 0.024573721 -0.023316577
0003f0 62 7d aa 3b 08 27 51 bc a9 db 65 3d 59 b3 57 3d
       0.005202935 -0.012765653 0.056117687 0.052661274

network_body._body_endoder.seq_layers.2.bias f4 [128]
000000 18 7e bf bc 18 8d c2 3c 55 f2 ef 3c 34 63 b3 3c
       -0.023375556 0.02374892 0.029290358 0.02189789
000010 0b 27 57 3c 08 fd 2a bc 78 0b 11 3d ab ca 82 3c
       0.013131867 -0.010436304 0.035411328 0.01596578
000020 ad 40 3f bc 43 37 97 3c 20 9c d8 bc 2a fd c1 bc
       -0.011673135 0.018458968 -0.026441634 -0.023680288
000030 a9 1d bc 3c e3 db c8 3c 54 e5 a0 3c 90 51 40 bc
       0.022963362 0.024518913 0.019640602 -0.011738196
000040 49 a0 79 bc c8 c9 c3 3c 94 2e 68 bc f7 ac 16 3c
       -0.015235969 0.023899928 -0.014171261 0.0091965115
000050 1c 93 10 3d e7 cf 8f bb 58 5a f9 3c a5 ea 6d bc
       0.035296544 -0.0043887976 0.030438587 -0.014521276
000060 93 2f e8 ba b0 07 b3 3c 6f 35 11 3b df 9c 16 bd
       -0.0017714374 0.021854252 0.0022157093 -0.036770698
000070 1d f8 ae bb bf da 8b 3c 35 03 90 bc a1 d9 0a bc
       -0.005339636 0.01707208 -0.017579654 -0.008474738
000080 00 b2 92 bc e8 2d de 3c b8 86 b0 3c da e3 29 3d
       -0.017907143 0.0271215 0.021548614 0.04147706
000090 35 a5 24 bd 3d 7f 4d 3c 2b f6 5f 3c cd d9 51 3c
       -0.040196616 0.012542543 0.013669531 0.012808275
0000a0 b7 ef a4 bc 15 e2 e9 ba 5f ce 3c 3c 03 ef 67 3b
       -0.020133836 -0.0017843867 0.011523812 0.0035390265
0000b0 fe 2d 10 bd 93 97 c6 3c 3f f1 2b 3c 3a 72 bc 3c
       -0.03520011 0.024242198 0.010494529 0.023003686
0000c0 29 89 e7 3c eb f2 8d 3b 1e 16 fc bb 28 0f 0b bb
       0.028263645 0.0043319366 -0.0076930663 -0.002121875
0000d0 be ea 84 bc 1e cc 82 3c d0 e1 18 bc a5 85 2b bc
       -0.016225215 0.015966471 -0.009331182 -0.010468875
0000e0 f9 42 0b 3d 2a b0 1e ba 9a ff 98 3c 8a a7 0d bd
       0.033999417 -0.0006053472 0.018676568 -0.034583606
0000f0 aa 19 7b 3b 16 18 e1 3a 4e 4c b2 3c 84 9c 7e 3c
       0.0038314858 0.0017173316 0.0217649 0.015540246
000100 37 c9 8b 3c ec de b3 bb 0d 4c 24 3c d2 dc 9f 3c
       0.01706372 -0.005489221 0.010027898 0.019514475
000110 06 a6 c5 3c 89 2d b3 3a ca 3f 5c bc 5f ba 05 3d
       0.024127018 0.0013670187 -0.013442943 0.03264844
000120 d9 e8 1b bb a2 6a 00 bd 40 97 da bb f9 31 44 bb
       -0.002378991 -0.031351693 -0.0066708624 -0.0029937013
000130 cf 82 aa ba 86 6e 3d 3c e0 31 eb 3c 36 45 0f bc
       -0.0013008955 0.011561995 0.028710306 -0.0087445285
000140 b2 c2 37 3d 3e 48 a6 ba 57 01 4a bb 6c 92 5c bc
       0.04486341 -0.0012686325 -0.0030823553 -0.013462644
000150 23 dd 72 bc bb 51 1b 3d f8 06 41 bb b1 d5 50 bb
       -0.014823231 0.03791974 -0.0029453617 -0.0031865651
000160 ad 36 85 3b 8d b5 79 bc 24 4e 0b b9 8a a2 65 bb
       0.0040653558 -0.015241039 -0.00013285183 -0.0035039508
000170 6a 6f 97 3c ad 00 e0 bc 98 ca 37 3c 34 5f 87 3c
       0.018485744 -0.027344072 0.011217736 0.016524889
000180 26 31 97 bc 34 21 3f 3d 58 7a 8a 3c 2a af 62 3b
       -0.018456053 0.046662524 0.016904041 0.003458927
000190 77 d9 f2 bb b5 0e bb ba 07 06 c7 3c d1 4c f0 3c
       -0.0074111777 -0.0014271351 0.024294866 0.029333504
0001a0 2c ed 10 bc 44 5f a7 3c 79 61 33 3d e7 e3 0f bc
       -0.008845609 0.020431168 0.04379413 -0.0087823635
0001b0 5d 85 30 3d 0e 0f 50 bc 51 60 58 bb 84 e1 9e 3b
       0.043095935 -0.012698902 -0.0033016393 0.004848661
0001c0 da 58 b7 bc 9e 3a df 3c c4 0a be 3c f1 7b 16 3d
       -0.022381235 0.02724963 0.023198493 0.036739293
0001d0 f8 20 4e bc 15 66 69 bb 3d 20 a1 3c bc ac 8a 3c
       -0.012581103 -0.0035613824 0.019668693 0.01692807
0001e0 50 c5 c1 3c 68 0d 86 bc 8d 01 de bc bc e3 00 bd
       0.023653656 -0.016363814 -0.027100349 -0.031467184
0001f0 f3 f7 b0 bc ae f2 3c bc 86 16 26 3b 00 e2 20 3d
       -0.021602606 -0.011532469 0.0025343015 0.03927803

action_model._continuous_distribution.log_sigma f4 [1, 2]
000000 4e 5a 23 bd 74 c1 ae bd
       -0.039881043 -0.08532992

action_model._continuous_distribution.mu.weight f4 [2, 128]
000000 47 91 6c 3b 51 d4 85 bc ba 00 0f 3d ff 8a 43 bd
       0.0036097334 -0.016336592 0.034912802 -0.04773998
000010 dc 78 a4 3c 70 19 d2 bc 7e 2c 58 bc 9f 62 4b 3c
       0.020077161 -0.025646895 -0.0131942015 0.01241365
000020 29 09 58 3a e4 70 f8 bc 40 86 5b 3b 54 05 00 bd
       0.0008241111 -0.030327268 0.0033496767 -0.03125508
000030 df b8 7a 3d 34 d6 c4 bc 65 35 8b bc bf 09 94 3c
       0.061211463 -0.024027921 -0.016993234 0.018071054
000040 f3 83 d2 bc 28 ab 47 bc 67 55 35 bb 7e d3 6f bd
       -0.025697684 -0.012186803 -0.0027669312 -0.058551304
000050 55 f6 62 3c 2d 30 cb bc ff ff 92 bd ab ba fd 3c
       0.013852675 -0.024803245 -0.07177734 0.0309728
000060 e9 d6 0d bd 75 05 eb bc 60 24 4c bc a0 39 44 bc
       -0.034628782 -0.028689126 -0.012459844 -0.0119766295
000070 e2 1d b0 3c 07 c0 7e 3d 05 7c f3 bc a7 1f c3 3c
       0.021498624 0.06219485 -0.029722223 0.023818804
000080 79 1c a7 bc d1 af 3a bb d3 88 a7 3c 89 57 4d 3d
       -0.020399319 -0.0028486142 0.020450985 0.05013231
000090 35 6a 53 3c 3a 59 77 bc 7b ef 68 bc 7d 3b 99 3c
       0.01290374 -0.015096957 -0.014217253 0.018705124
0000a0 1c 72 28 3d 6b a6 05 bd 2a 85 a9 bb 66 80 1f bd
       0.04112445 -0.03262941 -0.005173345 -0.03894081
0000b0 e6 8f 69 3c ca 38 54 bd 83 d1 53 bb a2 3d 82 3d
       0.0142554995 -0.05181197 -0.0032320924 0.06359412
0000c0 16 c1 06 bb 75 08 81 bc 19 e9 69 bc 17 43 69 bc
       -0.0020561866 -0.015751103 -0.014276766 -0.014237187
0000d0 b7 6c cd bc 33 03 88 bd 4a 50 ad bc a6 90 22 3c
       -0.025076253 -0.06641235 -0.021156449 0.009922182
0000e0 28 74 04 bd 98 2e d0 3c 13 fd 13 bd ed fa 09 bc
       -0.032337338 0.025412843 -0.036130022 -0.008421642
0000f0 92 30 88 3c 5f c9 5f bc 3c 0c 25 bc 6a a5 31 3d
       0.016624723 -0.01365885 -0.010073718 0.04337064
000100 fa 07 39 bb 41 dd a6 bb 98 47 68 bc 37 43 89 bc
       -0.0028233514 -0.0050922935 -0.0141772255 -0.016755683
000110 9b 75 23 3c 55 6a 89 bc d5 11 8c bc 98 35 3e 3d
       0.00997677 -0.016774336 -0.017098347 0.04643783
000120 65 52 1b bc 23 bb b1 ba 84 31 f8 bc 02 f2 f5 bc
       -0.009480094 -0.0013559799 -0.030297048 -0.030022625
000130 fe 81 9d bd 7a 68 e0 bc a3 c9 16 bc ff 59 b8 3c
       -0.0769081 -0.027393568 -0.009203347 0.022503851
000140 78 88 c8 bb c5 d2 db 3c f7 f0 fe bb b0 43 6d bb
       -0.006119784 0.026833901 -0.00778019 -0.0036203675
000150 89 bc 98 bc 20 9b f4 3c ba c0 dd 3c f6 21 04 3d
       -0.018644588 0.029859126 0.027069438 0.03225895
000160 ae cb 30 bd 85 31 0b 3c 1d 9d 1c bd f8 67 a8 3c
       -0.043162994 0.008495693 -0.038235772 0.020557389
000170 6e 9f 8d 3c 59 89 95 3c 72 c0 9f bd 41 23 f6 bc
       0.017287936 0.018253969 -0.07800378 -0.030046107
000180 99 c8 c5 3c 97 4c 18 bd fc 7e 26 bd 11 50 12 bd
       0.024143504 -0.037182417 -0.040648445 -0.03572089
000190 fe 0b 03 bd 92 d8 31 bd 52 57 70 bd 43 00 81 bc
       -0.03199386 -0.04341943 -0.058677025 -0.015747195
0001a0 f9 b7 c6 bc b0 14 a0 bb a9 e2 09 bc 9a 94 25 3c
       -0.024257647 -0.0048852786 -0.008415856 0.01010623
0001b0 54 9d 46 3d 4e 4f fa bc 35 5f 6f 3c 1d b8 08 3d
       0.048489884 -0.030555394 0.0146101015 0.03337871
0001c0 f2 09 9c bb 32 c8 89 bc e7 34 46 bd e8 b8 47 3d
       -0.0047619278 -0.016819093 -0.048390295 0.048760325
0001d0 dc e5 04 3d 9b 46 10 bd f7 e1 62 3c be e6 48 3d
       0.032445773 -0.035223585 0.0138478195 0.049048178
0001e0 15 70 1d bd 73 ee cf 3b 82 fb 77 3b c5 9a 1d 3c
       -0.038436968 0.006345564 0.003783912 0.009619419
0001f0 cb 8c d2 3b ae 8e 20 3d e5 d3 1b 3c 51 d0 78 3d
       0.0064254752 0.03919857 0.009510969 0.06074554
000200 04 47 72 bc 14 66 be 3b 4e 28 24 bd 6c cc 55 3c
       -0.014787439 0.0058105085 -0.0400775 0.013049226
000210 d3 a9 7f 3c fc f3 78 bc c9 33 92 bd 85 1e 12 3d
       0.015604454 -0.015194889 -0.071387835 0.035673637
000220 bc b4 c5 bc 69 57 0b 3d 0f 86 41 3b 25 09 d7 b9
       -0.024134032 0.034018908 0.0029529368 -0.0004101481
000230 a8 3b c5 3c 7b 07 db bd 35 87 53 bd 1e bc 7b bc
       0.024076298 -0.10694786 -0.051642615 -0.015364675
000240 53 9a 90 bc 46 df 22 3d bb 00 92 bd bb 42 a7 3a
       -0.017651713 0.03976371 -0.071290456 0.0012760976
000250 c6 df 95 bd e3 7b 0d bd 15 b4 39 bd 23 10 90 bc
       -0.07318072 -0.034541976 -0.045337755 -0.01758582
000260 51 e0 61 bc 8c b4 eb bc 8f ce 9b 3b 88 82 8f 3b
       -0.013786391 -0.028772615 0.0047548483 0.004379574
000270 bd 14 0c bb 4d 21 13 3c a6 82 35 bc a2 d0 6c 3b
       -0.0021374666 0.0089801075 -0.011078512 0.0036135097
000280 5d 4d 8a bc eb ed 35 bd c9 92 90 bd 31 9c a1 bd
       -0.016882593 -0.04441635 -0.07059247 -0.07891119
000290 73 c1 c9 3b 53 62 66 3c 09 41 2a 3d 37 60 aa 3c
       0.006157094 0.014061528 0.04156593 0.020797832
0002a0 91 70 02 bd 08 c4 cf bc 93 3f 16 bd 01 ab 3d bd
       -0.031845633 -0.02536203 -0.036681723 -0.04630566
0002b0 c9 94 36 bd 20 69 d5 bc 33 33 96 3c a3 32 fd bc
       -0.044575486 -0.026051104 0.01833496 -0.030907935
0002c0 fa 76 54 3d 4b c7 36 bc dc a7 55 bc 89 16 22 bc
       0.051871277 -0.011155914 -0.013040509 -0.009893068
0002d0 91 64 5f 3a 7c f2 7e bd 9a 86 96 bd bb ae 19 bc
       0.00085217605 -0.06224297 -0.07349892 -0.009380038
0002e0 23 ac 8e bd 54 3e b5 bc 51 9d 1e bb f5 77 26 bd
       -0.06966426 -0.022124447 -0.0024202655 -0.040641744
0002f0 4f 10 2a bc 33 e2 30 bd 3d 17 f2 bc 8a a9 64 bc
       -0.010379865 -0.04318447 -0.029552097 -0.013956437
000300 62 63 b4 3c 8b ab 8f 3c 03 57 39 bd 5f 03 c7 3c
       0.022020046 0.017537853 -0.045248996 0.0242936
000310 2a a5 3d 3d e4 9a 6f bd 9b 06 5c bd 6c 6e 7e 3d
       0.04630009 -0.058497325 -0.053717237 0.062117025
000320 54 3d 84 bd c9 b0 97 bb cb 61 0e bc 10 cd 1e bc
       -0.0645701 -0.0046292287 -0.008690308 -0.009692445
000330 4e b6 85 bd d7 8a 41 3c 79 5d 5d bd 51 da bb bc
       -0.065289125 0.011812887 -0.05404422 -0.02293125
000340 ce 61 6b bd 93 16 45 bd ca 98 1e bd 03 2b 06 bd
       -0.05746632 -0.04811723 -0.03871993 -0.032755863
000350 4b b8 10 3c 78 e6 02 3d 94 17 8c 3b 43 88 72 bd
       0.008833001 0.031958073 0.0042752717 -0.05921198
000360 64 fc a2 bc eb 02 85 bc 75 ef a0 bc 39 d6 85 bc
       -0.01989574 -0.016236743 -0.019645432 -0.0163375
000370 d3 bb 38 bd df 79 48 bd 78 58 0b bd 3e bc 29 3d
       -0.045100998 -0.04894435 -0.034019917 0.041439287
000380 31 55 ba 3a bd ac 8a 3d 08 01 8b bd 64 3c 13 bd
       0.0014216063 0.067712285 -0.06787306 -0.035946265
000390 0b 7d 83 bc 03 74 93 bc 32 3d 89 3c dd 30 b0 bd
       -0.016050836 -0.017999655 0.016752813 -0.0860307
0003a0 58 aa 42 bd 68 cc 48 bd 88 0b 46 3d 71 f6 90 3c
       -0.047525734 -0.049023062 0.04835084 0.017695637
0003b0 e1 74 05 3d d1 d2 5f bc 28 51 47 bc f1 b6 01 3c
       0.032582168 -0.013661102 -0.012165345 0.007917152
0003c0 46 74 2c bc 70 8a 89 3d 7c 55 0a bd e3 22 7e bd
       -0.010525769 0.06715858 -0.03377293 -0.06204499
0003d0 12 ac 50 3a f2 e7 79 3c 91 d0 4c 3c 24 cc 91 3c
       0.0007960211 0.015253054 0.012500898 0.017797537
0003e0 a4 53 34 bd f1 2e 90 bc 04 dd 0b bc ca 2b ea bc
       -0.04402508 -0.017600508 -0.008536581 -0.028585333
0003f0 94 72 95 bc bf ad b3 bc 20 67 87 3b c9 97 8f bd
       -0.018243112 -0.021933435 0.0041321665 -0.070113726

action_model._continuous_distribution.mu.bias f4 [2]
000000 4f 69 90 3b a0 59 a1 3c
       0.004407085 0.019696057
