results/test - Copy/MoveAgentToApple/MoveAgentToApple-200021.pt (torch, 440085 bytes, 36 tensors)

network_body._body_endoder.seq_layers.0.weight f4 [128, 5]
0	0xbe6d4672	-0.23171404
1	0x3eeb282a	0.4592908
2	0xbf1115c8	-0.5667386
3	0xbed2ce62	-0.41173083
4	0x3e811267	0.25209352
5	0xbe26aa60	-0.1627593
6	0x3dbb9476	0.09159176
7	0x3edb0031	0.42773584
8	0x3f299956	0.662496
9	0x3f070abd	0.5275076
10	0x3f5d6463	0.864813
11	0x3ed82dfe	0.4222259
12	0xbe3eb30d	-0.1862299
13	0x3d18df92	0.03732259
14	0xbeb2f760	-0.34954357
15	0xbf04e240	-0.5190773
16	0xbedeceaa	-0.43517047
17	0x3f86ef55	1.0541788
18	0xbf04be64	-0.51853013
19	0xbe79f634	-0.24410325
20	0xbfa08083	-1.2539219
21	0xbdbe7b5a	-0.09300871
22	0x3e02bfba	0.1276845
23	0x3e007504	0.12544638
24	0xbe98773f	-0.29778478
25	0xbcb25360	-0.021768272
26	0xbeb90498	-0.36136317
27	0x3ec25d95	0.37962022
28	0x3e8b8bd3	0.27255115
29	0x3d9b8b4a	0.07594927
30	0x3f336465	0.70075065
31	0xbcea05a8	-0.02856715
32	0x3ed5dc64	0.41769707
33	0xbe1876c3	-0.14889054
34	0x3e5ec718	0.21755636
35	0x3dbf9e2f	0.09356343
36	0xbece9910	-0.40351152
37	0x3f0c6297	0.54837936
38	0x3eb92b77	0.36165974
39	0x3bb0f14b	0.005399858
40	0xbb5d8809	-0.0033803007
41	0x3cd8bc55	0.026456991
42	0x3f2503b7	0.64458793
43	0x3d89726e	0.06711279
44	0x3e8f50f0	0.27991438
45	0xbe60ce64	-0.21953732
46	0xbbb785bc	-0.005600659
47	0xbf3a4e08	-0.72775316
48	0x3e102c82	0.14079478
49	0xbe8a53d5	-0.27017084
50	0xbefc47f6	-0.49273652
51	0x3f97c554	1.1857095
52	0xbf1aeeca	-0.60520613
53	0xbd76c06e	-0.06024211
54	0xbe0f9643	-0.14022164
55	0xbde96151	-0.11395515
56	0x3efc0a27	0.49226496
57	0xbeb135c9	-0.34611347
58	0xbf07cd5b	-0.5304772
59	0xbe572a9f	-0.21012352
60	0xbe1caf76	-0.15301308
61	0xbedf3e45	-0.43602195
62	0xbf43796e	-0.7635716
63	0xbf71a7d8	-0.94396734
64	0x3dc87e72	0.097897425
65	0x3e923976	0.28559464
66	0x3c92b4f9	0.01790856
67	0xbe335920	-0.17514467
68	0x3f4fc5f9	0.8116146
69	0x3b01904c	0.0019769846
70	0xbeefb7b0	-0.4681983
71	0xbe4e16e5	-0.20125921
72	0xbf2c6a85	-0.67350036
73	0x3ecb2f0b	0.39684328
74	0x3e26d7ec	0.16293305
75	0x3ed973dc	0.42471206
76	0x3ea65ddf	0.32493493
77	0xbe41969a	-0.18905106
78	0xbee34396	-0.443875
79	0xbe9555d7	-0.29167053
80	0x3d9c83b6	0.07642309
81	0x3da2e14a	0.07953127
82	0x3e6554ea	0.22395673
83	0x3f2d6002	0.6772462
84	0xbe3a4f5c	-0.18194336
85	0x3e820c8f	0.25400206
86	0xbecb6552	-0.3972574
87	0x3f122c24	0.57098603
88	0x3efc736f	0.4930682
89	0xbee66760	-0.45000744
90	0xbe98cca8	-0.2984364
91	0xbebc6b72	-0.36800724
92	0xbe333f39	-0.17504586
93	0xbed21ca3	-0.41037473
94	0xbf6b3680	-0.91880035
95	0x3e9dfaec	0.308555
96	0xbdc388d2	-0.09547581
97	0x3e75cece	0.24004671
98	0x3d43615f	0.047700282
99	0xbf0b4178	-0.5439677
100	0xbeee6b6d	-0.46566334
101	0xbe3c37a8	-0.18380606
102	0x3f4bea02	0.7965394
103	0xbe2d62db	-0.16932242
104	0xbe2aa077	-0.16662775
105	0xbef47b2b	-0.4775022
106	0x3e3ff64c	0.18746299
107	0x3f4632d5	0.77421314
108	0xbf282c9e	-0.6569308
109	0xbf13327e	-0.5749892
110	0x3dcef0e3	0.10104539
111	0xbe3201d1	-0.17383505
112	0x3ed53f4a	0.41649848
113	0x3e2867a3	0.16445784
114	0x3ebd97aa	0.37029773
115	0xbf0d15fa	-0.5511166
116	0x3edc134c	0.42983472
117	0xbd367dfc	-0.04455374
118	0x3de86131	0.11346663
119	0xbec3f447	-0.38272306
120	0xbeb97ccf	-0.36228034
121	0x3e670b26	0.22562847
122	0xbf336d0c	-0.7008827
123	0x3f06b42e	0.5261868
124	0xbee0b077	-0.43884632
125	0x3eb06ee6	0.3445961
126	0x3e8ffa04	0.28120434
127	0x3dce8323	0.10083606
128	0x3f44de4c	0.769017
129	0x3ce6bdea	0.02816673
130	0x3edbd413	0.42935237
131	0xbee1f3c9	-0.44131306
132	0x3e8f8d85	0.28037658
133	0xbf81404b	-1.0097746
134	0x3f2e8e14	0.68185544
135	0xbd2e4cee	-0.042553835
136	0x3b776cd0	0.0037754066
137	0x3df05021	0.117340334
138	0xbe1810be	-0.14850137
139	0xbede97ac	-0.4347509
140	0xbe60043b	-0.21876614
141	0x3f0cece0	0.5504894
142	0x3c88962f	0.016673176
143	0x3e994553	0.29935703
144	0xbe8d8848	-0.27643037
145	0xbe226fcf	-0.15862964
146	0xbe957bd1	-0.29196027
147	0x3dafd51c	0.08585569
148	0x3e9da611	0.3079076
149	0x3f6ae71c	0.91758895
150	0xbeac6daa	-0.33677417
151	0xbd984132	-0.0743431
152	0x3e9dddee	0.3083338
153	0x3cfdfada	0.031003404
154	0xbf1152fc	-0.5676725
155	0xbfa853d1	-1.3150579
156	0xbf5655e5	-0.83724815
157	0x3f3d76e4	0.7400954
158	0xbf309122	-0.68971455
159	0xbe80df01	-0.25170138
160	0x3e6a4e64	0.22881466
161	0x3e6b082c	0.22952336
162	0xbe0dcd5f	-0.13847874
163	0x3e97e9b5	0.29670492
164	0x3d594a49	0.05304936
165	0xbeffe1dd	-0.49977008
166	0x3e15ece8	0.14641154
167	0xba9c4871	-0.0011923445
168	0x3e769a55	0.2408231
169	0x3f073e25	0.528292
170	0x3e1235b7	0.14278303
171	0xbdfb8e7c	-0.12283036
172	0xbed4133c	-0.41420925
173	0xbef2efa5	-0.4744846
174	0xbdd7e5c6	-0.10541873
175	0x3f017ce0	0.5058117
176	0x3e3f7c3f	0.1869974
177	0xbed98db4	-0.42490923
178	0xbe93b960	-0.28852367
179	0x3edf8a59	0.43660238
180	0x3da925fd	0.08259199
181	0x3e40227f	0.18763159
182	0xbf46c2b9	-0.77640873
183	0xbeb28e58	-0.34874225
184	0x3f794f53	0.97386664
185	0x3f06526c	0.52469516
186	0x3f326496	0.6968473
187	0xbdd5062c	-0.10401568
188	0xbf0f7409	-0.5603643
189	0xbe10cb10	-0.14139962
190	0x3e2b4edc	0.16729301
191	0xbf41491b	-0.75502175
192	0x3f57b5f7	0.8426203
193	0xbf021817	-0.5081801
194	0xbd99a1cf	-0.07501566
195	0x3f07c1f9	0.53030354
196	0x3e9f14ce	0.3107056
197	0x3ea059ea	0.313186
198	0x3efdfaa0	0.49605274
199	0x3d83f9bd	0.06444118
200	0x3f022e62	0.50852025
201	0x3ede2a26	0.43391532
202	0xbd2339e3	-0.039850127
203	0x3e531946	0.2061511
204	0xbf00dfd8	-0.5034156
205	0xbf054b97	-0.52068466
206	0x3e285858	0.1643995
207	0xbea20541	-0.31644633
208	0x3d98a471	0.0745324
209	0xbe8fc121	-0.28077033
210	0x3e259707	0.16170894
211	0x3f05622b	0.5210292
212	0x3eed5337	0.4635255
213	0xbf91bf08	-1.1386423
214	0x3ec894e5	0.39176098
215	0x3ea8a0f9	0.32935312
216	0x3f0c1b61	0.54729277
217	0x3d36a0a7	0.044586804
218	0xbe45defd	-0.19323345
219	0x3e5cae84	0.21550947
220	0xbe4ab51c	-0.1979565
221	0xbe8236ec	-0.25432527
222	0xbe86fec2	-0.2636624
223	0xbeebe017	-0.46069404
224	0x3ea80154	0.32813513
225	0xbe4b53c0	-0.19856167
226	0xbefc5364	-0.49282372
227	0xbe2b3cb9	-0.16722383
228	0x3e3ab542	0.18233207
229	0xbe593c9d	-0.21214528
230	0xbf086e9f	-0.53293794
231	0xbedea0f2	-0.43482167
232	0xbf92322b	-1.142156
233	0xbedddeb4	-0.43333972
234	0x3ea70e4d	0.32628098
235	0x3e9e0b51	0.3086801
236	0x3e6dae07	0.23210917
237	0xbf41b1a0	-0.7566166
238	0x3f1142ae	0.5674237
239	0xbe86bc84	-0.263157
240	0x3db6b4c4	0.08921197
241	0xbf61480a	-0.8800055
242	0x3f0d6ab6	0.5524095
243	0xbd09cecd	-0.033644486
244	0x3f402b2b	0.7506587
245	0xbdfc96aa	-0.123334244
246	0xbda99de5	-0.08282069
247	0xbd979932	-0.074022666
248	0x3e263d16	0.1623424
249	0xbe5a5091	-0.21319796
250	0x3e8643aa	0.262235
251	0xbe8612ad	-0.26186123
252	0x3f44981d	0.76794606
253	0x3ed1104d	0.4083275
254	0x3ef148c5	0.4712583
255	0x3e32f2c8	0.17475426

network_body._body_endoder.seq_layers.0.bias f4 [128]
0	0x3cd1662e	0.025561418
1	0x3cc4a9ab	0.024006685
2	0x3bd492c2	0.0064872215
3	0xba8e5b45	-0.0010860941
4	0x3d659e7c	0.056059346
5	0x3c1f03df	0.009705513
6	0xbab32172	-0.0013666584
7	0x3ce145d1	0.027499111
8	0x3c85c8c9	0.016331093
9	0xbc845c54	-0.016157307
10	0xbb772cb2	-0.003771585
11	0xbd880b97	-0.066428356
12	0x3db1aa0f	0.08675014
13	0x3cc38e3e	0.023871537
14	0x3cc8eab6	0.024525981
15	0xbd87c436	-0.06629221
16	0x3cf62e5f	0.030051408
17	0x3cb57bef	0.022153823
18	0x3cbb2328	0.022843912
19	0xbcbea85c	-0.02327364
20	0x3b9e9836	0.0048399223
21	0x3cfb6c9a	0.030691434
22	0x3cee68c1	0.029102685
23	0xbd0e281e	-0.034706227
24	0xbc9584b0	-0.018251747
25	0x3d1419e2	0.036157496
26	0xbcc01dce	-0.023451712
27	0xbd14d546	-0.036336206
28	0xbcd4f523	-0.025995797
29	0xbc83923b	-0.016060939
30	0xbcb65069	-0.02225514
31	0x3d71f989	0.059075866
32	0xb94c074d	-0.00019457676
33	0xbd65306e	-0.05595439
34	0x3d3dd226	0.04634299
35	0xbb08fdd0	-0.0020903237
36	0x3a52b9a7	0.00080385286
37	0x3c8b0850	0.016971737
38	0x3d158158	0.036500305
39	0x3cfa3c61	0.030546369
40	0xbd35cb2d	-0.044383217
41	0xbca8fd5f	-0.02062863
42	0x3c14c5a9	0.009080329
43	0x3ba869d2	0.005139568
44	0xbce898d3	-0.028393185
45	0xbd00163e	-0.03127121
46	0x3c8080ef	0.01568648
47	0x3c7f1fbc	0.015571531
48	0xbbb07a33	-0.005385661
49	0xbcb005b0	-0.021487087
50	0x3c036a77	0.008020989
51	0xbce2c580	-0.027682066
52	0x3d128b05	0.03577711
53	0x3d721b44	0.059108034
54	0x3d5fb970	0.054620206
55	0x3c0b5248	0.008503504
56	0xbd1d4bf4	-0.038402513
57	0x3c9e84d6	0.01935045
58	0x3bef8634	0.0073096994
59	0xbaacc496	-0.0013181146
60	0xbd03389d	-0.032036413
61	0x3ceac0f2	0.028656457
62	0x3b771c90	0.0037706234
63	0xbc6640fd	-0.01405358
64	0x3c826d2d	0.0159212
65	0xba1a5005	-0.00058865576
66	0x3da4296c	0.08015713
67	0x3b3dbe95	0.0028952707
68	0x3baeba55	0.005332271
69	0xbce1f79d	-0.027583892
70	0x3c95bc85	0.01827837
71	0xbaa61e5e	-0.0012673845
72	0xbd3908d0	-0.04517442
73	0x3d03ba0a	0.032159843
74	0xbb450a8f	-0.0030066108
75	0x3d15710d	0.036484767
76	0x3d8c5fa5	0.0685418
77	0xbcb64a85	-0.02225233
78	0x3c229e0d	0.009925378
79	0x3c54e362	0.012993665
80	0x3d11993b	0.035546523
81	0xbd62d9b9	-0.055383418
82	0x3c9fab4d	0.019490862
83	0xbb2ebd27	-0.0026663037
84	0xbb70efb8	-0.0036763977
85	0x3d21bdc2	0.039487608
86	0x3dc3053d	0.095224835
87	0xbd00b3dc	-0.031421527
88	0x3bfb2997	0.00766487
89	0xbc148e59	-0.009067141
90	0x3c2eac1d	0.010661152
91	0x3d301937	0.042992797
92	0xbbfb8a87	-0.007676426
93	0xbb811bed	-0.0039400966
94	0x3d2cf73f	0.04222798
95	0x3d335c60	0.043789268
96	0x3ccf75df	0.02532476
97	0x3c513433	0.012768793
98	0x3d8f55c9	0.06998784
99	0xbd1f5d14	-0.038907126
100	0x3d995500	0.074869156
101	0xbd289f91	-0.0411678
102	0x3de12ad8	0.109945
103	0x3c8d1db6	0.017226081
104	0x3c9b16a8	0.018931702
105	0xbbc88eed	-0.0061205537
106	0xbc490306	-0.012268787
107	0x3d100cc5	0.035168428
108	0xbcb888bc	-0.022526138
109	0x3cae1fc5	0.021255383
110	0xbcbddf66	-0.023177814
111	0x3ba811a2	0.005129055
112	0x3d9d40dc	0.076783866
113	0x3d588064	0.052856818
114	0x3c04ce55	0.008105834
115	0x3d85a048	0.06524712
116	0xbcf12547	-0.02943672
117	0x3d6ba4ca	0.057530202
118	0xbd30d151	-0.04316837
119	0x3bc211e0	0.005922541
120	0xbbc9706c	-0.006147435
121	0x3b559e6e	0.0032595652
122	0xbb83ed01	-0.004026056
123	0x3d17a7bc	0.0370252
124	0xbc5d979f	-0.013524919
125	0xbca3cb64	-0.019994445
126	0x3c974af3	0.018468356
127	0x3c3f2268	0.011665918

network_body._body_endoder.seq_layers.2.weight f4 [128, 128]
0	0x3c8daa73	0.01729319
1	0x3d365ce8	0.044522196
2	0x3da36a1a	0.07979222
3	0xbe07264d	-0.13198204
4	0x3e1e6222	0.15467122
5	0xbdacad18	-0.084314525
6	0xbdff451d	-0.12464354
7	0xbe944909	-0.2896197
8	0x3c20cb90	0.009814158
9	0x3dd74fa1	0.10513235
10	0xbd91987f	-0.071091644
11	0xbdcb856c	-0.099375576
12	0xbc3a4cbd	-0.011370835
13	0xbd869da5	-0.06573037
14	0x3e483634	0.19551927
15	0x3e3afabb	0.18259709
16	0xbd96c456	-0.07361667
17	0xbe1c0872	-0.15237597
18	0x3d252970	0.04032272
19	0xbdb8a3e0	-0.09015632
20	0xbd681da9	-0.05666891
21	0xbdc9111f	-0.09817719
22	0x3e21741f	0.15766953
23	0xbe19f4f4	-0.15034848
24	0x3e12fb2e	0.1435363
25	0xbc3a4ecf	-0.0113713285
26	0xbe36626a	-0.1781098
27	0x3d88eae2	0.06685425
28	0x3e04ce6b	0.12969367
29	0xbd448614	-0.04797943
30	0xbd94ae77	-0.07259839
31	0x3da0d97b	0.07853981
32	0xbe0286e2	-0.12746766
33	0x3bd0c60e	0.006371266
34	0xbe5dfec8	-0.21679223
35	0x3d13eae7	0.036112692
36	0xbbb440ed	-0.005500904
37	0xbdea319c	-0.114352435
38	0xbe3d4339	-0.18482675
39	0xbdfafafe	-0.12254904
40	0x3cdb3ecd	0.026763344
41	0xbd867747	-0.06565719
42	0xbe2e5754	-0.170255
43	0x3ca60a3e	0.020268556
44	0xbcde7586	-0.027155649
45	0x3d3c7b6c	0.04601614
46	0x3dd6636b	0.10468181
47	0xbd0e3823	-0.034721505
48	0x3dae5a9e	0.085133776
49	0x3c66fb50	0.0140980035
50	0xbaee3775	-0.0018174486
51	0x3d1e1e15	0.038602907
52	0x3d4013c4	0.04689385
53	0xbc6d1938	-0.014471345
54	0x3d47a235	0.048738677
55	0x3d610772	0.05493874
56	0x3e180d24	0.14848763
57	0x3da22ad4	0.07918325
58	0xbd92f3ff	-0.07175445
59	0x3d89b3b9	0.067237325
60	0x3c3d0f96	0.0115393605
61	0xbe0cb1e0	-0.13739729
62	0xbd98e5d6	-0.07465713
63	0x3d058e7a	0.03260658
64	0xbd107653	-0.035269093
65	0xbd42491d	-0.047433008
66	0x3dff5d97	0.12469023
67	0x3c9c4849	0.019077437
68	0x3e119208	0.14215863
69	0xbd022cfd	-0.031781185
70	0xbe95749e	-0.29190534
71	0xbd1f391e	-0.03887283
72	0x3e8e6558	0.27811694
73	0xbdcc7379	-0.09982962
74	0xbe10b326	-0.1413084
75	0xbe281ba8	-0.164168
76	0x3e48164c	0.19539756
77	0x3de61af6	0.11235611
78	0xbe1488ad	-0.14505263
79	0xbdfcff3f	-0.12353372
80	0x3d84869b	0.064709865
81	0xbddbcb5e	-0.107321486
82	0xbdd84763	-0.10560491
83	0x3c8a057a	0.016848315
84	0x3dacbf53	0.0843493
85	0x3dcbcf44	0.09951642
86	0xbd983ef2	-0.07433881
87	0x3e39f648	0.18160355
88	0x3c492cd7	0.012278757
89	0xbdbd426a	-0.09241183
90	0x3db18a31	0.08668936
91	0x3d8fe330	0.070257545
92	0x3e04d009	0.12969984
93	0x3e29a058	0.16565073
94	0xbd987bc5	-0.07445482
95	0xbbf76cf5	-0.0075508305
96	0xbdf397a8	-0.118941605
97	0xbd0f3e62	-0.034971602
98	0xbdba810d	-0.09106646
99	0xbcb96e6c	-0.022635661
100	0xbc0921fc	-0.008369919
101	0x3e094255	0.1340421
102	0xbe3baeb8	-0.18328369
103	0xbd60ed7f	-0.054913994
104	0xbb3f1e7a	-0.0029162453
105	0x3d2d025b	0.042238574
106	0x3daea2f2	0.08527173
107	0xbdd4be75	-0.10387889
108	0xbdd324ee	-0.10309778
109	0x3d4ab007	0.04948428
110	0x3d22dbcc	0.039760396
111	0xbdb292cf	-0.08719408
112	0xbe5460ad	-0.20740004
113	0x3e2e31e3	0.17011218
114	0x3cb5d5eb	0.02219673
115	0xbe3646bc	-0.1780042
116	0x3c483893	0.01222052
117	0xbcc57434	-0.024103262
118	0x3d9619cd	0.0732914
119	0x3da3bf76	0.07995503
120	0xbd9fed58	-0.078089416
121	0x3e658f39	0.22417916
122	0x3e069ef4	0.13146573
123	0xbdaf924e	-0.08572827
124	0xbccea1be	-0.025223609
125	0x3d0f0cc5	0.034924287
126	0xbdb47d4c	-0.08812961
127	0x3db7575b	0.089522086
128	0xbd8e64eb	-0.06952842
129	0x3d454057	0.048157062
130	0x3dadbee9	0.08483679
131	0xbd86c4b1	-0.06580485
132	0x3e00995f	0.12558506
133	0xbd920df2	-0.07131566
134	0x3e24719f	0.16058968
135	0xbdb48666	-0.08814697
136	0x3d15fa83	0.03661586
137	0xbdc1a2c8	-0.09454876
138	0x3e1b50a5	0.15167482
139	0xbdc69ab7	-0.09697478
140	0x3dd99aa5	0.10625199
141	0xbe4e6298	-0.20154798
142	0xbdb46ef9	-0.08810229
143	0x3c7ddb00	0.015494108
144	0x3d866e2b	0.065639816
145	0xbc713f5e	-0.014724581
146	0x3c0541a1	0.008133323
147	0xbcee7a9f	-0.029111205
148	0xba6e818e	-0.00090982846
149	0x3db2b11e	0.08725189
150	0xbc76e111	-0.015068308
151	0x3b8710ea	0.0041218894
152	0x3e3f2cfb	0.18669502
153	0xbe19f1e8	-0.15033686
154	0x3d139ece	0.03604012
155	0x3c8cf1b4	0.017205097
156	0x3b3a47fb	0.0028424251
157	0xbce92205	-0.028458605
158	0xbd9612a9	-0.07327778
159	0x3d833054	0.06405702
160	0xbd81ccda	-0.063379005
161	0xbdf37366	-0.11887245
162	0x3c8f2c59	0.017477201
163	0xbb547912	-0.0032420796
164	0x3df1a5f2	0.1179923
165	0x3dbdc655	0.092663445
166	0x3e0b7087	0.13617145
167	0x3df419a2	0.119189516
168	0xbdc99768	-0.098433316
169	0x3ad63a60	0.0016344301
170	0x3e46a196	0.19397578
171	0x3d215409	0.039386783
172	0xbd170491	-0.03686959
173	0xbc2e5f98	-0.0106429085
174	0x3db64b3d	0.08901069
175	0xbde04636	-0.10950892
176	0xbd45b137	-0.04826471
177	0xbe09d010	-0.13458276
178	0xbdafac4a	-0.085777834
179	0xbe7fbe84	-0.2497502
180	0xbe65e649	-0.22451128
181	0x3c0ce16b	0.008598666
182	0x3b396a3f	0.0028292087
183	0xbce951b2	-0.028481338
184	0xbd86d0c5	-0.065827884
185	0xbe0a25eb	-0.13491027
186	0x3daf22f5	0.085515894
187	0x3d384b5d	0.044993747
188	0xbe0ec7bf	-0.13943385
189	0x3e030f67	0.12798844
190	0x3d108947	0.035287168
191	0xbc34e20f	-0.011040225
192	0xbd1413c3	-0.03615166
193	0x3d0f6990	0.03501278
194	0xbe12e876	-0.1434649
195	0xbd834559	-0.064097114
196	0xbe0408a2	-0.12893918
197	0x3d5e493e	0.054269068
198	0x3da23a14	0.07921234
199	0x3d749f45	0.059722204
200	0x3c96935d	0.018380815
201	0xbdd7b218	-0.105320156
202	0x3ca32b83	0.019918209
203	0x3c6ab999	0.0143264765
204	0xbdc978f3	-0.09837522
205	0x3cadc265	0.021210859
206	0x3c8e126b	0.017342767
207	0xbddd1a92	-0.107960835
208	0x3d9de417	0.0770952
209	0x3e300077	0.17187677
210	0x3c05f1ff	0.008175372
211	0x3c0a5169	0.008442261
212	0xb93f7e02	-0.00018262121
213	0xbe30f79b	-0.17281954
214	0x3e3a1c33	0.1817482
215	0x3d91c1ac	0.07117018
216	0x3de7d19c	0.11319277
217	0x3e5552cf	0.2083237
218	0x3e1c518f	0.15265487
219	0x3df47909	0.11937148
220	0xbd7648e5	-0.06012811
221	0x3d8af8b5	0.06785718
222	0xbe1fb0ba	-0.1559476
223	0xbdbda7ae	-0.09260498
224	0x3d2866f0	0.041113794
225	0x3d49e935	0.04929467
226	0x3dcfb9fa	0.10142894
227	0x3c25e434	0.010125209
228	0x3c583b7d	0.013197777
229	0xbe195a81	-0.14975931
230	0x3dc17208	0.09445578
231	0x3e25fe9d	0.16210409
232	0xbce04e28	-0.027381018
233	0xbdfbb99d	-0.12291262
234	0xbe09961c	-0.13436168
235	0x3e8156a6	0.2526142
236	0x3d2b0386	0.041751407
237	0xbd487aa0	-0.04894507
238	0xbcbb87e4	-0.022891946
239	0xbe311deb	-0.17296569
240	0xbd400fa2	-0.04688991
241	0x3d82095f	0.06349444
242	0xbe0104a3	-0.12599425
243	0x3d8e9615	0.069622196
244	0xbe1700ff	-0.14746474
245	0x3dd1d4f5	0.102456965
246	0xbc83ba22	-0.016079966
247	0x3e1dfb79	0.1542796
248	0x3d347493	0.044056486
249	0xbce36492	-0.027757917
250	0x3d319fd5	0.04336532
251	0x3d891382	0.06693174
252	0x3d05f312	0.032702513
253	0x3d853d05	0.06505779
254	0x3d78d3ca	0.060748853
255	0x3c5e9a31	0.013586567

network_body._body_endoder.seq_layers.2.bias f4 [128]
0	0x3d1c2530	0.038121402
1	0x3d2608d3	0.04053576
2	0xbc3a61b3	-0.011375832
3	0xbaa3c50d	-0.0012494639
4	0x3c569df4	0.013099182
5	0xbb727b1a	-0.0036999644
6	0x3c641cf7	0.013922921
7	0x3c4db3b6	0.012555053
8	0x3cafbcb7	0.021452291
9	0xbc38cab4	-0.011278797
10	0x3d06e4f0	0.032933176
11	0x3cc7b4aa	0.02437814
12	0x3bf1591b	0.0073653585
13	0xbcd242c6	-0.025666606
14	0x3ae37d3c	0.0017356048
15	0x3cf9cde5	0.030493686
16	0x3c78915e	0.015171377
17	0x3cbd6fd5	0.023124615
18	0xbb0bb4cb	-0.0021317478
19	0xbc274cd3	-0.010211187
20	0x3d02bab4	0.031916335
21	0x3c9d317a	0.019188631
22	0x3c92eee4	0.017936178
23	0x3b3bbe84	0.0028647492
24	0x3c2a6bee	0.010401709
25	0x3c2c8383	0.010529402
26	0x3cec43a5	0.02884085
27	0x3ca3e03b	0.020004382
28	0x3c8ecfc3	0.017433053
29	0x3c3275cc	0.010892343
30	0xbc90732c	-0.017633043
31	0x3cdbd6c8	0.026835814
32	0xba4c57a0	-0.00077950396
33	0x3d0e5ec0	0.03475833
34	0x3bfcf4e6	0.007719624
35	0xbd685740	-0.056723833
36	0xbd45d962	-0.048303016
37	0x3d0090c7	0.03138807
38	0x3ca7402a	0.020416338
39	0x398ae951	0.00026495245
40	0x3bb5a60b	0.0055434755
41	0x3ce68db7	0.028143747
42	0xb9d1401d	-0.00039911355
43	0x3cc53621	0.024073662
44	0xbc562434	-0.013070155
45	0xbc66dc7a	-0.014090652
46	0xbd4da553	-0.050206494
47	0x3c9c0f8a	0.019050378
48	0x3bb9cab2	0.005669915
49	0x3d1169a2	0.03550113
50	0x3cc666b6	0.024218898
51	0xbc06f550	-0.008237198
52	0x3c1630f0	0.009166941
53	0x3d117908	0.035515815
54	0xbc36fb01	-0.011168242
55	0x3d3712a2	0.044695504
56	0x3c4f7462	0.012662025
57	0xbd0d5c30	-0.034511745
58	0x3cb5e043	0.022201663
59	0x3c749041	0.014926971
60	0xbd1b33e1	-0.037891272
61	0x3ce8a0a4	0.028396912
62	0xbcc5ee10	-0.024161369
63	0x3c3b077c	0.011415359
64	0x3b1a276b	0.002352203
65	0x3d3ce237	0.046114173
66	0xbd45356e	-0.048146658
67	0x3d09cc31	0.033641998
68	0xbd0d7e20	-0.03454411
69	0x3d1c6519	0.03818235
70	0xbd38e45e	-0.045139663
71	0xbd1cc90b	-0.038277667
72	0x3cee828a	0.02911498
73	0x3b95e6e1	0.004574642
74	0xbd1d0a79	-0.038340066
75	0x3d6bb5a8	0.057546288
76	0x3d009c35	0.03139897
77	0x3c48856b	0.012238841
78	0x3c79d665	0.01524887
79	0xbbfa5d8d	-0.0076405467
80	0xbb28fd2e	-0.0025785672
81	0x3cfa7ce7	0.030577136
82	0x3cf9c644	0.030490048
83	0x3cdfd499	0.027323054
84	0x3b1e532c	0.002415846
85	0x3d26bf53	0.040709805
86	0x3d191e31	0.03738231
87	0x3c91d0d7	0.017799778
88	0xbc000b43	-0.007815185
89	0x3caa024e	0.020753052
90	0xbc5b5abf	-0.013388335
91	0xba39b232	-0.0007083743
92	0xbbe1956f	-0.006884269
93	0x3b009608	0.0019620676
94	0xbbb02a4a	-0.005376135
95	0x3c40fd88	0.011779197
96	0x3bb29f95	0.0054511526
97	0x3d33781b	0.043815713
98	0x3d230aa7	0.03980508
99	0x3ce3bc0f	0.027799634
100	0x3cff173b	0.031139007
101	0xbcb38aeb	-0.021916827
102	0x3c3bf79e	0.011472611
103	0xbc507123	-0.012722286
104	0x3cfaaccd	0.030599976
105	0xbc8b1af1	-0.01698062
106	0x3cbffcdf	0.023436008
107	0xbc8e9140	-0.017403245
108	0x3ce21f77	0.027602894
109	0x3c771bd4	0.015082318
110	0x3d3808ec	0.044930384
111	0x3d060e3d	0.032728422
112	0x3b70878a	0.0036701881
113	0xbcc822c8	-0.024430647
114	0x3c806b8a	0.015676279
115	0xbb17068c	-0.0023044674
116	0x3d3423a7	0.043979313
117	0x3cc88bea	0.024480779
118	0x3ac65834	0.0015132488
119	0x3c3a44ae	0.011368914
120	0x3c0291ec	0.007969361
121	0xbb816ea1	-0.0039499556
122	0x3bddaee4	0.0067652334
123	0x3c311e0d	0.010810387
124	0x3d3b9eb8	0.045805663
125	0x3d2d3dc9	0.04229525
126	0x3ca00f2a	0.01953848
127	0xbc420d98	-0.011844061

action_model._continuous_distribution.log_sigma f4 [1, 2]
0	0xbdb691e8	-0.08914548
1	0xbd0abbf7	-0.033870663

action_model._continuous_distribution.mu.weight f4 [2, 128]
0	0xbd197d0c	-0.03747277
1	0x3c2e700c	0.010646831
2	0x3ba7fa42	0.0051262686
3	0xbcc2c93d	-0.023777599
4	0x3c730127	0.014831818
5	0xbbb3024f	-0.0054629217
6	0xbd0a19fd	-0.03371619
7	0x3cfc27a2	0.030780617
8	0x3d3beec4	0.045882
9	0xbc8cbbfc	-0.017179482
10	0x3d06ca43	0.032907736
11	0x3ce330bc	0.0277332
12	0xbd0f5a79	-0.03499839
13	0xbc9093a0	-0.017648518
14	0x3cfd8e1f	0.030951558
15	0xbd6896fc	-0.056784615
16	0xbc9bfc25	-0.01904113
17	0x3d88992e	0.06669842
18	0xbc772704	-0.015084986
19	0x3ccb9bf6	0.024854641
20	0xbceac2df	-0.028657375
21	0xbd4982cd	-0.049197007
22	0x3c8f3122	0.017479483
23	0xbc128189	-0.008942016
24	0x3c8e9f1b	0.017409852
25	0xbce178ba	-0.027523387
26	0xbd3dbb58	-0.046321243
27	0xbd8e77eb	-0.06956466
28	0xbc712385	-0.014717941
29	0x3c2a3aa0	0.010389954
30	0xbad4b873	-0.0016229287
31	0xbaae5d9e	-0.0013303047
32	0x3c5dea53	0.013544637
33	0xbd91b126	-0.071138665
34	0x3d2f478a	0.042792834
35	0x3c71949a	0.014744902
36	0x3c2a8bef	0.010409339
37	0xbcb9b8ca	-0.022671122
38	0xbd31940c	-0.04335408
39	0x3ae58d0c	0.0017513349
40	0xbbd4a1ad	-0.006489
41	0x3d380dc9	0.04493502
42	0xbcb00419	-0.021486329
43	0x3d36572b	0.044516724
44	0xbbb0f8cf	-0.005400754
45	0xbc99ed42	-0.018789891
46	0xbc5394bf	-0.012913882
47	0x3cc35324	0.023843355
48	0x3ce3bab9	0.027798997
49	0x3cb340ba	0.02188145
50	0xbd52b51d	-0.051442254
51	0x3ceb29ea	0.02870651
52	0x3cc00f8b	0.023444911
53	0x3ddbea60	0.10738063
54	0xbca69853	-0.020336306
55	0x3d822f4e	0.06356679
56	0x3c4a3149	0.012340852
57	0xbcc6afcb	-0.024253746
58	0xbd807708	-0.062727034
59	0xbd3120b6	-0.043244086
60	0x3d0681ec	0.032838747
61	0xbd8e4f11	-0.069486745
62	0xbb12fcc8	-0.0022428501
63	0xbd31ba4c	-0.043390557
64	0x3b80beb4	0.0039289836
65	0xbdb6e5ba	-0.089305356
66	0xbd03aec6	-0.0321491
67	0xbdd12d0c	-0.1021367
68	0x3cac8bcb	0.021062752
69	0x3d126f64	0.03575076
70	0x3c88809a	0.016662885
71	0x3cc25b9d	0.023725325
72	0x3d11176b	0.035422724
73	0xbd1c200f	-0.03811651
74	0x3bc6ff86	0.0060729412
75	0xbcdb6f22	-0.02678639
76	0x3d450b57	0.048106518
77	0xbd41f4bb	-0.047352534
78	0xbc549f69	-0.0129774595
79	0x3c41cb32	0.011828231
80	0xbd6f4736	-0.05841752
81	0x3d242526	0.04007449
82	0x3d180b6d	0.03712027
83	0x3b111dd6	0.0022143028
84	0x3d40f028	0.04710403
85	0xbc906864	-0.017627902
86	0x3d3a31bc	0.045457587
87	0x3d15bf89	0.036559615
88	0x3c29e109	0.010368594
89	0x3cfc4c3e	0.030798074
90	0x38677a71	5.5188724e-05
91	0xbc166a88	-0.0091806725
92	0xbaf5d6d7	-0.0018756044
93	0x3d40b236	0.047044955
94	0x3bd58938	0.006516602
95	0x3cfc1979	0.030773865
96	0x3d168ebd	0.03675722
97	0x3d877dfe	0.06615828
98	0xbcdd4d62	-0.027014438
99	0xbda68f2f	-0.08132779
100	0xbd76f8bf	-0.060295817
101	0x3c856144	0.016281731
102	0xbd18fef8	-0.037352532
103	0xbc9b5ad2	-0.018964205
104	0x3c0aba37	0.008467249
105	0xbcf5cb29	-0.0300041
106	0x3ba0364a	0.0048892843
107	0xbc5afeed	-0.013366443
108	0xbd04a6a4	-0.032385483
109	0xbc8aa153	-0.016922629
110	0xbd32a60c	-0.043615386
111	0x3cee9166	0.029122066
112	0x3cbee372	0.023301814
113	0x3c79143d	0.015202579
114	0xbd00d175	-0.031449754
115	0x3cc5b40d	0.024133706
116	0x3b60090f	0.0034185087
117	0xbd7415d3	-0.059591126
118	0x3b5a65ec	0.003332491
119	0xbd10320a	-0.03520397
120	0xbb84d798	-0.004054021
121	0xbcf19d79	-0.029494034
122	0xbd3ce30c	-0.046114966
123	0xbb505b5c	-0.0031792736
124	0xbd4c0b7f	-0.04981565
125	0x3dbb91c9	0.09158666
126	0xbd2861fb	-0.041109066
127	0xbc39a97e	-0.011331914
128	0x3dcacccf	0.099023454
129	0xbd621449	-0.055195127
130	0xbb3ab7f2	-0.0028490988
131	0x3d980c3a	0.07424207
132	0xbca6a527	-0.020342423
133	0x3cb04e5c	0.02152174
134	0x3d2b3640	0.041799784
135	0x3d14af77	0.03630015
136	0x3d9334c6	0.071878
137	0x3ae82f52	0.0017714298
138	0xbd780299	-0.060549352
139	0x3dc5fa3a	0.096668676
140	0xbb8e266f	-0.0043380777
141	0x3d21f762	0.039542563
142	0x3d005f05	0.031340618
143	0xbcd18890	-0.025577813
144	0x3cec818a	0.028870363
145	0x3bf14007	0.007362369
146	0x3c565b3e	0.013083277
147	0x3c98587b	0.018596878
148	0x3d8927cb	0.06697043
149	0xba175633	-0.00057730376
150	0xbc9d78a7	-0.01922257
151	0x3d9336ae	0.07188164
152	0x3aee092f	0.0018160696
153	0xbcae6460	-0.021288097
154	0x3d8a462d	0.06751666
155	0x3c0bc410	0.008530632
156	0xbd46b932	-0.04851646
157	0x3d84e181	0.06488324
158	0xbbbec3f2	-0.0058216983
159	0xbda32a2b	-0.07967027
160	0x3d58fa4e	0.052973084
161	0x3d84975b	0.06474181
162	0x3d1d9d99	0.038480375
163	0x3c6e7019	0.014553093
164	0x3bcc9ebc	0.0062445085
165	0xbd623ff3	-0.055236768
166	0x3da74927	0.081682496
167	0x3cc1fad2	0.02367917
168	0xbca260bb	-0.019821515
169	0xbc8264c5	-0.015917191
170	0x3cf9b715	0.030482808
171	0x3d43f2b9	0.0478389
172	0x3cddc337	0.027070625
173	0x3cf2bf51	0.029632242
174	0x3d50fcca	0.05102233
175	0x3c5cdf33	0.013480949
176	0x3ce81ab1	0.02833304
177	0xbd605f00	-0.0547781
178	0xbc93769c	-0.018000893
179	0xbb675c34	-0.003530276
180	0xbc39069d	-0.011293081
181	0x3d574f6e	0.052565984
182	0x3d4e0d93	0.050305914
183	0xbc5298d6	-0.012853822
184	0xbcd4284e	-0.025898125
185	0x3bb1744e	0.005415476
186	0xbc13383e	-0.008985577
187	0x3d918803	0.0710602
188	0x3c017558	0.007901512
189	0xbc9dec15	-0.019277612
190	0x3d1a8d84	0.037732616
191	0x3d00a91f	0.031411286
192	0x3c942a39	0.01808654
193	0xbac7630c	-0.0015212013
194	0x3c7048f3	0.01466583
195	0xbd052118	-0.032502264
196	0x3d5ea191	0.0543533
197	0x3ce12d5e	0.027487453
198	0x3ce4b5a4	0.027918644
199	0x3d802f18	0.062589824
200	0x3dc5c9fa	0.096576646
201	0x3c274417	0.010209105
202	0x3c58c4d9	0.013230526
203	0x3d60166c	0.054708883
204	0xbc3808cb	-0.011232565
205	0xb9842238	-0.00025202497
206	0x3d6bddb9	0.057584498
207	0xb91e2a71	-0.00015083865
208	0xbc3303a2	-0.010926159
209	0xbd0307ed	-0.03198998
210	0xbd022cae	-0.03178089
211	0xbdad07bb	-0.0844874
212	0xbcb121af	-0.021622507
213	0x3d8de4c1	0.06928397
214	0x3db4e579	0.08832831
215	0xbc12b6d0	-0.008954719
216	0x3c6ac857	0.014329991
217	0xbd1c2b8c	-0.038127467
218	0x3cc6ab1d	0.024251515
219	0x3d68a9b1	0.056802455
220	0xbc828547	-0.015932692
221	0x3c5ce637	0.013482622
222	0x3be4631c	0.0069698226
223	0x3c7d3942	0.015455546
224	0xbc7a0260	-0.015259355
225	0xbae585fd	-0.0017511245
226	0x3d74b913	0.059746813
227	0x3d3b1295	0.045672018
228	0x3cd89d80	0.02644229
229	0x3cb2e709	0.021838682
230	0xbb35b27b	-0.002772479
231	0x3c1f3cfe	0.0097191315
232	0xbd8a1fe3	-0.06744363
233	0x3b38793c	0.0028148433
234	0x3d789e99	0.060698126
235	0x3cf82005	0.030288706
236	0x3db5bb2d	0.088735916
237	0x3d8100bf	0.062989704
238	0xbd2e3d23	-0.042538773
239	0xbd8002d3	-0.06250539
240	0x3d5718b8	0.052513808
241	0xbbb6b4bf	-0.005575746
242	0xbd25bb87	-0.040462043
243	0x3d521383	0.05128814
244	0xbd86b2a9	-0.065770455
245	0x3db92c70	0.09041679
246	0x3cd43fff	0.025909422
247	0xbcdb2421	-0.026750626
248	0xbd1f8fd9	-0.038955543
249	0xbc1687bc	-0.009187635
250	0xbcc5416d	-0.024079049
251	0x3cda26be	0.026629802
252	0x3da438cf	0.08018648
253	0xbd586685	-0.052832145
254	0xbd078f63	-0.03309573
255	0x3cfef0c2	0.031120662

action_model._continuous_distribution.mu.bias f4 [2]
0	0x3bcadb98	0.0061907284
1	0xbc89e701	-0.016833784

exp_avg f4 [128, 5]
0	0x39af6df1	0.00033460514
1	0x3a349d7e	0.0006889923
2	0xb8a2f297	-7.769948e-05
3	0xb9a884a8	-0.00032142294
4	0x3be7bfaf	0.007072411
5	0xba153569	-0.00056918577
6	0x3a3dd3b2	0.0007241323
7	0xb9b9ef7a	-0.00035464374
8	0xb8ab161d	-8.158034e-05
9	0xbc36d21b	-0.0111584915
10	0x390c2d6a	0.00013368358
11	0x3902970e	0.00012454038
12	0x38681ec4	5.5341763e-05
13	0x38f09b1e	0.000114729846
14	0x3a377da3	0.00069996173
15	0xba1182a6	-0.0005550779
16	0x3a822c7c	0.000993147
17	0xb9d4ceb7	-0.00040589806
18	0xba0186df	-0.0004941057
19	0xbb2fcb04	-0.0026823888
20	0xb4b4a303	-3.364622e-07
21	0xb916eb8e	-0.00014392866
22	0x3888ac97	6.517133e-05
23	0xb7e81fdb	-2.7671389e-05
24	0x3838763d	4.3979137e-05
25	0xb9801493	-0.00024429391
26	0x399b5585	0.0002962762
27	0xb98f6545	-0.00027350537
28	0x379937d7	1.8265024e-05
29	0xbb620ae4	-0.0034491355
30	0xba162d5f	-0.0005728807
31	0x39c039e0	0.00036664214
32	0xb964b02c	-0.00021809404
33	0xb8eb88fe	-0.0001123119
34	0xbb542a08	-0.0032373685
35	0xba190c0a	-0.0005838281
36	0x3b2dfa31	0.002654683
37	0xba8a18d1	-0.001053596
38	0xba9a8608	-0.0011789212
39	0xbb78dead	-0.0037974522
40	0xba32a697	-0.0006814985
41	0x3aa42aba	0.001252494
42	0xba14293f	-0.0005651898
43	0xba258824	-0.0006314537
44	0xbade18f0	-0.0016944688
45	0x372a4196	1.014806e-05
46	0x39229af0	0.00015507243
47	0x37354349	1.0804107e-05
48	0x37ad166e	2.0633652e-05
49	0x3958c145	0.00020671364
50	0x390fdfde	0.0001372094
51	0xb8941370	-7.0608105e-05
52	0x38e81f82	0.00011068491
53	0x39084203	0.00012994562
54	0xbaa779f6	-0.0012777436
55	0x39066c82	0.00012819658
56	0xb9980198	-0.00028992887
57	0x38972931	7.2079136e-05
58	0x374a8d8b	1.2073094e-05
59	0xb903cecb	-0.0001257017
60	0x3b175268	0.002308989
61	0x3a3da8dd	0.00072349404
62	0x3982dff5	0.00024962393
63	0xba6656c6	-0.0008786734
64	0x3cdf5bb1	0.027265402
65	0x3ab88e4f	0.0014080497
66	0xbb699914	-0.003564422
67	0x3ab98e51	0.0014156793
68	0x3b22aff1	0.0024824108
69	0xbc06aa28	-0.008219279
70	0x3a71432d	0.00092034304
71	0xbaf2de0b	-0.0018529309
72	0x3a6f054e	0.0009117917
73	0x3a93a3e7	0.0011264057
74	0xbba789df	-0.005112871
75	0x3850af78	4.9754482e-05
76	0x381a2040	3.6746496e-05
77	0xb6891b4d	-4.0860964e-06
78	0xb7c70321	-2.3724106e-05
79	0x39ee1ab3	0.0004541479
80	0x3a314d5e	0.0006763543
81	0xba469556	-0.00075753534
82	0x39a52df0	0.0003150548
83	0x3a1e9f92	0.00060509995
84	0x3b4caafa	0.003122984
85	0x37e96f64	2.7827635e-05
86	0x3900cb2e	0.00012282722
87	0xb78e4576	-1.6960064e-05
88	0x3433e24a	1.6752998e-07
89	0xb8af0985	-8.3464234e-05
90	0x3599c8a8	1.1457787e-06
91	0xb655f4ce	-3.1881968e-06
92	0xb70e5c78	-8.485389e-06
93	0x36cc8776	6.0954435e-06
94	0x37bb329e	2.2315708e-05
95	0xb6a045a8	-4.7764806e-06
96	0xb7a07a0e	-1.9130322e-05
97	0xb723b81a	-9.758422e-06
98	0xb702be47	-7.792906e-06
99	0xb8174b60	-3.6071404e-05
100	0xb9e23704	-0.0004314707
101	0x3a493f0f	0.0007676938
102	0xb9bf4e6d	-0.0003648879
103	0xba003508	-0.0004890715
104	0xbb3dcdad	-0.0028961704
105	0xb743cfad	-1.1671259e-05
106	0xb9421bd9	-0.00018511656
107	0x38442cb4	4.6771675e-05
108	0xb70352b0	-7.827461e-06
109	0x39aad264	0.0003258168
110	0xb85d6124	-5.2780975e-05
111	0x3a1454fd	0.0005658416
112	0xb92499f1	-0.00015697606
113	0xb93c9327	-0.00017983896
114	0xbb00eafb	-0.001967131
115	0x38bd4297	9.0246256e-05
116	0xb9a10ba0	-0.00030716974
117	0xb53ee16f	-7.1108565e-07
118	0xb837a50b	-4.378431e-05
119	0x37ae67f1	2.0790818e-05
120	0xb8d64598	-0.00010217278
121	0x3938d72f	0.0001762777
122	0xb81dbb8f	-3.7606394e-05
123	0xb7569708	-1.2790559e-05
124	0xb8e8e1eb	-0.000111047026
125	0xba0df04f	-0.0005414532
126	0xbb3fec70	-0.0029285215
127	0x3a8c6a8d	0.0010712907
128	0x3b130437	0.0022432932
129	0xbcce97a1	-0.025218787
130	0xba13a551	-0.0005632239
131	0x3ad468b6	0.0016205523
132	0xba150902	-0.0005685241
133	0xba7c1a1f	-0.00096169295
134	0x3bbec567	0.005821872
135	0x374bfae0	1.2158154e-05
136	0xb8a52968	-7.8755256e-05
137	0xb6f62283	-7.335389e-06
138	0x36b0591c	5.2555824e-06
139	0x38b45564	8.598974e-05
140	0x38bdccb1	9.050349e-05
141	0xb9ad6bc2	-0.00033077417
142	0xb75400a8	-1.26363375e-05
143	0xb7afb867	-2.0947495e-05
144	0x38e1f2a0	0.000107740285
145	0xb85d3b56	-5.2745767e-05
146	0xba44aaa8	-0.00075022364
147	0x39873bd7	0.0002579379
148	0x3a044361	0.00050454406
149	0xbbeeb2ea	-0.007284512
150	0x36435d28	2.9111488e-06
151	0xb6a29d4f	-4.8462894e-06
152	0xb6e509d7	-6.8258773e-06
153	0xb72af427	-1.0189636e-05
154	0xb75f6fac	-1.3317836e-05
155	0xb8e3fbaa	-0.000108710796
156	0x399aad7e	0.0002950243
157	0x38803987	6.114231e-05
158	0xb78fd915	-1.7148015e-05
159	0xba89cc52	-0.0010513163
160	0x38f2940f	0.00011567037
161	0xbb010acc	-0.0019690273
162	0x3a6ea4ea	0.00091035536
163	0x3aaccd71	0.0013183785
164	0xbc494da4	-0.012286577
165	0xb9e147e0	-0.00042968895
166	0xbaaa9dcf	-0.0013017001
167	0x3a1190c5	0.00055528834
168	0x3a735539	0.00092824135
169	0xbc6c8e66	-0.014438247
170	0x38384f4a	4.3942862e-05
171	0xb97df354	-0.00024218607
172	0x394ed929	0.0001972659
173	0x3926f012	0.00015920427
174	0xb97079b2	-0.00022933519
175	0x399af388	0.00029554614
176	0xba72fba7	-0.00092690665
177	0x39d6fc10	0.00041005062
178	0x39f83d29	0.00047347814
179	0xbadcd4e4	-0.0016848114
180	0x3a4563e9	0.00075298414
181	0xba13e158	-0.0005641184
182	0x39c02c07	0.00036653897
183	0x39774cec	0.00023584411
184	0x3bcabe8f	0.006187267
185	0x39026320	0.00012434693
186	0x391ab083	0.0001475234
187	0xb8141b73	-3.5311514e-05
188	0xb8f60549	-0.000117311785
189	0x3aef0efc	0.0018238719
190	0xbb1700ce	-0.002304125
191	0x3b856c5e	0.0040717563
192	0xbab3d838	-0.0013721054
193	0xbae849bb	-0.0017722169
194	0xbc1799c2	-0.009252967
195	0xb9b2b37f	-0.0003408454
196	0xbaf71ff1	-0.0018854124
197	0x3a177b98	0.000577861
198	0x3aa50b5d	0.0012591887
199	0xbc7a2190	-0.015266791
200	0xb8507e6e	-4.970881e-05
201	0x3969ac37	0.00022284767
202	0xb71a1d12	-9.185884e-06
203	0xb784555c	-1.5775375e-05
204	0xb928e73f	-0.00016107874
205	0x3791691c	1.7334292e-05
206	0x38a30bdd	7.7746554e-05
207	0x37114f40	8.661125e-06
208	0x3789fc2d	1.6449101e-05
209	0x3910bf1e	0.00013804107
210	0x3974be76	0.00023340606
211	0x3aaf4e3b	0.0013374755
212	0xba34dd1c	-0.0006899403
213	0xba82f04a	-0.0009989825
214	0x3c8c5132	0.01712856
215	0xb9b32ef9	-0.00034176538
216	0x3a87147e	0.001030579
217	0xba0af22b	-0.0005300368
218	0xba1aa9dc	-0.0005899945
219	0x3b5ced22	0.0033710678
220	0xba0d6b30	-0.00053946953
221	0x3a8e1cb9	0.00108423
222	0xb9d1a002	-0.00039982802
223	0xba2fe31a	-0.0006709561
224	0x3bb8b18e	0.0056364005
225	0x3a05ae39	0.00050995086
226	0xba6c8945	-0.00090231403
227	0x39b63b4b	0.00034757922
228	0x39eb2ece	0.00044857565
229	0x3b1937db	0.002337924
230	0x3a27e086	0.0006404001
231	0xbaa684ad	-0.0012704335
232	0x3a5097f1	0.00079572113
233	0x3a164ca0	0.0005733464
234	0x3add6d9e	0.001689363
235	0x394cf88d	0.00019547548
236	0x381636e0	3.5813893e-05
237	0x391363d9	0.00014056209
238	0x399b5379	0.00029626096
239	0x3aa7489e	0.001276273
240	0xb8844798	-6.307586e-05
241	0x3a2e352f	0.0006645498
242	0xb998d31c	-0.00029148988
243	0xb9a16d65	-0.00030789818
244	0x3b115993	0.0022178635
245	0x37cddfee	2.454218e-05
246	0xb7f0fdfd	-2.8728502e-05
247	0xb797e5e2	-1.810765e-05
248	0xb73ebd0c	-1.1368898e-05
249	0x39b24d41	0.00034008364
250	0xba36d8b5	-0.0006975041
251	0x3acf3aab	0.0015810331
252	0xba48fd9a	-0.0007667184
253	0xba31d905	-0.00067843526
254	0xbb607820	-0.0034251288
255	0x3967f595	0.00022121363

exp_avg_sq f4 [128, 5]
0	0x37f82d62	2.9585037e-05
1	0x37a94a56	2.0180985e-05
2	0x36bc2b3a	5.607869e-06
3	0x36ec0c0a	7.0347496e-06
4	0x3b2bae87	0.0026196556
5	0x38aaf0a2	8.151053e-05
6	0x3865155e	5.4617754e-05
7	0x3779f3fd	1.48983645e-05
8	0x37a58534	1.973156e-05
9	0x3bba49c9	0.0056850654
10	0x37a7ba9d	1.999485e-05
11	0x379acc5d	1.8453395e-05
12	0x36575eaa	3.2092598e-06
13	0x3625e6ba	2.4721217e-06
14	0x38134f89	3.5121604e-05
15	0x370d4575	8.420427e-06
16	0x37820e78	1.5503945e-05
17	0x362d3df9	2.5815082e-06
18	0x36665626	3.4322816e-06
19	0x385e3f65	5.2987965e-05
20	0x36c525c5	5.8754545e-06
21	0x36e273c3	6.7488013e-06
22	0x35cd9bff	1.5319091e-06
23	0x35cfae6e	1.5473468e-06
24	0x37b5bc36	2.1664524e-05
25	0x3817741e	3.6109348e-05
26	0x37b498b8	2.1528787e-05
27	0x36caa1d9	6.0389107e-06
28	0x370c08c7	8.346694e-06
29	0x3b69a9f2	0.0035654274
30	0x376a7e83	1.3976943e-05
31	0x3711dbd5	8.693857e-06
32	0x36398af9	2.764804e-06
33	0x3633302c	2.6701118e-06
34	0x3a86b74e	0.0010278018
35	0x38af006f	8.344731e-05
36	0x38710878	5.7466765e-05
37	0x375e4edb	1.3250591e-05
38	0x37b5b755	2.1662252e-05
39	0x3ba71a71	0.0050995876
40	0x37503941	1.2411097e-05
41	0x3759bce7	1.297819e-05
42	0x364c35ce	3.0429687e-06
43	0x36514f43	3.1189563e-06
44	0x3a99a428	0.0011721896
45	0x3654376e	3.1622726e-06
46	0x36140568	2.2056865e-06
47	0x356104da	8.382609e-07
48	0x34e6c3f2	4.2983407e-07
49	0x36d59a56	6.3658617e-06
50	0x3687dd0f	4.049048e-06
51	0x3698f910	4.5589477e-06
52	0x35b76412	1.3663687e-06
53	0x35335700	6.68093e-07
54	0x392641ce	0.00015855508
55	0x36b764e9	5.4655725e-06
56	0x37095aea	8.187004e-06
57	0x35c03879	1.432155e-06
58	0x357f4b0b	9.5104105e-07
59	0x379136c2	1.7310846e-05
60	0x39af23e7	0.0003340535
61	0x398e373b	0.000271255
62	0x3894fa78	7.1038434e-05
63	0x38a98a42	8.0843005e-05
64	0x3d14f9d5	0.03637107
65	0x39a2ce4c	0.0003105275
66	0x391e539d	0.00015099203
67	0x381b5bc6	3.704035e-05
68	0x3893a4ed	7.040226e-05
69	0x3c987e9c	0.01861506
70	0x384c88f8	4.8764952e-05
71	0x384ad70d	4.8360835e-05
72	0x37615046	1.3429735e-05
73	0x37324419	1.0625482e-05
74	0x3b9f460d	0.0048606456
75	0x35ebfe34	1.7582847e-06
76	0x360ae474	2.069658e-06
77	0x34941ae0	2.7586702e-07
78	0x346192a3	2.1008104e-07
79	0x36aeb42b	5.2065784e-06
80	0x376d850b	1.4157277e-05
81	0x3754bfaf	1.26808145e-05
82	0x36309e08	2.631803e-06
83	0x3642acd0	2.9008843e-06
84	0x38c9db26	9.6252465e-05
85	0x37176b9a	9.025354e-06
86	0x36d46576	6.329904e-06
87	0x35f6d7f2	1.8391277e-06
88	0x35da3bca	1.6259667e-06
89	0x37665a82	1.3730141e-05
90	0x345bd0d9	2.0471943e-07
91	0x34458f70	1.8399237e-07
92	0x3358ccd0	5.0477695e-08
93	0x32f6da1b	2.8737352e-08
94	0x345644bf	1.9955313e-07
95	0x34989dcb	2.8427016e-07
96	0x34a8a28b	3.1410704e-07
97	0x32fc11e3	2.9344795e-08
98	0x3358c6ca	5.0472217e-08
99	0x34966f99	2.8020875e-07
100	0x36dfba69	6.667619e-06
101	0x37064400	8.002855e-06
102	0x35f36fd3	1.8137456e-06
103	0x35ed86bf	1.7697092e-06
104	0x385ecb13	5.3118052e-05
105	0x358d557f	1.0530201e-06
106	0x361d2c97	2.3420778e-06
107	0x34508646	1.9420358e-07
108	0x3411ae97	1.3567693e-07
109	0x359f3894	1.186289e-06
110	0x371ae0aa	9.231424e-06
111	0x36c85afc	5.9710565e-06
112	0x35d3dc2a	1.5784801e-06
113	0x36198fc9	2.288247e-06
114	0x3a0ce03d	0.000537399
115	0x3681ec3d	3.8720013e-06
116	0x36afd27d	5.2399105e-06
117	0x3581d4f1	9.673223e-07
118	0x353a4798	6.939458e-07
119	0x36ce39e1	6.1460164e-06
120	0x36048e15	1.9752235e-06
121	0x354383be	7.283487e-07
122	0x350ce12b	5.2481727e-07
123	0x3424d4a4	1.5351048e-07
124	0x3642b2d0	2.9012335e-06
125	0x39a0a809	0.00030642774
126	0x3917e81f	0.00014486954
127	0x381ac086	3.6895763e-05
128	0x38952794	7.112246e-05
129	0x3cc974ff	0.02459192
130	0x38006ad3	3.0617066e-05
131	0x37b35322	2.1377175e-05
132	0x36bc03f7	5.603298e-06
133	0x36e8a1f5	6.932993e-06
134	0x3b1198fc	0.002221643
135	0x3503ed6f	4.9146814e-07
136	0x35846529	9.864208e-07
137	0x33d6f024	1.0008833e-07
138	0x34587b73	2.0161478e-07
139	0x3581b4ec	9.663904e-07
140	0x36486d95	2.9866108e-06
141	0x36c4172c	5.8439527e-06
142	0x3543a426	7.288203e-07
143	0x358bbac1	1.041066e-06
144	0x3746aad2	1.1841492e-05
145	0x37876ce0	1.6143953e-05
146	0x373f303f	1.139572e-05
147	0x36437d94	2.913036e-06
148	0x3684971f	3.9514994e-06
149	0x3ab04560	0.001344841
150	0x34302f7c	1.6408552e-07
151	0x34e1fb93	4.209256e-07
152	0x332f6935	4.0841048e-08
153	0x33a24663	7.556516e-08
154	0x34d9c156	4.056007e-07
155	0x37a919ec	2.015844e-05
156	0x381b12c0	3.6972342e-05
157	0x36e347ec	6.7735e-06
158	0x36f9970c	7.4383624e-06
159	0x394e69d2	0.00019685112
160	0x387ab8e1	5.9776827e-05
161	0x3824d775	3.9301307e-05
162	0x371da0ed	9.395398e-06
163	0x375cd840	1.31633715e-05
164	0x3ba4d90e	0.0050307577
165	0x380bad4d	3.330158e-05
166	0x37d5ac0d	2.5471696e-05
167	0x3701e434	7.742132e-06
168	0x36ea6491	6.985451e-06
169	0x3b606186	0.0034237816
170	0x372c93e8	1.0286436e-05
171	0x37428ba4	1.1595814e-05
172	0x3609bdca	2.0525063e-06
173	0x3650beda	3.1105506e-06
174	0x38ddb786	0.00010572285
175	0x372b2160	1.0200165e-05
176	0x3713d812	8.812191e-06
177	0x3617824c	2.2576596e-06
178	0x361ce19d	2.3377136e-06
179	0x3a596424	0.0008292815
180	0x37ca0e37	2.4086896e-05
181	0x37a43769	1.9576126e-05
182	0x36b9ced4	5.5375076e-06
183	0x36b71026	5.455705e-06
184	0x3aeeb027	0.0018210456
185	0x3759b188	1.2975543e-05
186	0x36d7f007	6.435442e-06
187	0x36224e5c	2.4185492e-06
188	0x35ef3932	1.7823534e-06
189	0x38e17f64	0.000107525644
190	0x382c24f4	4.104241e-05
191	0x384c2d48	4.867956e-05
192	0x3725459c	9.850974e-06
193	0x374b649c	1.2123168e-05
194	0x3a3d2598	0.000721538
195	0x38db507d	0.00010457726
196	0x383cfbf4	4.5057343e-05
197	0x3750bcdf	1.2441741e-05
198	0x37c80096	2.384213e-05
199	0x3c10e7ed	0.008844358
200	0x35bf2990	1.4242705e-06
201	0x35ca3c33	1.5067693e-06
202	0x3474bce7	2.2792993e-07
203	0x3454e45c	1.9827115e-07
204	0x35a5d589	1.2355605e-06
205	0x358d45eb	1.0525667e-06
206	0x357b1fc8	9.3551034e-07
207	0x349103dc	2.7011163e-07
208	0x3426fa24	1.5550955e-07
209	0x361ee420	2.367662e-06
210	0x38a1e36a	7.7194374e-05
211	0x388497ca	6.3225234e-05
212	0x378ae7b5	1.6558779e-05
213	0x378dd58d	1.6907952e-05
214	0x3bda0079	0.0066528884
215	0x37c2ce76	2.3222743e-05
216	0x37858fea	1.592185e-05
217	0x36aaa79d	5.0859076e-06
218	0x3694fb77	4.440018e-06
219	0x3ac93cdc	0.001535322
220	0x387cc9dd	6.026948e-05
221	0x3810c132	3.4512203e-05
222	0x37032b22	7.818251e-06
223	0x3784fcf5	1.5853419e-05
224	0x3b886e3c	0.0041635316
225	0x368477be	3.9478464e-06
226	0x36b4320c	5.3702443e-06
227	0x3599f448	1.1470484e-06
228	0x359f1927	1.1853743e-06
229	0x37b5fb58	2.1693922e-05
230	0x38d9ec61	0.00010391395
231	0x38bc7ec4	8.9881505e-05
232	0x37c6cf3e	2.3699944e-05
233	0x37d561f7	2.5437197e-05
234	0x3c22e410	0.00994207
235	0x37497bc0	1.2009346e-05
236	0x3790ac77	1.7246448e-05
237	0x3611230a	2.162708e-06
238	0x363aa7b0	2.7813767e-06
239	0x3830b9d6	4.2134743e-05
240	0x36bbc2ce	5.5957125e-06
241	0x36b2c52a	5.3277663e-06
242	0x35bb3887	1.3949037e-06
243	0x35b38a03	1.3376706e-06
244	0x39e94fea	0.00044500764
245	0x3507799d	5.046839e-07
246	0x352c39f1	6.415931e-07
247	0x340f84ee	1.3366272e-07
248	0x3403ebf9	1.2286172e-07
249	0x36904a9f	4.3002215e-06
250	0x38956688	7.1239716e-05
251	0x3865a722	5.475351e-05
252	0x3778f4c2	1.4838939e-05
253	0x379049fa	1.7200586e-05
254	0x3ba4d9cf	0.0050308476
255	0x35f4268d	1.8190636e-06

exp_avg f4 [128]
0	0x39afffc1	0.00033569153
1	0xba933df5	-0.0011233675
2	0x394c7e08	0.00019501906
3	0xba323cb7	-0.00067992083
4	0x36ecb509	7.0544233e-06
5	0xb9d226ef	-0.0004008333
6	0xb9f3d414	-0.00046506582
7	0xbac2ba29	-0.0014856505
8	0xba4ac593	-0.00077351293
9	0x377537a4	1.4616093e-05
10	0xb8240ee5	-3.911452e-05
11	0xb77a1052	-1.4904961e-05
12	0x3ada8cd3	0.0016674049
13	0x3aca984a	0.0015456763
14	0x3a1ad2bf	0.00059060374
15	0x381a0683	3.6722526e-05
16	0x3a50d0ca	0.00079656823
17	0xb5a4e263	-1.2284839e-06
18	0x3730b061	1.0531484e-05
19	0xb7cfe703	-2.4783896e-05
20	0xba399e1b	-0.00070807495
21	0x38898129	6.556727e-05
22	0xb9ad272d	-0.0003302632
23	0xb84c35bd	-4.8687438e-05
24	0xb75c8b97	-1.3145523e-05
25	0xb9b76f84	-0.00034987566
26	0xb9bd8f6b	-0.00036155744
27	0x374330c4	1.163426e-05
28	0xb80a6327	-3.2994107e-05
29	0xb93ca291	-0.00017989638
30	0xb70af066	-8.281413e-06
31	0xb90fb365	-0.00013704372
32	0x393538fb	0.00017282732
33	0xb9d74934	-0.00041062536
34	0x38b34592	8.5483436e-05
35	0x39a7401e	0.00031900493
36	0x3a4e1953	0.000786205
37	0x3847eca8	4.76657e-05
38	0xbb2228d4	-0.0024743574
39	0xb9aca8fa	-0.00032932294
40	0xb7279c87	-9.99042e-06
41	0x3782c7b3	1.55902e-05
42	0x39f29aa2	0.00046273047
43	0xb9c7e21a	-0.00038124697
44	0xb920c160	-0.00015330827
45	0x3a1743cf	0.0005770297
46	0x3a3330fd	0.0006835608
47	0x39d4efb6	0.0004061439
48	0xb8cffaeb	-9.917266e-05
49	0x37bbb71a	2.23774e-05
50	0xba878ef6	-0.0010342288
51	0x398ac92c	0.00026471296
52	0xba20139b	-0.0006106437
53	0xb90ec205	-0.00013614453
54	0x3987a383	0.00025871032
55	0xb84ec64f	-4.9298917e-05
56	0x3929eff8	0.00016206491
57	0xb6d96ebc	-6.479995e-06
58	0x3a935402	0.0011240246
59	0xb982a86e	-0.00024921022
60	0x384723eb	4.747875e-05
61	0x3858373e	5.154986e-05
62	0xba453501	-0.0007522852
63	0xb901495d	-0.00012329729
64	0xbaa08b17	-0.0012248483
65	0x38b1995a	8.468582e-05
66	0xba313668	-0.00067601213
67	0xb8d20371	-0.00010014221
68	0x3a1e1b47	0.00060312863
69	0xb9bea2ba	-0.00036360865
70	0xb89e84da	-7.5587726e-05
71	0x392d63f4	0.00016535801
72	0xb91a449c	-0.00014712143
73	0x3886696f	6.4092565e-05
74	0x3907f5a2	0.00012966109
75	0xb98587ac	-0.0002546882
76	0x3a5f1ded	0.0008511234
77	0xb9b18b21	-0.0003386373
78	0xb790eb49	-1.72757e-05
79	0x3a8a1d02	0.001053721
80	0x3977bd69	0.00023626316
81	0xb7c26db5	-2.3177688e-05
82	0x39eb4b0e	0.00044878613
83	0x391074cd	0.00013776422
84	0x367399c4	3.6299325e-06
85	0xbaa5ec22	-0.0012658874
86	0xbabe6282	-0.0014525207
87	0xb6fd9235	-7.5570083e-06
88	0x37899489	1.640084e-05
89	0xb9ef33fe	-0.0004562437
90	0x396f2800	0.00022807717
91	0xba3ebe64	-0.0007276295
92	0xb58b8fb5	-1.0398131e-06
93	0x3aa7a38a	0.0012789827
94	0x379ec6be	1.8927614e-05
95	0x3a52a3cb	0.00080352713
96	0xb7577e83	-1.2844454e-05
97	0x3a1f7c43	0.0006083885
98	0xbac325a5	-0.0014888538
99	0xba0a8cf2	-0.0005285285
100	0x398ac11e	0.00026465295
101	0x39051298	0.00012690795
102	0x3a366814	0.0006958258
103	0x3948a497	0.00019134801
104	0x39291e0e	0.00016128292
105	0x34bd40a2	3.525102e-07
106	0x38217c1c	3.8500977e-05
107	0x37cda761	2.4515846e-05
108	0x3841b89b	4.6186713e-05
109	0x369b523b	4.628933e-06
110	0xb92ee191	-0.00016677963
111	0x394d0eed	0.00019555884
112	0x39d137eb	0.0003990525
113	0xba2fc39d	-0.0006704869
114	0x39bc1a6e	0.00035877846
115	0xba8f5755	-0.0010936061
116	0x398efee2	0.00027274253
117	0xbb1299f6	-0.00223696
118	0x395dfff3	0.00021171551
119	0xb918d961	-0.0001457683
120	0xba0de810	-0.0005413303
121	0x3a5699ca	0.00081863685
122	0xb7dd43cd	-2.6376825e-05
123	0xba3490b0	-0.0006888015
124	0x372f5b14	1.0452019e-05
125	0x39e64e43	0.00043927328
126	0x394d927a	0.0001960489
127	0xb9be3276	-0.0003627722

exp_avg_sq f4 [128]
0	0x376158ed	1.343175e-05
1	0x38156ae3	3.5623914e-05
2	0x37247a69	9.803663e-06
3	0x36c9331f	5.996218e-06
4	0x365ab37d	3.2589007e-06
5	0x377cd73d	1.5070485e-05
6	0x36c499b3	5.859148e-06
7	0x3813d6a8	3.5247445e-05
8	0x36df42ca	6.653693e-06
9	0x35b275f9	1.3296368e-06
10	0x3610967d	2.1545268e-06
11	0x36698e96	3.4802702e-06
12	0x392a7386	0.00016255499
13	0x38f3be72	0.00011622616
14	0x37cbb30e	2.4282865e-05
15	0x3582c372	9.742637e-07
16	0x36e0801c	6.690634e-06
17	0x36818aa0	3.8606377e-06
18	0x33cf7314	9.660121e-08
19	0x341be427	1.4518501e-07
20	0x36789b0d	3.7045131e-06
21	0x35670b10	8.6070304e-07
22	0x3683176b	3.9068304e-06
23	0x361bbc99	2.3206578e-06
24	0x3538cf43	6.8846947e-07
25	0x38f32edd	0.00011595872
26	0x3760b2ae	1.33930425e-05
27	0x34c2dd56	3.629636e-07
28	0x36147198	2.2119839e-06
29	0x36ec044c	7.0338483e-06
30	0x341b0da8	1.4440468e-07
31	0x3771c4ac	1.4410511e-05
32	0x37d387e7	2.5216445e-05
33	0x377d045d	1.5080991e-05
34	0x36b7f209	5.4820016e-06
35	0x36a686b4	4.962867e-06
36	0x374109a3	1.150594e-05
37	0x36a1ef8a	4.82606e-06
38	0x37be4f6e	2.2686752e-05
39	0x382183dc	3.8508195e-05
40	0x35437742	7.2816704e-07
41	0x3502dfd4	4.8754487e-07
42	0x38189d96	3.6386387e-05
43	0x37283d8a	1.00279085e-05
44	0x37ca4ce9	2.411609e-05
45	0x361b956c	2.3183775e-06
46	0x3858693a	5.1596413e-05
47	0x36f8f3ea	7.4193713e-06
48	0x3639f7a8	2.7711303e-06
49	0x349b0000	2.8871e-07
50	0x3809782c	3.2775264e-05
51	0x355963c5	8.0983983e-07
52	0x384983c9	4.804487e-05
53	0x38b7b951	8.760638e-05
54	0x3625e833	2.4722074e-06
55	0x3727b031	9.994998e-06
56	0x355a27f3	8.126946e-07
57	0x335a2f70	5.0800224e-08
58	0x37977390	1.8054416e-05
59	0x371cb6d5	9.3408935e-06
60	0x34f925d2	4.6407382e-07
61	0x35e65fa9	1.7164176e-06
62	0x36bbf83e	5.6019335e-06
63	0x36b6b972	5.4456114e-06
64	0x377b2f20	1.4971738e-05
65	0x36392637	2.7589392e-06
66	0x393179df	0.00016925436
67	0x35a934b7	1.2606823e-06
68	0x37c1010d	2.3007882e-05
69	0x3742ea4e	1.1617854e-05
70	0x35e35c2b	1.6939642e-06
71	0x35e86b54	1.7316584e-06
72	0x37060628	7.988456e-06
73	0x3769240f	1.3896278e-05
74	0x369cbc3c	4.6710757e-06
75	0x3725ce41	9.882789e-06
76	0x37e8c83c	2.7749797e-05
77	0x36c59ce4	5.889322e-06
78	0x3409a1b3	1.2817945e-07
79	0x378b72c0	1.6623526e-05
80	0x37c37ffc	2.3305409e-05
81	0x359dd642	1.1759769e-06
82	0x384fe4c3	4.9565697e-05
83	0x374e6d45	1.2303998e-05
84	0x34ea0c05	4.3594642e-07
85	0x36b3cffc	5.3588283e-06
86	0x3956d0eb	0.00020486458
87	0x33cea99f	9.6234764e-08
88	0x36607d66	3.3451593e-06
89	0x37c864a4	2.3888722e-05
90	0x3728dad9	1.0064535e-05
91	0x379a152c	1.836809e-05
92	0x33b49bb7	8.4102275e-08
93	0x36bebd49	5.684477e-06
94	0x33546c52	4.9458613e-08
95	0x389b6501	7.4097894e-05
96	0x361260c3	2.1812018e-06
97	0x382aab42	4.0690655e-05
98	0x38d81811	0.00010304165
99	0x36c27b39	5.7959955e-06
100	0x3692afdc	4.371612e-06
101	0x358be96d	1.0424243e-06
102	0x38c2af2b	9.2832684e-05
103	0x360f7632	2.137746e-06
104	0x36a46fc2	4.900591e-06
105	0x37955b6b	1.7804754e-05
106	0x360cb8fc	2.09693e-06
107	0x37ea19d3	2.7907e-05
108	0x3458041b	2.0118061e-07
109	0x357cac15	9.412773e-07
110	0x3773dee4	1.4535824e-05
111	0x3801839b	3.0878564e-05
112	0x38927051	6.982743e-05
113	0x367d4f45	3.7746079e-06
114	0x37485838	1.1941469e-05
115	0x385dbe71	5.286787e-05
116	0x365fa330	3.3324577e-06
117	0x38eecd96	0.00011387018
118	0x36327a84	2.659538e-06
119	0x361cc289	2.3359046e-06
120	0x3754bb3c	1.2679779e-05
121	0x3845ba12	4.714175e-05
122	0x3673ff23	3.635833e-06
123	0x378aa566	1.6527902e-05
124	0x339a9703	7.198653e-08
125	0x3729bfc0	1.011783e-05
126	0x381dc7f6	3.7617945e-05
127	0x36876a13	4.035662e-06
