results/test3/MoveAgentToApple/MoveAgentToApple-300043.onnx (onnx, 77622 bytes, 7 tensors)

network_body._body_endoder.seq_layers.0.weight f4 [128, 11]
00000000: 79d8 9cbe 9c6e dabd d771 37bd 0b7a 88bd
00000010: 27d9 a6be 03f5 c8be efb0 58bd 9ec2 25be
00000020: 1005 88be a5ef 60be f8f3 9fbe a782 87be
00000030: 95a4 f4bd 82f5 aebe 623c 0dbf 6bfc a43e
00000040: 6cf9 6f3e 5a3a 99be 5de8 9c3e 14a2 d2bd
00000050: 5455 da3e 7673 503e f8a9 ccbd 12d6 8d3e
00000060: 82c5 053e 6c0a 07bf 58c3 a23e 2c73 21be
00000070: a9cf 353f 7c30 afbd 24d1 2fbe ef3c 42bf
00000080: 4b41 86be d1bb a9bc 43ec 12be 3a07 0fbe
00000090: d716 2ebe 073e 133f 0617 8abe 997f 2f3e
000000a0: ba5d a63d f8a7 b7bd b7a8 84be 2897 d93e
000000b0: 9833 cfbc 5ab8 d53d 491a 31bf cf0c 94bc
000000c0: 7433 923e 9c94 a63e 46be fa3e 06d1 86be
000000d0: 9e56 26bf 51ac 233d 45ee 9e3e 7169 91bd
000000e0: 81a5 653c 1b33 4b3e 652a cebe e304 483d
000000f0: 2326 973e f242 9d3e 3d40 9ebe f8be dabe
00000100: a667 8f3e 3c50 b5bc 76a2 f13e 3556 603d
00000110: 7859 193f 64c5 91be 2cad 2a3e dacd a0be
00000120: 3a26 453d 193e 1ebe b98a c0bc 8243 39be
00000130: a4c4 a83e d08f 0dbe abe4 a93e 7dd1 3fbb
00000140: 5d13 39be 93d6 d7be 2d0d adbe afa6 8d3d
00000150: 3ad5 e7bd 8b2a 753e 6150 88bd 799e a3be
00000160: 38d7 9cbe d1c1 9b3e ddbf 7cbe 9548 1f3f
00000170: f57b c93e f71e a3be 274b d73e 891f bc3e
00000180: d2a3 ec3d e7e2 333f f8cf e2bd 8a60 03bd
00000190: dc91 7cbf ea16 62be 4719 df3e a74e a23e
000001a0: 73b9 80be b0a3 c6be 023d 88be 2319 83be
000001b0: 7c25 31bf 11d2 e7bd acaa f3be 4e93 193e
000001c0: 93eb d3bd 1ecd c93c d916 8abe b8da 803e
000001d0: b9b6 f63e b11a 22be c222 593e 3177 15be
000001e0: 4c9d c83d 114e 9e3d 29e8 f63c 26e5 f73e
000001f0: 2f07 70be 572f 1bbe bcc8 0fbf 1a26 2c3f
00000200: c13e f43e 3aaa 4e3e 6cd0 94be bfd1 87be
00000210: 09a6 04bf c44f 90be e2b3 7abd 189f 583d
00000220: 638f 49bd 2a8b 80be 4596 92be eb9e 1d3e
00000230: 8fc4 34bb 8245 82be 9675 943e 00e3 18bc
00000240: 1da4 233d f726 b03e 6026 52be 94ce 843e
00000250: 1e2e 3cbe dd2c 07be 1b59 153e 8b7c 79be
00000260: 6fcf c33e d7be d6be 5a89 43bf ce10 253e
00000270: 9e97 a13d edbc bebe fb11 c3be 0b8d 07bd
00000280: 2bc1 563e 6c73 fdbe 95e1 08bc b23c 853e
00000290: 2fad 073f 87fe 033f f444 823e 13e8 35be
000002a0: 9377 0f3d 8a4c 053e ada7 9fbd 058d 523e
000002b0: 5664 49bf b4c0 42be 0797 933d 194c c9be
000002c0: 57f9 a73d 372f 9ebd c973 86be 1cfc fcbe
000002d0: 51b6 6abe 251a e93c af5f 613e ccfc 373e
000002e0: 6f35 4cbb 216e cdbe 859d 94be 9c92 7bbe
000002f0: 0ca5 b13d 51a8 afbb 3f9e 16bd a9e2 953e
00000300: 1463 eebe 37ce de3d 145b bebe 9b4f 4ebe
00000310: 73fa a0bb 8c04 e73e b1ba c4be 7978 dbbc
00000320: b271 0abf 0cb3 36be b96a f6bd a993 80bd
00000330: 3369 57be 7fcf be3e fbe9 9fbe 539b 92bd
00000340: 79ff 6f3b 3b54 4b3d 0915 523e 0aef 31bf
00000350: be75 7e3d 9f12 833e 666c 363e 9cb1 92be
00000360: 0185 be3e 1921 6abe c0d1 4ebe 86be 5fbd
00000370: f436 e83d f20e a6bd 4e28 203f 8778 a9be
00000380: 6581 053e d132 383e 0bf7 503d ba0c 34bf
00000390: 02ef 97be 5856 b03d 6804 9dbe 4154 35be
000003a0: 4f70 cf3e f366 be3e dbca d23e a340 7abe
000003b0: 241e 663d f81d 36be a3c5 913e bf39 06bf
000003c0: b6e5 aebc 8392 8fbe 04a4 75be fd19 8b3b
000003d0: 0fae a83e d11b 52bd 63a0 c0be 2a5d 923e
000003e0: c847 43bc 9c16 0fbe 67fa 063d 4a17 92be
000003f0: 5c41 8abe 7b86 6d3e 431a 823e 50e9 8fbe
-0.30633906 -0.10665628 -0.0447863 -0.06663903 -0.3258755 -0.3924943 -0.052903112 -0.16187522
-0.26566362 -0.21966417 -0.3124082 -0.26466867 -0.11945454 -0.34171683 -0.5517026 0.3222383
0.2343499 -0.2992733 0.3064603 -0.1028482 0.42643225 0.20356545 -0.099933565 0.27702385
0.13063625 -0.5275028 0.3178966 -0.15766591 0.7101999 -0.085541695 -0.17169625 -0.7587423
-0.2622169 -0.02071944 -0.14347939 -0.139676 -0.170009 0.5751652 -0.2697069 0.17138518
0.08123346 -0.08967584 -0.2590997 0.42498136 -0.025293157 0.10435553 -0.6918073 -0.018072514
0.2855488 0.32535255 0.48973292 -0.26331347 -0.6497592 0.039959256 0.3104116 -0.071001895
0.01401651 0.19843714 -0.4026672 0.048832785 0.29521284 0.30715138 -0.30908385 -0.42723823
0.28008765 -0.022132985 0.4719426 0.054769713 0.59902143 -0.2847091 0.16667622 -0.31407052
0.04813216 -0.15453376 -0.023503648 -0.18092158 0.32962525 -0.13824391 0.33182272 -0.0029269152
-0.18073793 -0.42155895 -0.33799115 0.06916558 -0.113199666 0.2394201 -0.06655956 -0.31956843
-0.3063295 0.30421308 -0.24682565 0.62220126 0.39352384 -0.31859562 0.42049524 0.3674281
0.11554684 0.702681 -0.11074823 -0.03207449 -0.98660064 -0.22079054 0.43573973 0.31700632
-0.25141487 -0.3879676 -0.26609045 -0.25605115 -0.6919782 -0.11319364 -0.4759115 0.14997599
-0.103476666 0.02463394 -0.26970556 0.2516687 0.4818628 -0.15830494 0.21204665 -0.14596249
0.09795627 0.07729734 0.03014 0.48417014 -0.2344024 -0.15154777 -0.5616567 0.6724564
0.47704127 0.20182124 -0.29065263 -0.2652721 -0.5181585 -0.28185856 -0.061206706 0.0528861
-0.04920901 -0.25106174 -0.28630272 0.15392654 -0.0027582978 -0.25443655 0.2899596 -0.009331465
0.039951432 0.34404728 -0.20522451 0.25938857 -0.18376967 -0.13200708 0.14584772 -0.24363916
0.38244197 -0.41942474 -0.76381457 0.16119692 0.07890247 -0.37253514 -0.38099656 -0.033093493
0.20972125 -0.49502122 -0.008354564 0.2602287 0.5299863 0.5156025 0.25443232 -0.1776431
0.035026144 0.13017479 -0.077956535 0.20561607 -0.78668725 -0.19018823 0.072065406 -0.3931587
0.08201855 -0.07723849 -0.26260212 -0.49411094 -0.2292111 0.02845485 0.22009157 0.17967528
-0.0031159779 -0.40123084 -0.29026428 -0.24567646 0.08674058 -0.005360641 -0.03677201 0.2927449
-0.46559966 0.10879176 -0.37178862 -0.20147555 -0.0049126684 0.45120656 -0.38423684 -0.026790844
-0.54079735 -0.17841738 -0.120320745 -0.06278164 -0.21036224 0.37267682 -0.312332 -0.07158532
0.003662078 0.049640875 0.20515837 -0.6950537 0.062124006 0.25600144 0.17814788 -0.2865113
0.3721085 -0.22864188 -0.20197201 -0.054625057 0.113386065 -0.08108319 0.625615 -0.33099768
0.13037641 0.17988135 0.05101685 -0.7033192 -0.29674536 0.08610219 -0.30667424 -0.17707922
0.40515372 0.3718792 0.4117039 -0.2443872 0.056181088 -0.1778487 0.28471097 -0.52431864
-0.02134977 -0.28041467 -0.23988348 0.0042450414 0.32945296 -0.05129606 -0.37622365 0.28586704
-0.011918969 -0.13973469 0.032953646 -0.28533393 -0.2700299 0.23195831 0.2541066 -0.2810769

network_body._body_endoder.seq_layers.0.bias f4 [128]
00000000: 5f17 acbd 0679 673c 57a7 47bc ed88 7dbd
00000010: 1fe5 54bb 12cb 093c 5979 cdbc 2469 863b
00000020: 0178 a3bc c612 c63b df1f 953d 293a 59bb
00000030: 83f6 b9bb faae febc d8c9 e7bc e165 393c
00000040: 9ebc b13c 2faf bdbc 6077 e43c 9e29 3a3c
00000050: 5756 5d3c 6734 eabc ac87 15bb 3774 7f3c
00000060: 30a8 b73c b733 983c 9898 8f3c b456 323b
00000070: ac1c 143d 74bc 19bc 8bd9 8d3c ba3d 96ba
00000080: 8e00 1ebc 21ea ebbc a22b 1f3d 3cdc a83d
00000090: fb0a 92bb 9936 753c 50cd 3abc 2b80 86bb
000000a0: a12f 783c 9dd1 cd3b fad4 c13c be48 afbc
000000b0: d3a2 9b3b 7c6a e2bc 0bc8 3d3c baab b0bc
000000c0: 24a9 2e3c 80c0 353d eeaf 973c 78fa bfba
000000d0: 7e80 173d 2658 9f3c 029e a33c f6ba c83b
000000e0: 69fe 223d 8a9e ec3d d1f7 d33c 5f5d b2bc
000000f0: 1ba1 2dbd fd91 0ebc b4a2 cabb 7bed eb3b
00000100: 5d6f 793d 3fbc a9bc 76dd ec3c bc4c f7bb
00000110: 9d00 223c aaaa 2e3d 403a e1bb 9586 963b
00000120: b849 50bc 4307 af3c 7e88 fa3c 529e 0c3d
00000130: 485c b33c c462 cb3c faff 2e3d 1df0 663d
00000140: 2b97 e7bb 703a bd3c bf3e e1bb 3a90 1ebc
00000150: f3c9 0c3d 750d 463d 1f65 0bbd 19f0 7dbd
00000160: 5569 b73b 69da 2bbd 5384 17bd f52a 5cbd
00000170: 5f25 2d3c 1426 643c 910c 173d 915d a73c
00000180: 6913 873a bcc9 bd3b d016 683d 32f1 22bb
00000190: 02f8 5bbb c272 6dbb 505b 7b3c 55ad 713b
000001a0: 3514 a53c 5e26 b43c 49f3 ffbc 7bb2 5ebd
000001b0: 3b14 563c 6144 303c bd20 253d 7338 7d3c
000001c0: 134d af3c 0d29 af3b f052 633c 94fa 86bc
000001d0: 3c6f 3bbc 384e 823b fe53 23bc d30f a73d
000001e0: ffcd 46bc 8a97 3cbd c496 3dbd 2c61 303c
000001f0: 36ec 9cba f227 6c3a 1394 45bc eb21 66bc
-0.08402895 0.014127975 -0.012185893 -0.06189816 -0.00324852 0.008410232 -0.025082277 0.004101889
-0.019954683 0.0060447184 0.072814696 -0.0033146238 -0.0056751384 -0.031089295 -0.028294489 0.011315794
0.021696385 -0.023154823 0.027888954 0.011362461 0.013509355 -0.02858944 -0.0022816462 0.015591673
0.022419065 0.018579347 0.017528817 0.0027212324 0.036160156 -0.00938331 0.017315647 -0.0011462488
-0.009643687 -0.028798165 0.03885997 0.082451314 -0.0044568754 0.01496663 -0.011401489 -0.0041046343
0.015148074 0.0062810914 0.023661125 -0.02139699 0.004749635 -0.027638666 0.0115833385 -0.02156626
0.010660443 0.044373035 0.018516507 -0.0014646789 0.036987774 0.019451212 0.019972805 0.006125803
0.039793406 0.115536764 0.025875004 -0.021773038 -0.04238997 -0.0087017985 -0.0061839465 0.0071999407
0.06089722 -0.020719646 0.028914195 -0.0075469892 0.0098878415 0.042643227 -0.006873399 0.00459368
-0.012712888 0.021365767 0.030582663 0.034330674 0.021894589 0.024827369 0.042724587 0.056381334
-0.007067581 0.023099154 -0.006873935 -0.009677941 0.03437228 0.048352677 -0.034031983 -0.061996553
0.0055972734 -0.04195634 -0.03699143 -0.053751905 0.010567992 0.013925094 0.03687722 0.020430358
0.0010305467 0.005791871 0.05666238 -0.0024863002 -0.0033564572 -0.003623173 0.015341595 0.0036876996
0.020151237 0.021990951 -0.031243937 -0.05436943 0.013066347 0.01075849 0.040314425 0.015455353
0.021399057 0.00534547 0.013874754 -0.016476907 -0.011440095 0.0039766096 -0.009968756 0.08157315
-0.012134074 -0.046042956 -0.04628636 0.010765355 -0.0011972252 0.0009008638 -0.012059229 -0.014046173

network_body._body_endoder.seq_layers.2.weight f4 [128, 128]
00000000: b216 183e 6911 86bd 51ff 89bd 0cf9 10bd
00000010: 2a1e 44be c757 173c 6907 6f3d 15ff 50bd
00000020: 9b9c 06be dd01 de3d e281 16be d3a6 ee3d
00000030: 5078 433e 4c1a 34bb 949b 203d b91d ae3d
00000040: 7526 12be f214 4dbd 6ec6 b6bc 10da 1b3d
00000050: db60 f63d 769f 2bbd 5522 60be 10e6 94bd
00000060: 718a a5bd bba1 063e bca1 a23d c53a cbbc
00000070: 2229 a1bd 1514 a2ba f90e a03d 6b34 4b3d
00000080: d9ef febd 1fae b53d 556c cabd 49b8 efbc
00000090: 5622 67bd b4fc 60be 67c1 7bbc 41b1 933c
000000a0: b9b1 d73d 69c3 93bd 95a3 f13d 73b8 3fbb
000000b0: caea 33be 58f1 f9bd a513 c4bd 7d78 13bd
000000c0: d068 e03d 4a51 c3bd b9b3 87bd ed7b 11be
000000d0: 678d 753d 516a 95bd 4341 3abd ef4a 083e
000000e0: 4c58 b23d fe22 1bbe ddd1 ac3d ae50 aa3d
000000f0: 2af9 39bc 5a43 e53d c2c0 763e 81f0 4e3b
00000100: 28ce cf3c fc7b 58bb d46d 7f3d 4500 01bd
00000110: 6dd5 c8bc 3792 3fbe dba0 14be 03a1 d7bb
00000120: 60b4 97bd ce15 833d 2861 153c 7ce7 9c3d
00000130: 3687 83bd 1cfe 90bd eeac 113e 1549 0bbe
00000140: 7321 88be 74f4 dd3d 31b6 13bd b720 8d3c
00000150: 15ed 79bd 1fbb 823d 65cb e5bd 243e a5bd
00000160: 542f 30be 855f 993b bc26 88bc 7beb fb3b
00000170: f52b aa3b d8aa fd3d 12ea 8a3d c617 a0bd
00000180: b33a cebb 35b9 a93d 1fef 7bba b9b1 83bc
00000190: 2350 3ebc 2dc0 d53d d0c3 043d e744 c3bc
000001a0: 9e7c 543d 69c4 48bb b765 a9bd c465 48bd
000001b0: 3683 60be e583 04bd 0f6e 34bd c5a7 943d
000001c0: 000b e23c b461 65bd 928f 363c e6d5 aebd
000001d0: 7fe1 363d 95e6 56be 8ad3 c5bd 3fee 583e
000001e0: 3258 c3bc a90c 4a3c 2c10 0f3d 4462 bfbd
000001f0: 0830 e4bc 1bc7 2b3e ddec 00be d42a 4fbc
00000200: 6abd 393d d6a6 16bc d80b 693d aa75 263d
00000210: 7330 39bd e075 f63d 48a6 c43d ced8 a2be
00000220: af1f 14be 32f3 30bd 4e14 aebd 2f80 17bd
00000230: 2a8d 1dbc 35e4 81bc fb5f f2bd 5a92 2bbd
00000240: c339 0e3e f02b 273e 38b0 cebd 350c 43bd
00000250: 1ac8 ef3d bc3e 5b3d c767 09be 963b f43c
00000260: 38e4 8bbd dddc 5bbd 7eb5 9f3d c290 383e
00000270: 8cde b2bd b310 d7bd b505 223b e3ff e8bc
00000280: eaf0 8b3e d258 f63c 5ae1 913e d5e8 9dbd
00000290: 1c2a e6bd 6da6 ad3c ab9e 22be b146 8ebd
000002a0: f260 1dbe cd6a 163e 32e6 0b3d 2b88 8cbd
000002b0: adfd 79bd 6b22 0bbc 0d0e b0ba 9823 cbbd
000002c0: db64 f93d 2d0f df3c f5f8 a43a 1322 bfbd
000002d0: 78df 77bc 81db 9bbb 2ada a3bd 6660 6e3d
000002e0: 6bfe 183c 0413 b23c 5067 1dbe 5aa1 83bc
000002f0: 4eb4 f43c 608a d9bc 360d c63b 055f c13c
00000300: 3063 83bd 32fe 0c3e be93 e9bc 773b e9bd
00000310: e1bf 9e3d 12fb 01be 7e58 d43d 9980 7abb
00000320: 5522 e73d f63a abbd c212 b5bd 664c 58bd
00000330: a7f7 b73d 3dd0 f7bc 7d5c a93d be0e cdbd
00000340: 1a2f aebd 5c23 1f3d 1b4c dd3d 483a 943b
00000350: 837c 8d3d d9a0 003e 2cbc dcbc 05b9 453e
00000360: a157 96bd c739 dfbd 1a59 c0bd 4a1a dabd
00000370: 7b43 7cbd 09b2 75be 0b9c 2f3d 5b38 f5bd
00000380: 18d1 e13d 2c1b da3d 902c 643d c7ab 4b3c
00000390: 2d87 61be 5414 233d be86 bcbd f63b d03c
000003a0: 203f 4a3d e8f6 a23d e39a bd3d 92ed 74be
000003b0: 44d4 303d e664 113d 9fa3 26be 1fa2 dcbc
000003c0: ce6d 32be 29a6 c7bc b4e8 0f3e 134f 1dbc
000003d0: eb54 75bd e3a4 973d 57f3 e6bd 18b8 21bd
000003e0: 82ad d0bd 281e 4bbc f416 94bc 8084 533d
000003f0: 3bfa b13d 0ff3 0f3d bd76 e03d 4e16 8a3c
0.14852408 -0.065462895 -0.06738151 -0.03539376 -0.19152132 0.009237236 0.058356676 -0.051024515
-0.13145678 0.10840199 -0.14697984 0.11652913 0.19088864 -0.0027481494 0.03921087 0.08501763
-0.14272483 -0.050068803 -0.022311416 0.038049757 0.120301925 -0.04190012 -0.21888097 -0.072704434
-0.08083046 0.13147633 0.07941005 -0.024808297 -0.078691736 -0.0012365604 0.07815356 0.049610537
-0.12448091 0.088711016 -0.09883944 -0.029262679 -0.05642923 -0.21971399 -0.015365935 0.018028857
0.10531945 -0.07215006 0.11798779 -0.0029254227 -0.17570034 -0.12204236 -0.095740594 -0.03600358
0.109574914 -0.09536989 -0.06626076 -0.1420743 0.059949305 -0.07295669 -0.045472395 0.13309835
0.087082475 -0.15150067 0.08438466 0.0831617 -0.011350909 0.11194487 0.24096969 0.0031576457
0.025366858 -0.0033032885 0.0623606 -0.031494398 -0.024515832 -0.1870812 -0.14514486 -0.0065804734
-0.07407451 0.06400643 0.009117402 0.0766134 -0.06422274 -0.070797175 0.14226124 -0.13602097
-0.2658802 0.10837641 -0.036062423 0.017227514 -0.061017115 0.06383347 -0.11220435 -0.08068493
-0.17205554 0.0046805763 -0.016620032 0.0076879836 0.0051932284 0.123861015 0.067829266 -0.078170344
-0.0062936186 0.082872786 -0.0009610522 -0.016075956 -0.011615786 0.10437045 0.032413304 -0.023836566
0.051876657 -0.0030634648 -0.08271354 -0.048925176 -0.21925053 -0.032352347 -0.044050273 0.07258562
0.027593136 -0.05600138 0.011142628 -0.08536892 0.044648644 -0.20986398 -0.096594885 0.21184634
-0.023845766 0.01233212 0.034927532 -0.093449146 -0.027854934 0.16775171 -0.12590356 -0.012644488
0.045346655 -0.00919505 0.05689606 0.040639557 -0.04521222 0.120342016 0.09602028 -0.31806034
-0.14465211 -0.04320068 -0.084999666 -0.03698748 -0.009616176 -0.015855888 -0.11834713 -0.04188762
0.13889222 0.16325355 -0.10092205 -0.047619063 0.11708088 0.053526625 -0.13418494 0.029813569
-0.06830639 -0.05367743 0.07798289 0.1802397 -0.08733854 -0.10501232 0.002472264 -0.028442329
0.2733224 0.03007165 0.28492242 -0.07710425 -0.112385005 0.021197522 -0.1588084 -0.06947077
-0.15369013 0.14689179 0.03415508 -0.068619095 -0.06103294 -0.008492093 -0.0013431922 -0.09918898
0.1217744 0.027228916 0.0012586402 -0.09332671 -0.015128963 -0.0047563915 -0.08000596 0.0581974
0.009338002 0.021737583 -0.15371442 -0.01606815 0.029871132 -0.02655524 0.0060440553 0.02360488
-0.06415403 0.13768843 -0.028512832 -0.11388295 0.07751442 -0.12693432 0.10368441 -0.0038223623
0.11285845 -0.08360855 -0.088414684 -0.052807234 0.08982783 -0.030250663 0.08269594 -0.100125775
-0.08505078 0.03885208 0.108055316 0.004523549 0.06908514 0.12561359 -0.026945196 0.1930886
-0.07340933 -0.10899692 -0.09391995 -0.106495455 -0.061587792 -0.23993696 0.042873424 -0.119736396
0.110262096 0.10649714 0.05570656 0.012431092 -0.22024222 0.03981431 -0.092053875 0.025419217
0.049376607 0.0795725 0.09258058 -0.23918751 0.043171182 0.035496615 -0.16273354 -0.026932774
-0.174247 -0.024371224 0.14053613 -0.009601372 -0.059895437 0.074044965 -0.11276882 -0.039482206
-0.10189344 -0.0123973265 -0.018077351 0.051640034 0.08690306 0.035143908 0.109601475 0.016856339

network_body._body_endoder.seq_layers.2.bias f4 [128]
00000000: 94cf 743c da44 263c 9806 3e3c 6af7 7abd
00000010: 06e8 0cbd 918b 82bc 41fe fe3b b518 243d
00000020: a512 183d 0e11 753c 54a5 113d 5be4 ba3c
00000030: 3c7b d53b 3da6 273a 21a6 93bc 5109 9b3c
00000040: 6a45 6ebb 8401 993b ed07 a63c a82c 133d
00000050: 4700 5a3c bf2f 2c3d 8c95 28bc e450 653b
00000060: 493a 333d 9cdb f13b 93be 16bc 9f88 36bc
00000070: d4bd 253d c592 993b baab b03c d563 e83c
00000080: 94d7 b8bb 33c0 e43c 7fd0 98bb 4f09 9a3c
00000090: f37b a3bc 355e 68bc f062 ecba ed2f 5c3b
000000a0: aa63 86bc 7bde a93c 9353 51bc 2eb8 9a3c
000000b0: 6598 af3c 26e6 77bd 669b 333d fe71 253d
000000c0: 19dd 203c 8a29 523c b59e 2b3d e711 7a3c
000000d0: 6d6f eb3a e20e 923d ca72 e23c a4ea 893c
000000e0: feb9 743b 5e04 293d c864 19bc b248 713c
000000f0: 9197 503d 46ae f23c 7ffa 333d 8d23 5f3c
00000100: c006 4dbb b5d4 cd39 06bd b33c 8269 e53b
00000110: c5d7 f4bb 45f2 9dba 8ea8 273c 3d82 543d
00000120: 7029 1dbc 48f2 ad3c 92fc e3bc ddd6 38ba
00000130: 218d cebc f533 4dbc 5b28 11bd d540 123d
00000140: 26f2 3b3d 0750 e13c fcc4 bf3c 4b02 ddb9
00000150: 5e44 45bc 7ca1 0e3c 4cd9 0c3c 383e 8c3c
00000160: 272f 4c3c d7b1 94bc bcff c83c 5b9c e93c
00000170: 1fe1 543d e02a 9cbd c54b dfbb 7cf7 d73c
00000180: 34dd 2d3d 56bb 983c 0f72 383c 8672 133b
00000190: 28f4 663c a3ec 053c a562 0e3d 711c 59bb
000001a0: a27c 343d a912 b53b e1ca 02bc bbaf 0e3d
000001b0: 85d3 15bc cb05 153c 4198 d43c 0890 23bc
000001c0: 8ea9 3abc cd40 29bc 7caf d1ba c68c 3d3c
000001d0: e9b8 f2bc 2756 5bbc 5552 003d eda5 833b
000001e0: 47ad c8bb cf71 dd3a 03af 873a 2c88 8c3c
000001f0: 12f8 40bc 178a 2b3c d9c3 31bd 3c79 caba
0.014942069 0.010148251 0.011598252 -0.06127111 -0.034400962 -0.015935691 0.0077817743 0.040062625
0.037127156 0.014957679 0.03555806 0.022813966 0.006514935 0.0006395316 -0.018023552 0.01892534
-0.0036357292 0.00466937 0.020267451 0.03593126 0.01330573 0.04203772 -0.010289561 0.0034990842
0.043756757 0.007380916 -0.00920071 -0.011140971 0.040464237 0.0046866857 0.02156626 0.028367916
-0.0056409333 0.027923679 -0.0046635265 0.018803267 -0.019956565 -0.014182617 -0.0018034857 0.0033597902
-0.016404945 0.02073597 -0.012776273 0.018886652 0.021434972 -0.06052222 0.04384937 0.040391915
0.009818339 0.0128272865 0.0418994 0.015263057 0.0017962285 0.07131745 0.027642626 0.016835518
0.0037342305 0.04126393 -0.009362407 0.014726805 0.050925795 0.029624116 0.043940064 0.013619316
-0.003128454 0.00039259126 0.02194072 0.007001103 -0.007472011 -0.0012050351 0.010233058 0.051882017
-0.009592399 0.021233693 -0.027830396 -0.000705106 -0.02521378 -0.012524595 -0.035438877 0.03570636
0.045885228 0.02750398 0.02340936 -0.00042154113 -0.012040226 0.008705493 0.0085967295 0.017119512
0.012462414 -0.018151207 0.024536006 0.028516939 0.051972505 -0.07625365 -0.0068144524 0.026363127
0.042447284 0.018644016 0.011257662 0.0022498681 0.014096297 0.008174094 0.034762044 -0.0033128525
0.04406417 0.005525906 -0.00798294 0.03483556 -0.0091446685 0.009095619 0.025951507 -0.00998307
-0.011392964 -0.010330391 -0.0015997733 0.0115692075 -0.029629188 -0.01338724 0.031328518 0.0040175826
-0.006124172 0.001689488 0.001035184 0.017154776 -0.011777895 0.010469935 -0.043399666 -0.0015447508

action_model._continuous_distribution.log_sigma f4 [1, 2]
00000000: cbfb a0bd 460e dbbc
-0.07860526 -0.026740205

action_model._continuous_distribution.mu.weight f4 [2, 128]
00000000: 7584 6b3d 9112 0a3d 4568 213d 6803 9b3c
00000010: 291c cc3c 4930 5bbc dfcd bb3c fe65 273a
00000020: f514 8aba d3ca b23c 4e89 95bc 0c57 fcbc
00000030: 6a21 28bd 3328 1dbd 620a b33c 2400 0dbc
00000040: 2b6d 4fbc 256f 48bc f54f 663b fd82 593d
00000050: 070e 5c3c 1ac3 0dbd b9a1 643a b24c 163d
00000060: 173a 1b3d 893f db3c fc34 1abd 2ccb 003d
00000070: 590e 83bd b6a3 9e3c d1d6 cdbc 1d89 253d
00000080: 2ea7 563c 596b 223d 11d2 f73c d52d afbc
00000090: e097 a23c f1a5 03bb 8f8f 983c 1bf6 93bb
000000a0: f046 0cbc ffab 2bbd b66a 653c fda3 9cbc
000000b0: c7e1 d53c 3e41 a53c 99e5 11bd df13 d23c
000000c0: bc08 99bc 921a 303d a7d3 dfbb 12f0 043d
000000d0: 799a 133c 2fef e2bc c446 30bd f9e6 5cbb
000000e0: 7715 0e3d b0fe 91bd 0cfb 66bb 1dc2 12bd
000000f0: 8299 20bd 7d8a abbc 5277 d23d f7a6 0cbd
00000100: b802 30bc 0a15 c23c a4d5 f2bc 377b 393c
00000110: 7004 023d 302f a43c b1a0 3cbd 870e 01bd
00000120: f83b 443c cd9c db3c 3b2b 463c a229 e93c
00000130: 8547 c93c 3e57 813c e64e 893c 1c09 47bd
00000140: 0634 83bc 2c30 4cbb ea29 aa3c 8596 0f3d
00000150: 1dea aebb d242 293d 4452 e43c 91f1 f33c
00000160: 3f37 afbb a637 193c d388 ccbb 74b2 cabc
00000170: 48b5 62bd 5968 c03c f09d 333c fa30 f63c
00000180: 9bc9 73bd 69fd be3c da94 3a3d bae1 803d
00000190: 9633 dabc 8447 e7bb 3ff4 2e3d f196 f03c
000001a0: 2b31 febc 91e9 2bbc bc16 5f3c dbd6 11bc
000001b0: 4312 0c3d 039e 5c3c 3325 a5ba 1437 c53b
000001c0: e45c d73c 9926 cf3c c8f7 0e3d d091 acbc
000001d0: b550 77ba 16c8 8d3c a6b9 c53c 0ac0 063d
000001e0: 00a0 04bd 6543 363d 597c 97bc 76d5 cb3c
000001f0: fd65 773b f587 df3b 6d0e 60bc ca57 783c
00000200: c678 33bd ab31 20bd e15c 81bc 8276 b4bc
00000210: b29c a8bb f8b0 5239 6fdf 19bd 2b91 d73c
00000220: 1f55 363d df98 86bc 3cc8 843d e746 983c
00000230: 4004 ae3c b2f4 b138 e550 1a3b 12ea 37bd
00000240: 3450 80bc 98fa 22bd be0a af3d ef51 143d
00000250: 012f ee3c 99b5 6a3d eaf6 c73c f375 7e3c
00000260: a9ea 9e3d 7c96 873c b005 eebc 7141 01bd
00000270: cf31 c53c 7527 1dbd 0190 203d 7326 713c
00000280: 47f5 9a3c a5c0 973c 8883 adbc 4012 0fbd
00000290: 3ea6 37bd 6017 75bc 1729 ca3b 7aa1 31bc
000002a0: 7216 b638 1ab3 cdbc b85f 153c 460c 803c
000002b0: a0da 423d 0be9 e1bc d56b 963d fe66 133d
000002c0: 27e6 a33c ee68 1fbd 9a33 fd3c f1ba 4fbd
000002d0: 48d5 d0bb 8802 503d 737c 223d 45a9 a83c
000002e0: 0265 bebc 10ab c43c aa1e 5fbb e54e 233c
000002f0: f98d 893d 5047 5d3d c78b cf3c e451 383c
00000300: 113d 363b c7d5 173d 6ab4 273d 662f fabc
00000310: 7b08 eabb f8fa 5d3c 100b 83bc 8c3e db3c
00000320: c934 773b 3d0d 2b3d 4002 48ba 646c 8dbb
00000330: a59c f5bc a34d 0bbd 5d16 e3bc af3e 0b3c
00000340: d731 373d 2bef 2b3d 2aa0 cabd 488f 9f3a
00000350: fc9e 2cbc d5f4 0e3a 850d 1bbc 2d4d 2d3d
00000360: d54b 473d 0856 043c 5542 633d 17ac 0a3c
00000370: e962 5e3d 25d4 1bbd add4 353c 9510 4b3c
00000380: c698 2d3d 05d7 443d c48c 86bd 9cc0 fbbc
00000390: e051 0b3d 3459 0cbd 177d 3e3d ecbc 0cbd
000003a0: 46e6 383c 4432 c63a aa9f d63c 5e25 a23d
000003b0: b2de 6d3a 768b 853c 41f0 6f3d 5ab5 b8bb
000003c0: 6395 823c b259 093c 028c 7ebb 9003 81bd
000003d0: f05f fe3b 4424 b5bb 66a2 a03d 8e4b 31bd
000003e0: 1340 c939 916a 8a3c e548 08bd 3e46 333d
000003f0: 015b 74bc 8bd4 753d 99c1 acbc 7596 dd3c
0.057499368 0.033709113 0.03940608 0.018922523 0.024915772 -0.013378211 0.022925315 0.00063857425
-0.001053481 0.02182523 -0.018253949 -0.030803226 -0.04104749 -0.038368415 0.021855537 -0.008605991
-0.012660305 -0.01223353 0.0035142873 0.053103436 0.013431079 -0.03460989 0.00087216083 0.036694236
0.037897196 0.026763694 -0.037648186 0.03144376 -0.06399221 0.019365173 -0.025126847 0.040413965
0.013101382 0.039653156 0.030251535 -0.02138416 0.01984781 -0.0020087922 0.018623142 -0.004515422
-0.008561835 -0.041912075 0.014002493 -0.019121164 0.026108636 0.020172711 -0.035619352 0.02564424
-0.018680923 0.04299409 -0.006830651 0.03245551 0.009008997 -0.027701942 -0.043036237 -0.0033707006
0.03468844 -0.07128656 -0.003524485 -0.035829652 -0.039208896 -0.02094006 0.10276665 -0.034338918
-0.010742836 0.023691673 -0.029642887 0.011320881 0.031742513 0.020042032 -0.046051685 -0.031507995
0.011977188 0.026808167 0.012095268 0.028462235 0.024570236 0.01578867 0.016761255 -0.04859267
-0.016016018 -0.0031156642 0.02077194 0.035055656 -0.005337967 0.04132349 0.027871259 0.029778274
-0.005347162 0.0093516465 -0.0062418967 -0.024743296 -0.055348665 0.023487257 0.010962948 0.03005265
-0.059518438 0.023314195 0.045552112 0.06293054 -0.026635926 -0.007058086 0.0427134 0.02936885
-0.031029304 -0.010492698 0.01361626 -0.008901323 0.034197103 0.013465407 -0.0012599587 0.0060185287
0.02628941 0.02528696 0.03490427 -0.021065623 -0.00094343285 0.017307322 0.024136376 0.032897986
-0.03237915 0.044497866 -0.01849191 0.02488206 0.0037749999 0.0068216273 -0.013675314 0.015157649
-0.04381635 -0.039109867 -0.015791358 -0.022029165 -0.0051456327 0.00020093087 -0.0375666 0.026314339
0.04451477 -0.016430316 0.06483504 0.018588496 0.021242261 8.485596e-05 0.0023546752 -0.04490096
-0.015663244 -0.039789766 0.08546971 0.03621095 0.029075148 0.05730209 0.02440973 0.015531051
0.077596016 0.016551249 -0.029055446 -0.03155655 0.024071602 -0.038367707 0.039199833 0.01471864
0.018915785 0.018524477 -0.021180883 -0.034929514 -0.044836275 -0.014959186 0.006169449 -0.010841722
8.682617e-05 -0.025109816 0.009117059 0.015630852 0.04757178 -0.027576944 0.07344786 0.035986893
0.020007206 -0.038918428 0.030908395 -0.05071539 -0.0063730814 0.050783664 0.039669465 0.020588527
-0.023241524 0.02400735 -0.0034045377 0.00996754 0.06716532 0.054023087 0.025335206 0.011249993
0.0027807395 0.03706911 0.04094354 -0.03054018 -0.007142124 0.013548605 -0.015996486 0.026763223
0.0037720671 0.041760672 -0.000762973 -0.0043158997 -0.02998192 -0.034009587 -0.027720625 0.008498832
0.044725265 0.041976135 -0.0989383 0.0012173438 -0.010535952 0.0005453353 -0.0094636725 0.04230993
0.048656303 0.008077152 0.05548318 0.008463881 0.054293547 -0.038044114 0.011098069 0.01239409
0.042382024 0.04805662 -0.06569818 -0.030731492 0.03401363 -0.03426476 0.046506014 -0.034359857
0.01128537 0.0015121181 0.02619918 0.079172835 0.00090740167 0.016301852 0.058578733 -0.005636853
0.015940374 0.008383201 -0.0038840775 -0.062995076 0.0077629015 -0.005528005 0.07843475 -0.043284945
0.00038385447 0.016896518 -0.033272643 0.04376816 -0.014914275 0.06001715 -0.021088408 0.027049283

action_model._continuous_distribution.mu.bias f4 [2]
00000000: 7c3f 49bc f4f9 233c
-0.012283202 0.010008324
