results/test4/MoveAgentToApple/MoveAgentToApple-300049.onnx (onnx, 77622 bytes, 7 tensors)

network_body._body_endoder.seq_layers.0.weight f4 [128, 11]
-0.0013713691 -0.1597969 0.31362733 0.026059598 -0.119608834 0.34554195 0.59522104 0.22385871
0.20086181 -0.036193147 -0.0014395958 0.5153138 0.2804052 -0.3432748 0.27389824 -0.3462932
0.4698121 0.25008014 -0.6131875 -0.09423312 -0.24902423 0.06740854 0.21080615 -0.16088167
-0.4013197 0.39494506 0.21421893 -0.42450985 0.5650766 -0.17258444 -0.27512723 -0.10098079
-0.40883875 -0.13967164 0.347734 0.04472747 -0.22520004 0.17108476 0.43951526 0.38290983
0.010286426 -0.2738811 -0.24427177 0.039326206 -0.36679214 -0.0065198983 0.3994919 -0.1958405
0.13169762 0.38865462 -0.14316414 -0.18665044 -0.22853667 0.41973603 0.27716038 0.16139632
-0.033638302 0.36252022 0.40421516 0.3426827 -0.0721574 0.4727809 -0.16631109 0.31782994
0.09821384 -0.037092723 0.15027426 -0.2740913 -0.48246878 -0.2590272 0.33414647 -0.13728224
0.17260365 0.17451797 0.15000962 0.29814768 -0.4372055 -0.21424918 0.5735209 0.020409176
0.13536265 0.041288104 -0.26627055 0.3055745 0.11483909 -0.25919485 -0.12499275 -0.7224306
-0.17610605 -0.069258906 0.039216712 -0.28796607 -0.34666258 -0.48438632 0.2481779 0.04164737
0.29662606 0.009906716 -0.1299782 0.48178077 -0.14212127 -0.074252605 0.26511076 -0.18549423
-0.32546464 -0.54100794 -0.24966466 0.24590053 0.23914674 0.61222684 0.21245952 0.35083973
0.20885105 -0.17074203 0.46180955 0.12355696 -0.100626 0.08264937 0.15171865 -0.03502724
0.3148801 -0.6559174 0.33436596 -0.38473192 0.025961773 0.06885164 0.010289697 0.115998834
0.17522077 -0.20763086 -0.530726 -0.068897136 0.013035688 -0.08208747 -0.47438312 -0.20043066
0.25477424 -0.032991562 -0.10896293 -0.18435867 0.24810083 0.35070372 -0.22124362 0.32823795
-0.017548718 -0.6290879 -0.09967992 0.5922022 0.3854435 0.39145908 0.055330295 0.12498778
-0.3261369 0.10315679 0.010716687 0.11806842 0.18787482 0.05475857 -0.39465344 0.17020597
0.33530214 0.43590006 -0.30612734 0.611277 -0.26481032 -0.29168802 -0.022417346 -0.24355769
-0.23897584 -0.2600287 -0.2108731 -0.6558158 0.4124924 0.004259576 -0.23930055 0.31168357
0.04873289 0.8219538 -0.118565835 -0.44828534 0.3082994 0.4177153 0.18834764 0.4237409
0.25154415 -0.013654826 0.2231433 -0.0191313 0.1519083 -0.20341258 0.29461232 0.16223578
0.06573492 -0.3548591 0.030919304 0.22955345 -0.28797722 0.07907353 -0.041698605 -0.24092394
0.5080117 0.021637935 -0.077666715 0.24100672 0.24178554 -0.57712483 -0.56969917 -0.47018734
-0.10930266 -0.4416158 -0.16840282 0.17395869 0.3956407 -0.02181424 -0.3105141 0.07547763
0.10437589 0.18744625 0.6972606 -0.46975666 -0.1843966 -0.2738804 0.0048710825 -0.076471515
0.40264013 -0.43934315 -0.099535614 -0.21575071 -0.0880553 0.3928175 -0.21215846 0.044526458
-0.06460175 0.44546372 -0.42091382 -0.6105621 0.15714669 0.17107067 -0.34383425 0.2733243
-0.06905313 -0.18255936 0.3737393 0.28838772 -0.39658383 0.0922064 -0.44853178 0.2715425
0.06843133 -0.3318044 -0.7029565 -0.030461637 -0.63557446 0.34955698 0.2626589 0.12123218
00000000: 83bf b3ba cca1 23be c393 a03e f07a d53c
00000010: 7af5 f4bd e0ea b03e 6860 183f 383b 653e
00000020: b8ae 4d3e 443f 14bd d2b0 bcba 9beb 033f
00000030: 4591 8f3e b7c1 afbe 643c 8c3e 584d b1be
00000040: 368b f03e 810a 803e dbf9 1cbf 4bfd c0bd
00000050: 3500 7fbe 7d0d 8a3d 91dd 573e 2abe 24be
00000060: c779 cdbe 3d36 ca3e 355c 5b3e 5b59 d9be
00000070: dca8 103f fab9 30be 7add 8cbe 04cf cebd
00000080: 5053 d1be 1506 0fbe 310a b23e 2734 373d
00000090: d79a 66be d830 2f3e 2508 e13e c20c c43e
000000a0: 6688 283c 253a 8cbe 6122 7abe 8414 213d
000000b0: 2ecc bbbe dfa4 d5bb 348a cc3e 698a 48be
000000c0: bedb 063e bdfd c63e 9f99 12be 4b21 3fbe
000000d0: 8405 6abe a4e7 d63e f7e7 8d3e 1445 253e
000000e0: 51c8 09bd 409c b93e 4af5 ce3e 1b74 af3e
000000f0: 42c7 93bd 5710 f23e 744d 2abe 9bba a23e
00000100: 5624 c93d 8aee 17bd 7fe1 193e b255 8cbe
00000110: 2606 f7be 379f 84be 3f15 ab3e b793 0cbe
00000120: 03bf 303e d7b4 323e 1f9c 193e d0a6 983e
00000130: 66d9 dfbe 2364 5bbe 44d2 123f 2531 a73c
00000140: 829c 0a3e b71d 293d 9d54 88be 4374 9c3e
00000150: c230 eb3d 30b5 84be 33fc ffbd 36f1 38bf
00000160: 2555 34be 9dd7 8dbd b4a1 203d 4a70 93be
00000170: c27d b1be 7c01 f8be 5922 7e3e 6f96 2a3d
00000180: 5fdf 973e c74f 223c 0119 05be f8ab f63e
00000190: 3d88 11be c011 98bd 99bc 873e 33f2 3dbe
000001a0: 4da3 a6be 7f7f 0abf 18a8 7fbe 59cd 7b3e
000001b0: e2e2 743e e6ba 1c3f fd8e 593e 44a1 b33e
000001c0: 0ddd 553e 00d7 2ebe 4d72 ec3e 6e0b fd3d
000001d0: 0115 cebd 1344 a93d 225c 1b3e b978 0fbd
000001e0: f737 a13e 34ea 27bf 0432 ab3e 95fb c4be
000001f0: c9ad d43c 1702 8d3d 1e96 283c cc90 ed3d
00000200: 136d 333e 2f9d 54be a9dd 07bf f119 8dbd
00000210: a393 553c 7a1d a8bd 58e2 f2be b23d 4dbe
00000220: c571 823e 2922 07bd f527 dfbd 85c8 3cbe
00000230: 250e 7e3e 708f b33e b08d 62be ce0e a83e
00000240: 54c2 8fbc e80b 21bf fc24 ccbd 909a 173f
00000250: da58 c53e 536d c83e 05a2 623d 98f9 ff3d
00000260: 6afb a6be de43 d33d 0b95 2f3c dbcd f13d
00000270: 4262 403e 864a 603d 0410 cabe 794a 2e3e
00000280: b9ac ab3e 4b2e df3e b9bc 9cbe a67c 1c3f
00000290: 3895 87be 2258 95be 95a4 b7bc 3067 79be
000002a0: 15b6 74be 7b22 85be 1eef 57be 8be3 27bf
000002b0: 3432 d33e ea93 8b3b 340b 75be fd94 9f3e
000002c0: 249c 473d 906b 523f a5d2 f2bd a885 e5be
000002d0: 6bd9 9d3e c8de d53e 34de 403e 91f4 d83e
000002e0: 65ca 803e 7eb8 5fbc ad7f 643e 3eb9 9cbc
000002f0: d98d 1b3e 634b 50be 6dd7 963e 2321 263e
00000300: 08a0 863d 18b0 b5be 7b4a fd3c 0f10 6b3e
00000310: c071 93be 4ef1 a13d 28cc 2abd c4b4 76be
00000320: 0e0d 023f 0a42 b13c ba0f 9fbd 77ca 763e
00000330: a196 773e 74be 13bf ced7 11bf 65bc f0be
00000340: 13da dfbd 771b e2be ca71 2cbe 3a22 323e
00000350: 6b91 ca3e c7b3 b2bc b4fb 9ebe 0494 9a3d
00000360: 07c3 d53d e9f1 3f3e ac7f 323f f283 f0be
00000370: 76d2 3cbe 0d3a 8cbe 9a9d 9f3b 199d 9cbd
00000380: d926 ce3e 96f1 e0be 54d9 cbbd c1ed 5cbe
00000390: 5656 b4bd 601f c93e 1140 59be 6061 363d
000003a0: ec4d 84bd d213 e43e 0482 d7be cc4d 1cbf
000003b0: 10eb 203e 262d 2f3e 0b0b b0be 2af1 8b3e
000003c0: ba6b 8dbd d7f0 3abe c25a bf3e 8ea7 933e
000003d0: 090d cbbe b6d6 bc3d f5a5 e5be 9e07 8b3e
000003e0: ba25 8c3d 44e2 a9be f5f4 33bf af8a f9bc
000003f0: 02b5 22bf 22f9 b23e 3a7b 863e 9448 f83d

network_body._body_endoder.seq_layers.0.bias f4 [128]
0.050928097 0.022514574 -0.025525475 -0.014023173 0.028382586 -0.031858496 -0.016233357 0.027968396
0.03432064 -0.017495167 -0.022654522 0.013762564 -0.011303262 -0.03414565 0.00047964984 0.04397362
-0.02613813 0.0055621504 0.048683684 0.0111403 -0.0014496185 0.0008034878 0.0032206306 -0.0038605891
-0.03607518 0.014369726 0.0183171 -0.02521141 -0.009075926 -0.04739604 0.050676573 -0.018842755
-0.0150345005 -0.04218392 0.009357118 -0.017676318 -0.022464827 0.005211278 0.03824092 -0.0348785
-0.00765399 0.0071662366 0.023747222 -0.024948869 0.024937134 0.01429361 0.033094868 -0.010083113
0.010546241 -0.008118015 -0.05549867 -0.005531703 0.024914524 -0.056588903 0.00033585363 0.0101965675
-0.029023768 0.041621882 -0.013798647 -0.0002547227 -0.0052046278 -0.028137362 0.05356075 0.041493773
0.009408375 0.028642856 -0.0073906975 0.05155015 0.010676444 -0.001510613 0.013533334 -0.016163912
-0.014304075 -0.009093225 -0.022249037 0.0037818938 0.0016703107 -0.026791973 -0.048305094 0.017822385
0.0010778285 0.030105185 -0.03502806 -0.01694355 0.0070883795 0.038719594 0.025834838 -0.01863768
-0.0569712 -0.019590884 0.016673101 0.018111516 -0.027129611 -0.06377432 0.015964985 -0.03163827
-0.01185368 0.01700732 -0.009711886 -0.010449194 0.03044209 0.022690674 -0.008753232 -0.0322469
0.007098997 0.018512594 0.04124318 -0.0074962694 -0.034192163 -0.012000417 0.012107049 0.016956266
0.050247174 -0.0002967888 -0.015127503 -0.02428649 -0.02596637 -0.0070592416 -0.006887798 -0.006830339
-0.017639052 0.006430252 -0.031035047 -0.01696641 0.037165783 0.004407967 -0.019402774 -0.007758636
00000000: fb99 503d 7c70 b83c cd1a d1bc 73c1 65bc
00000010: 9982 e83c 0e7e 02bd d1fb 84bc fa1d e53c
00000020: cd93 0c3d 0652 8fbc fa95 b9bc 617c 613c
00000030: 5131 39bc 4fdc 0bbd 8379 fb39 af1d 343d
00000040: a21f d6bc b342 b63b 8b68 473d ce85 363c
00000050: 2001 beba 27a1 523a 3711 533b f001 7dbb
00000060: 91c3 13bd 006f 6b3c be0d 963c 2988 cebc
00000070: 31b3 14bc 5a22 42bd 3d92 4f3d 1f5c 9abc
00000080: 4453 76bc 0cc9 2cbd 994e 193c edcd 90bc
00000090: 2808 b8bc 5ec3 aa3b 83a2 1c3d c2dc 0ebd
000000a0: 52ce fabb c0d2 ea3b 8989 c23c 9261 ccbc
000000b0: f648 cc3c bf2f 6a3c 7c8e 073d a433 25bc
000000c0: 24ca 2c3c 6c01 05bc 9352 63bd 4a43 b5bb
000000d0: 8b19 cc3c c4c9 67bd 8315 b039 810f 273c
000000e0: 41c3 edbc b57b 2a3d b813 62bc 4d8c 85b9
000000f0: 958b aabb 5380 e6bc 8462 5b3d 60f5 293d
00000100: 9625 1a3c 6ca4 ea3c aa2d f2bb 4026 533d
00000110: 40ec 2e3c c3ff c5ba ebba 5d3c 2e6a 84bc
00000120: a45b 6abc c0fb 14bc 9d43 b6bc a6d9 773b
00000130: 54ee da3a d77a dbbc 90db 45bd 4000 923c
00000140: ec45 8d3a 269f f63c 9579 0fbd 33cd 8abc
00000150: a345 e83b 7098 1e3d 95a3 d33c 0cae 98bc
00000160: a25a 69bd 107d a0bc 0796 883c 9a5e 943c
00000170: eb3e debc 1c9c 82bd 00c9 823c 2197 01bd
00000180: f035 42bc ef52 8b3c 9a1e 1fbc 1933 2bbc
00000190: b161 f93c cbe1 b93c b769 0fbc 5315 04bd
000001a0: b49e e83b b9a7 973c 9cee 283d 44a3 f5bb
000001b0: 150d 0cbd 669d 44bc a55c 463c dee7 8a3c
000001c0: fbcf 4d3d 529a 9bb9 59d9 77bc 76f4 c6bc
000001d0: 6db7 d4bc 3651 e7bb 0ab3 e1bb 09d1 dfbb
000001e0: c67f 90bc ddb4 d23b 363d febc 24fd 8abc
000001f0: 263b 183d b570 903b 91f2 9ebc 283c febb

network_body._body_endoder.seq_layers.2.weight f4 [128, 128]
0.15371159 0.041061256 -0.0032476843 0.17999502 -0.080297515 0.059476648 0.09500159 -0.049242217
0.06267114 -0.10432263 -0.059957482 0.013280967 -0.14778379 -0.0109336525 0.056656845 0.009048846
0.048764136 0.08078129 0.10764883 -0.08570469 0.028282749 0.11884807 -0.1018492 0.13973449
-0.021773973 -0.030871872 0.113230385 0.097144686 -0.09241901 -0.06935915 -0.065962695 0.017986968
0.07770052 -0.14349231 0.07207262 0.08229151 0.096927986 -0.074827686 0.00867608 -0.09867853
-0.10665122 -0.20557037 -0.15576786 -0.009551897 -0.07649962 -0.02180509 0.08907435 -0.10356855
0.0019469863 0.10614593 0.020479063 -0.038637817 -0.028144898 -0.2381673 -0.05612002 -0.074642144
0.045514815 -0.09639045 0.27016842 -0.18070646 0.08134372 -0.11237876 -0.14528786 0.053738628
0.11495957 -0.02185807 0.05348688 0.022862803 -0.0925234 0.03859318 0.1308926 -0.0633507
-0.19847432 -0.11081863 -0.12623715 -0.08399835 0.21302904 -0.09634931 -0.16661079 0.07714864
-0.05495341 0.019841045 -0.0991043 0.009950895 -0.07677046 -0.05819291 0.062163197 0.0037530256
0.039984625 -0.12094034 -0.08956822 0.021091178 0.011651813 -0.09487256 0.15393008 0.06799588
0.1481777 0.01698982 -0.003344674 -0.106890954 0.07590792 -0.017885162 -0.05574213 0.009044021
-0.08387774 0.013169256 -0.09618538 -0.13402034 0.13665122 -0.15762489 0.070120774 -0.13587332
0.059425958 0.062272407 -0.07603918 -0.14197719 -0.03978411 -0.017843412 -0.14449105 -0.0057843034
-0.050290465 0.110751 0.11425678 -0.045216933 0.026264556 0.05313823 -0.0008803824 -0.10049348
0.116692655 -0.023406653 -0.097257584 -0.10508526 -0.217524 0.13041463 -0.16576846 -0.057410765
0.07029609 -0.004203133 -0.040576756 0.08636437 -0.079309635 0.004948682 -0.06305061 0.16080904
-0.07028148 -0.08665288 -0.016061906 -0.15738821 -0.11645648 -0.09044542 0.058911007 0.043341305
-0.014921368 -0.034561362 -0.08028404 0.15632771 -0.029920535 0.10017842 -0.12616822 -0.021879222
-0.101602204 -0.049637634 -0.017986486 -0.1552808 0.119630836 0.056059904 0.06815658 -0.04049266
-0.10569037 -0.001326375 0.010215429 0.02187858 -0.07425815 0.10804154 -0.043649647 -0.056959976
-0.016145553 0.17784627 -0.086609274 0.034314904 0.124416634 0.19562456 0.006218916 -0.056422193
-0.16496414 0.07349516 -0.014470824 0.17163765 -0.06447494 0.05582105 0.1375903 0.019944727
0.037755147 0.036108773 0.0349517 0.08874015 -0.11905038 0.07841699 0.01768635 -0.06648632
0.07802459 -0.19114657 0.069857426 -0.1782664 -0.16095987 -0.13399304 -0.1389942 0.11118018
-0.011627671 -0.107249126 -0.107584566 0.19318472 -0.021117376 -0.05140297 0.054269515 -0.08549147
-0.055248145 0.08488997 -0.06586428 0.111442626 -0.04452965 0.030167768 -0.07842136 -0.041310027
-0.090142004 -0.055391416 0.08273542 -0.11586693 -0.13217911 0.056888126 0.026003087 0.0039454233
0.108626105 -0.17393087 -0.11054791 0.08435953 0.10764875 0.024255957 0.044562835 -0.039370526
-0.13873284 0.051993426 0.09402113 -0.049266055 0.043622572 -0.005786429 0.047445886 0.10644694
0.034796428 -0.033643514 0.10682859 0.089189455 -0.031988677 0.06350131 -0.04184263 -0.027174504
00000000: 9266 1d3e d92f 283d 1ad7 54bb 9d50 383e
00000010: 0673 a4bd c99d 733d 3290 c23d 35b2 49bd
00000020: ba59 803d 1aa7 d5bd fa95 75bd 6a98 593c
00000030: a254 17be 1023 33bc 0211 683d 9c41 143c
00000040: e7bc 473d a970 a53d fd76 dc3d f185 afbd
00000050: 39b1 e73c 9e66 f33d 5096 d0bd 8f16 0f3e
00000060: 555f b2bc 02e7 fcbc 55e5 e73d cbf3 c63d
00000070: 2e46 bdbd 2c0c 8ebd 7317 87bd 6859 933c
00000080: 7321 9f3d a6ef 12be cf9a 933d 7488 a83d
00000090: 2e82 c63d 423f 99bd 1e26 0e3c f817 cabd
000000a0: f46b dabd 0a81 52be 9c81 1fbe 8f7f 1cbc
000000b0: d5ab 9cbd 97a0 b2bc 9d6c b63d bf1b d4bd
000000c0: 0532 ff3a 0a63 d93d b5c3 a73c b042 1ebd
000000d0: 2190 e6bc 21e2 73be 1bde 65bd fbdd 98bd
000000e0: be6d 3a3d 5b68 c5bd 8453 8a3e 1d0b 39be
000000f0: 8997 a63d d626 e6bd 57c6 14be 091d 5c3d
00000100: ec6f eb3d b20f b3bc 0f15 5b3d c64a bb3c
00000110: e97c bdbd e213 1e3d b608 063e 03be 81bd
00000120: da3c 4bbe e1f4 e2bd 5044 01be 5407 acbd
00000130: 4924 5a3e c952 c5bd 059c 2abe 1b00 9e3d
00000140: d416 61bd b089 a23c 32f7 cabd 1409 233c
00000150: d539 9dbd b05b 6ebd d69e 7e3d 52f5 753b
00000160: ebc6 233d 92af f7bd 8b6f b7bd 68c7 ac3c
00000170: 3fe7 3e3c 8b4c c2bd d99f 1d3e 6d41 8b3d
00000180: e5bb 173e 3c2e 8b3c 5132 5bbb a5e9 dabd
00000190: 9d75 9b3d e783 92bc dc51 64bd 602d 143c
000001a0: 18c8 abbd ddc3 573c d7fc c4bd a13c 09be
000001b0: 4cee 0b3e 6b68 21be 7b9b 8f3d 6022 0bbe
000001c0: a268 733d 5a11 7f3d 6eba 9bbd 7862 11be
000001d0: aaf4 22bd 592c 92bc 76f5 13be 418a bdbb
000001e0: 60fd 4dbd 6cd1 e23d 75ff e93d 6435 39bd
000001f0: c428 d73c 79a7 593d 76c9 66ba 87cf cdbd
00000200: 8ffc ee3d 4fbf bfbc fc2e c7bd f136 d7bd
00000210: 9dbe 5ebe 6a8b 053e 35bf 29be 8d27 6bbd
00000220: 65f7 8f3d 6fba 89bb d033 26bd cedf b03d
00000230: 176d a2bd 8e28 a23b ae20 81bd 20ab 243e
00000240: bdef 8fbd 1177 b1bd 4294 83bc 602a 21be
00000250: bc80 eebd 733b b9bd ab4c 713d a786 313d
00000260: c178 74bc 3790 0dbd f56b a4bd 5f14 203e
00000270: e91b f5bc 582a cd3d 3e32 01be 0e3c b3bc
00000280: d114 d0bd d550 4bbd 6558 93bc ee01 1fbe
00000290: 0301 f53d 129f 653d ad95 8b3d a2db 25bd
000002a0: 3174 d8bd c2d9 adba 9d5e 273c b53a b33c
000002b0: a814 98bd e244 dd3d f9c9 32bd dd4e 69bd
000002c0: ae43 84bc 551d 363e 3460 b1bd c98d 0c3d
000002d0: 26ce fe3d ce51 483e 0cc8 cb3b f51a 67bd
000002e0: 5cec 28be a184 963d 0917 6dbc c8c1 2f3e
000002f0: 700b 84bd 9da4 643d 79e4 0c3e 2063 a33c
00000300: 24a5 1a3d cbe6 133d 8429 0f3d 65bd b53d
00000310: b0d0 f3bd 1699 a03d f7e2 903c fb29 88bd
00000320: 5bcb 9f3d edbb 43be 6911 8f3d 788b 36be
00000330: aad2 24be 7935 09be 7f54 0ebe 6fb2 e33d
00000340: fd81 3ebc 6ea5 dbbd 4c55 dcbd 37d2 453e
00000350: 59fe acbc ec8b 52bd b649 5e3d 2716 afbd
00000360: e14b 62bd cbda ad3d dae3 86bd 083c e43d
00000370: b964 36bd 6522 f73c 619b a0bd b434 29bd
00000380: 5f9c b8bd 1ce2 62bd 3071 a93d a44b edbd
00000390: f659 07be 8603 693d 6d04 d53c 9c48 813b
000003a0: 5d77 de3d ef1a 32be f166 e2bd b0c4 ac3d
000003b0: f376 dc3d 6eb4 c63c 8587 363d fd42 21bd
000003c0: fb0f 0ebe 0ff7 543d 268e c03d 34cb 49bd
000003d0: 95ad 323d 169c bdbb 9e56 423d da00 da3d
000003e0: b386 0e3d c8cd 09bd f3c8 da3d f6a8 b63d
000003f0: 8f06 03bd fa0c 823d 2d63 2bbd 119d debc

network_body._body_endoder.seq_layers.2.bias f4 [128]
0.010872847 -0.008958646 0.004410637 -0.021482715 0.007326472 0.013568788 0.0014676632 -0.0194777
0.042610463 0.007253612 -0.009699305 -0.00088705344 0.017243847 0.027229339 0.017979573 -0.023741577
0.013257358 0.03599556 0.026259078 0.057633683 0.030158259 0.0048242197 0.019544158 -0.024050964
-0.0025339306 -0.0170917 -0.0058524814 -0.02111591 0.011729749 0.0012915658 -0.0037626422 0.0039762887
-0.010203264 0.017275669 0.012244046 0.019437687 0.022942765 0.024276659 -0.020606684 0.025790807
0.014776795 0.01809148 0.02916961 0.008991064 0.013089361 0.017544778 0.020321973 0.028103799
0.013608497 -0.0068389275 0.020600695 0.018120473 -0.023091473 -0.008954943 0.015281987 0.011482643
0.0038061743 -0.006152332 -0.003486582 -0.019903684 0.00754249 0.008082014 0.015137869 0.01010658
0.041205376 0.0017432378 0.005172377 -0.031359237 0.015481722 -0.00029263072 0.038620472 0.007765069
-0.0011655409 0.031787053 0.006138005 0.03080384 0.024130568 0.016623205 -0.0018022801 -0.0068207053
-0.029870728 0.019539736 0.018659359 0.009069574 -0.003677849 0.01024384 0.019701136 0.027893046
0.04074421 -0.03384102 -0.02297534 0.023108829 0.001955118 0.030931666 0.025717797 0.01666815
0.027686458 -0.01348202 0.012124347 -0.011908156 -0.029406177 -0.0026724045 -0.008040245 0.03234792
-0.015812747 -0.022180462 0.029120203 0.021077834 0.011722907 -0.022978593 -0.018098565 -0.0030803347
0.02606964 0.020998402 0.007001254 0.021343186 0.043950632 0.016748276 0.001338316 0.011434051
-0.03020192 0.0122386515 -0.018735206 -0.0034254608 -0.009386908 0.030463945 0.0062898365 -0.0050974013
00000000: 0724 323c 49c7 12bc 1b87 903b 85fc afbc
00000010: e712 f03b 9f4f 5e3c 9b5e c03a b38f 9fbc
00000020: 4f88 2e3d b5af ed3b d5e9 1ebc 2689 68ba
00000030: f842 8d3c 1010 df3c e649 933c b27d c2bc
00000040: 6435 593c 1570 133d 471d d73c 4c11 6c3d
00000050: 740e f73c 7d14 9e3b 121b a03c 8706 c5bc
00000060: 4d10 26bb e503 8cbc 2cc6 bfbb 46fb acbc
00000070: 222e 403c c249 a93a a996 76bb 874b 823b
00000080: 972b 27bc b485 8d3c 409b 483c c93b 9f3c
00000090: 77f2 bb3c d8df c63c 59cf a8bc 3e47 d33c
000000a0: 5f1a 723c 9534 943c 1bf5 ee3c 414f 133c
000000b0: c274 563c 11ba 8f3c 447a a63c f039 e63c
000000c0: 2cf6 5e3c 1519 e0bb cac2 a83c 6371 943c
000000d0: 542a bdbc c1b7 12bc 4d61 7a3c b221 3c3c
000000e0: 0271 793b 8099 c9bb 247f 64bb 0d0d a3bc
000000f0: fe26 f73b 6c6a 043c d304 783c 1296 253c
00000100: f8c6 283d 5b7d e43a 0b7d a93b 8b72 00bd
00000110: 0ca7 7d3c 3b6c 99b9 8030 1e3d 1f72 fe3b
00000120: 10c5 98ba 2433 023d 5121 c93b 5658 fc3c
00000130: 78ad c53c 632d 883c 7c3a ecba 3980 dfbb
00000140: 75b3 f4bc cc11 a03c 83db 983c 8d98 143c
00000150: 1108 71bb c7d5 273c 4764 a13c f57f e43c
00000160: 67e3 263d e29c 0abd c836 bcbc ba4e bd3c
00000170: 7021 003b 6864 fd3c 21ae d23c a58b 883c
00000180: b6ce e23c b1e3 5cbc 32a5 463c 6d1a 43bc
00000190: 39e5 f0bc 8223 2fbb 3bbb 03bc 417f 043d
000001a0: bc89 81bc cdb3 b5bc 7e8d ee3c 6cab ac3c
000001b0: 7011 403c 9a3d bcbc 7143 94bc 71df 49bb
000001c0: ff8f d53c d704 ac3c c66a e53b e8d7 ae3c
000001d0: 9405 343d ae33 893c 6f6a af3a e355 3b3c
000001e0: 046a f7bc a084 483c 937a 99bc b27d 60bb
000001f0: 8ccb 19bc 868f f93c f91a ce3b 1a08 a7bb

action_model._continuous_distribution.log_sigma f4 [1, 2]
-0.0038569695 -0.05065181
00000000: 36c5 7cbb 4678 4fbd

action_model._continuous_distribution.mu.weight f4 [2, 128]
0.030419445 -0.0045387265 0.017992705 0.012411513 -0.022006081 -0.036309686 0.028065326 0.0038563963
0.04164132 -0.0026914587 0.012445589 0.033573598 -0.018419852 0.045028012 0.014440954 -0.0062496318
0.05877849 -0.045119222 -0.01248036 0.03899422 -0.027322711 0.020004285 0.007471707 -0.010722968
-0.028406024 0.001363873 0.01168881 0.015112399 0.023697576 -0.031099977 0.018155167 0.00092028605
0.033172827 0.03126233 -0.0072166477 -0.03158957 0.008381025 0.039510675 0.00057028333 0.020103155
-0.01025791 0.010028258 -0.046684705 0.018102488 -0.040179648 -0.012258842 -0.014108669 0.011100371
-0.01732632 0.019584522 0.039044686 -0.03458878 0.0054951347 -0.00016886381 0.013982656 0.02322527
0.011542411 -0.011477737 -0.012717007 -0.021346424 0.0078975605 0.016426077 0.02779309 0.04439106
0.050162226 -0.013357975 0.014673927 0.0015060102 -0.005451767 0.02467387 0.019069564 -0.01737547
-0.00086301466 0.031102601 0.040349096 -0.00023246325 0.04038808 0.044890646 0.0038851732 -0.0024560136
-0.0005093769 -0.013937085 0.054600984 -0.009030932 -0.0027612178 -0.0063861352 0.016432602 -0.041775294
0.021377388 0.008833504 0.006654585 0.024555737 0.01551718 0.014291173 0.01958613 0.0011141084
-0.006388997 -0.004345268 -0.012623038 0.030203534 0.0056992555 0.023341846 0.009739716 -0.00018791924
-0.0012085334 -0.011337521 -0.018400952 -0.0080140615 -0.0025486236 0.009063257 0.00023784628 0.011018368
0.07093409 -0.014910181 0.01730365 -0.005143868 0.0347746 0.041020215 0.021261431 0.011400813
-0.0017811009 0.03900351 -0.019586414 -0.001372411 -0.008644748 0.015554576 -0.010447246 -0.015968066
-0.007076205 -0.006108502 0.036392123 0.0026552258 -0.003925549 -0.0038754346 0.0066868337 0.010104798
-0.0072876825 0.06364185 -0.011222054 0.020925237 0.0335285 0.008280348 0.002081119 0.0074350312
0.04386225 -0.0010332672 0.016308848 -0.047534283 0.022514364 -0.02732019 0.008383864 0.021413999
0.0029774911 -0.00015240697 0.01750856 -0.010338529 -0.043951906 0.0063696727 0.0020465562 -0.0075342385
0.0035400249 0.020495927 0.029639427 0.023400856 -0.02700246 0.021458827 -0.012737013 0.018289909
0.002873518 -0.038075 -0.008263028 -0.017053392 0.04900245 -0.025400147 -0.022549631 -0.03571587
0.00067865086 0.013844123 0.027373867 -0.040359214 -0.001315749 0.0074167317 0.011609562 -0.014933398
0.009938297 -0.013738679 0.00375098 0.014917065 0.014979041 -0.020224037 -0.015931986 0.009846685
-0.033772524 -0.007225288 0.002678533 0.0061484287 0.013322493 0.0060200663 0.014462453 -0.0070588724
-0.013023092 -0.003994017 -0.0019942585 -0.0003230926 0.018738057 0.00204788 -0.01662897 -0.0013432195
0.0045015956 0.024664115 0.006031523 0.009574748 -0.01718535 -0.011110217 -0.0018122634 -0.01535277
-0.043707028 0.0087149665 -0.0042214436 -0.0031289682 0.0076322784 0.05254389 0.02602341 -0.0026867008
0.050465588 -0.00047836066 -0.0022871643 0.0020914178 2.9427443e-05 -0.0005058071 -0.0047117183 -0.022529734
-0.005042841 -0.0028332162 -0.02667659 0.03269891 -0.005023379 0.007176972 0.02930922 0.00779042
0.03262064 0.049045023 -0.011192083 0.017134806 -0.048797738 -0.023296494 -0.025551984 0.008682484
0.018748289 0.0042588506 0.015227333 -0.009685161 0.0032357192 0.020209625 -0.020784795 -0.00837876
00000000: 3332 f93c 99b9 94bb 7065 933c a959 4b3c
00000010: 1946 b4bc 77b9 14bd 41e9 e53c 98bb 7c3b
00000020: 1790 2a3d 2f63 30bb 95e8 4b3c 7884 093d
00000030: 3be5 96bc 4b6f 383d c099 6c3c b6c9 ccbb
00000040: b7c1 703d efce 38bd 6d7a 4cbc 67b8 1f3d
00000050: e1d3 dfbc 07e0 a33c 39d5 f43b 63af 2fbc
00000060: c0b3 e8bc fcc3 b23a 6c82 3f3c ff99 773c
00000070: 6b21 c23c 61c5 febc 25ba 943c 5a3f 713a
00000080: 3be0 073d ee0c 003d a179 ecbb 1164 01bd
00000090: 9150 093c f2d5 213d 117f 153a 5faf a43c
000000a0: cb10 28bc 904d 243c 7638 3fbd ab4b 943c
000000b0: 6a93 24bd 4fd9 48bc 0c28 67bc 55de 353c
000000c0: edef 8dbc b86f a03c 52ed 1f3d f7ac 0dbd
000000d0: 8810 b43b 0911 31b9 8317 653c ec42 be3c
000000e0: 611c 3d3c 1e0d 3cbc fe5a 50bc b2de aebc
000000f0: c564 013c fb8f 863c 56ae e33c 66d3 353d
00000100: e876 4d3d 68db 5abc e96a 703c 5165 c53a
00000110: bca4 b2bb db20 ca3c c637 9c3c 0057 8ebc
00000120: ef3b 62ba e2ca fe3c 1845 253d 61c1 73b9
00000130: f96d 253d 41df 373d 649e 7e3b 12f5 20bb
00000140: b587 05ba 5f58 64bc 48a5 5f3d 79f6 13bc
00000150: 8cf5 34bb c942 d1bb aa9d 863c 921c 2bbd
00000160: a21f af3c 67ba 103c b40e da3b 1d29 c93c
00000170: c53b 7e3c 8625 6a3c 1773 a03c 4607 923a
00000180: cb5a d1bb c062 8ebb dcd0 4ebc 676d f73c
00000190: d2c0 ba3b 6637 bf3c 5493 1f3c 300c 45b9
000001a0: a767 9eba 02c1 39bc 98bd 96bc 694d 03bc
000001b0: cf06 27bb 0e7e 143c 6066 7939 6386 343c
000001c0: e445 913d d549 74bc 62c0 8d3c e48d a8bb
000001d0: d06f 0e3d d004 283d 742c ae3c 7aca 3a3c
000001e0: d473 e9ba 25c2 1f3d b073 a0bc 79e2 b3ba
000001f0: b3a2 0dbc 9fd8 7e3c ed2a 2bbc 76cf 82bc
00000200: 83df e7bb d429 c8bb e80f 153d 4c03 2e3b
00000210: e4a1 80bb 01fb 7dbb 3a1d db3b 988e 253c
00000220: 83cd eebb a956 823d b5dc 37bc 676b ab3c
00000230: 2e55 093d 4caa 073c 6263 083b 90a1 f33b
00000240: e7a8 333d b26e 87ba 229a 853c 4fb3 42bd
00000250: 0b70 b83c 97ce dfbc 795c 093c 696c af3c
00000260: 0322 433b 6fcf 1fb9 1d6e 8f3c ef62 29bc
00000270: ea06 34bd b0b8 d03b 841f 063b c6e1 f6bb
00000280: c3ff 673b 13e7 a73c 62ce f23c 27b3 bf3c
00000290: 4334 ddbc 6cca af3c e8ae 50bc b8d4 953c
000002a0: a251 3c3b 88f4 1bbd a761 07bc 8eb3 8bbc
000002b0: cbb6 483d f813 d0bc 01ba b8bc ce4a 12bd
000002c0: 7de7 313a 76d2 623c 293f e03c b44f 25bd
000002d0: 3675 acba 0e08 f33b 0836 3e3c 36ab 74bc
000002e0: 3dd4 223c 3218 61bc 00d3 753b b566 743c
000002f0: a76a 753c e1ac a5bc cc83 82bc fe53 213c
00000300: 0f55 0abd 1cc2 ecbb 548a 2f3b c278 c93b
00000310: 9646 5a3c fa43 c53b edf3 6c3c 1d4e e7bb
00000320: cf5e 55bc 3ee0 82bb 1bb2 02bb c164 a9b9
00000330: 8e80 993c ba35 063b 7a39 88bc f80e b0ba
00000340: 1f82 933b 660c ca3c 15a4 c53b 67df 1c3c
00000350: 4bc8 8cbc a107 36bc 7889 edba 2f8a 7bbc
00000360: 2406 33bd 38c9 0e3c 0954 8abb 600f 4dbb
00000370: 3118 fa3b 4338 573d 0c2f d53c 5c13 30bb
00000380: 01b5 4e3d 7bcc fab9 40e4 15bb 2b10 093b
00000390: f4da f637 2498 04ba c264 9abb 4790 b8bc
000003a0: 6b3e a5bb 7bad 39bb dd88 dabc 4bef 053d
000003b0: 289b a4bb ce2c eb3b e419 f03c c846 ff3b
000003c0: 389d 053d 6fe3 483d 005f 37bc 4b5e 8c3c
000003d0: 23e0 47bd 4ad8 bebc 6552 d1bc fa40 0e3c
000003e0: 0396 993c d48d 8b3b 107c 793c 82ae 1ebc
000003f0: 5c0e 543b a88e a53c e044 aabc 1147 09bc

action_model._continuous_distribution.mu.bias f4 [2]
-0.012579274 -0.014645235
00000000: 4d19 4ebc 91f2 6fbc
