results/test/MoveAgentToApple/checkpoint.pt (torch, 154786 bytes, 12 tensors)

network_body._body_endoder.seq_layers.0.weight f4 [128, 11]
0	0x3ee83cba	0.4535883
1	0xbe61bdba	-0.22045031
2	0xbc0eb00f	-0.008708968
3	0xbe91a255	-0.28444162
4	0xbe3de820	-0.1854558
5	0xbdfc6bba	-0.12325235
6	0xbd8e3acf	-0.069448106
7	0x3efb9f4e	0.49144977
8	0x3f7b537a	0.9817425
9	0x3e49d1ca	0.19708934
10	0x3dadfa70	0.08495033
11	0xbf580798	-0.8438659
12	0x3c8f98c3	0.017528897
13	0x3e73ed54	0.23821002
14	0x3d2ed5a1	0.0426842
15	0xbf22fe23	-0.6366903
16	0x3dca70d0	0.098847985
17	0xbdf9ff61	-0.12206913
18	0xbe147c04	-0.14500433
19	0xbe6e7e78	-0.23290431
20	0x3e1d66e9	0.15371288
21	0x3e154eac	0.14580792
22	0x3e828d52	0.25498444
23	0xbf209660	-0.62729454
24	0x3e9a8b33	0.30184326
25	0xbe296172	-0.16541079
26	0x3ed1323e	0.40858644
27	0x3cd92915	0.026508847
28	0x3c1a304d	0.00941093
29	0x3db36e15	0.08761231
30	0xbe510c35	-0.20414813
31	0xbe71bbb1	-0.23606755
32	0xbe82a174	-0.25513804
33	0x3d258fce	0.040420346
34	0x3dce951b	0.10087033
35	0x3eb7c3aa	0.35891467
36	0xbea4a2f5	-0.32155576
37	0xbe63d103	-0.222477
38	0x3e2db772	0.1696451
39	0x3ddec3f6	0.1087722
40	0xbea77e9e	-0.3271379
41	0xbebbae1b	-0.3665627
42	0x3ee0f096	0.43933553
43	0x3d7b0c41	0.061290983
44	0xbe1afbc0	-0.15135098
45	0xbedd4fae	-0.43224853
46	0xbc95ab46	-0.018270146
47	0x3f16a23c	0.588413
48	0x3e2ea25d	0.17054124
49	0xbe0b4324	-0.13599831
50	0x3e5c944c	0.21540946
51	0x3e35712c	0.17718953
52	0xbca6d48d	-0.020365024
53	0xbdae0936	-0.084978506
54	0xbebe3ad8	-0.3715427
55	0xbd77dcf0	-0.060513437
56	0x3e817fea	0.25292903
57	0x3ee75650	0.4518304
58	0x3e05f0fb	0.13080208
59	0xbc75ee24	-0.01501039
60	0x3d778b6f	0.06043571
61	0x3f298e8a	0.6623312
62	0x3e86baf0	0.26314497
63	0xbe47e85c	-0.19522232
64	0xbe6132de	-0.2199206
65	0x3f14cfd5	0.58129627
66	0xbd8e8d53	-0.06960549
67	0x3e5aa2b1	0.21351124
68	0xbeaaba86	-0.3334543
69	0x3e3a9a31	0.18222882
70	0xbeec345c	-0.46133697
71	0x3de2d24a	0.11075266
72	0x3ef18158	0.47168994
73	0xbb21649c	-0.0024626618
74	0xbe42c504	-0.19020468
75	0xbd582340	-0.052767992
76	0x3ef3bf73	0.47607002
77	0x3f3a5f75	0.72801906
78	0xbe6a7c70	-0.22899032
79	0xbdeb45c6	-0.114879176
80	0x3d92d7e6	0.071700856
81	0xbba45c7c	-0.005015908
82	0xbe0b1fdc	-0.13586372
83	0xbe509e2b	-0.20372836
84	0xbe20fa57	-0.15720497
85	0x3d0395ff	0.03212547
86	0xbe436b37	-0.19083868
87	0xbdea39b6	-0.11436789
88	0x3e12938c	0.14314097
89	0xbd94aeed	-0.07259927
90	0x3d5bd663	0.053671252
91	0xbe12d3f7	-0.1433867
92	0xbe840f06	-0.25792712
93	0x3e671a57	0.22568642
94	0xbefacb44	-0.48983204
95	0xbdc4effc	-0.09616086
96	0xbd55b3c1	-0.05217338
97	0x3bde1985	0.0067779445
98	0xbe8cc54b	-0.27494273
99	0x3e2486da	0.16067067
100	0xbd251119	-0.04029951
101	0x3e20866a	0.15676275
102	0xbe1f6115	-0.15564378
103	0xbdb5dbff	-0.088798515
104	0x3cd2c662	0.025729362
105	0x3ec9a5c0	0.3938427
106	0x3e43f08f	0.19134735
107	0xbcc136f3	-0.023585772
108	0x3ede8192	0.4345823
109	0x3ea438a5	0.32074466
110	0xbf04345d	-0.516424
111	0xbdf81e7f	-0.12115192
112	0x3cd87b83	0.026426082
113	0xbe8298db	-0.25507244
114	0xbe47f855	-0.19528325
115	0x3f064b04	0.52458215
116	0x3e8d93c7	0.27651808
117	0x3e60819f	0.21924447
118	0x3dc0dd60	0.09417224
119	0xbe104624	-0.14089257
120	0xbdde080a	-0.10841377
121	0x3e02ba2e	0.12766334
122	0xbd4fa38b	-0.050693076
123	0xbda9a25e	-0.08282922
124	0xbe511d18	-0.20421255
125	0xbe7a8ec5	-0.24468525
126	0xbebc44b9	-0.3677118
127	0x3eaec5cb	0.3413528
128	0xbddd8c1d	-0.1081774
129	0xbde08773	-0.10963335
130	0x3c3e7e6c	0.011626821
131	0x3e2cc3cc	0.16871566
132	0x3f19ec53	0.6012623
133	0xbe018c7e	-0.1265125
134	0xbe5f7bb0	-0.21824527
135	0xbcc1acd1	-0.023641976
136	0x3e0652b4	0.13117486
137	0x3e6be876	0.23037896
138	0x3ea6408c	0.3247112
139	0x3ec5b7dc	0.38616836
140	0xbe8c58a1	-0.27411368
141	0xbcf68b24	-0.030095644
142	0xbf4561b6	-0.7710222
143	0x3f1e9c7b	0.6195752
144	0xbc86d5ae	-0.016459312
145	0x3f1ba195	0.6079343
146	0xbd23d155	-0.039994556
147	0x3e9363b9	0.2878702
148	0x3e50428e	0.20337889
149	0xbe0d0353	-0.137708
150	0xbeea3f6c	-0.45751512
151	0xbdf6c2ff	-0.12048911
152	0x3dd5d3f5	0.10440818
153	0xbe9aac1c	-0.30209434
154	0xbf02f636	-0.5115694
155	0x3e605b1c	0.21909755
156	0x3ecbf81d	0.39837733
157	0xbe8d55fe	-0.2760467
158	0x3e9c94c3	0.30582246
159	0xbe35aa7a	-0.17740813
160	0xbeac3035	-0.3363053
161	0xbde2a324	-0.11066273
162	0xbf248295	-0.6426175
163	0x3c8e135d	0.017343218
164	0xbf1e9294	-0.6194241
165	0xbebdc1a0	-0.37061787
166	0x3dbf99ca	0.09355505
167	0x3e9c8fd4	0.30578482
168	0x3d953d65	0.07287101
169	0xbcd99d59	-0.026564287
170	0x3e0a7902	0.13522723
171	0x3df981c9	0.12182958
172	0xbec4b0c9	-0.38416126
173	0x3da49edc	0.080381125
174	0xbe5177da	-0.20455876
175	0x3e8c2704	0.27373517
176	0x3e0d6e0f	0.13811515
177	0xbe51228c	-0.20423335
178	0xbecce09c	-0.40015113
179	0x3e6adf52	0.22936752
180	0xbe35f6a0	-0.17769861
181	0xbe9540c1	-0.29150966
182	0xbd4c9ce5	-0.049954314
183	0xbd966df1	-0.073451884
184	0xbe9f7386	-0.31142825
185	0xbd9e26b2	-0.07722224
186	0x3d928a69	0.07155306
187	0x3f057fd4	0.52148175
188	0x3e6e36d4	0.23263103
189	0xbeb09ab6	-0.34493035
190	0xbe0e7dd4	-0.13915187
191	0xbe6b2ac9	-0.2296554
192	0x3db61d47	0.08892303
193	0xbe1e63c8	-0.15467751
194	0xbe0dfdc7	-0.1386634
195	0x3ef3cbb5	0.47616354
196	0x3dde5315	0.108556904
197	0xbe9fcc80	-0.3121071
198	0xbe258534	-0.16164094
199	0xbe20e0ee	-0.15710804
200	0x3d247d72	0.040158696
201	0xbde1d320	-0.11026597
202	0x3de15e1e	0.110042796
203	0x3d6415c7	0.05568483
204	0x3f2ae480	0.66754913
205	0x3e05a83e	0.1305246
206	0x3ed4548e	0.4147076
207	0xbea9291a	-0.3303917
208	0x3e867456	0.26260632
209	0x3e5b7efc	0.2143516
210	0x3d4a576f	0.04939979
211	0x3ce72d3b	0.02821981
212	0xbedcf0e5	-0.43152538
213	0xbf060b5f	-0.523611
214	0x3e2ee46a	0.1707932
215	0x3eee4619	0.46537855
216	0xbdbf7fb2	-0.09350528
217	0xbed5b113	-0.4173666
218	0xbeb0d15b	-0.34534726
219	0x3f0b689e	0.5445651
220	0x3e8a2dcf	0.26988074
221	0xbe89b5b7	-0.2689645
222	0x3ecb55f7	0.39714023
223	0xbda90376	-0.08252613
224	0xbf306856	-0.68909204
225	0x3e7e64b6	0.24843106
226	0xbd25976f	-0.04042762
227	0xbe9baba9	-0.30404404
228	0x3ed91226	0.4239666
229	0xbe291019	-0.16510047
230	0x3f036448	0.5132489
231	0xbd8c62b2	-0.06854762
232	0x3defd2b1	0.11710108
233	0xbdd6b69b	-0.10484048
234	0x3ece5b8b	0.40304217
235	0xbdadc00a	-0.08483894
236	0x3e28c532	0.16481474
237	0x3ddacfe0	0.1068418
238	0x3e3da46d	0.18519755
239	0xbe35dfd8	-0.17761171
240	0xbe94624f	-0.28981254
241	0x3e25db5a	0.16196957
242	0x3badb862	0.005301521
243	0x3f15f17e	0.5857161
244	0xbe477230	-0.19477153
245	0x3e927ce4	0.2861091
246	0xbe810d30	-0.25205374
247	0x3f13d43a	0.5774571
248	0xbe5b5fcc	-0.21423262
249	0xbeab1db3	-0.33421096
250	0x3c9ec647	0.019381655
251	0xbef8cf6e	-0.48595756
252	0x3e687d5a	0.22704068
253	0xbe09bf8b	-0.13451974
254	0xbe03dcc5	-0.12877186
255	0xbed42225	-0.414323

network_body._body_endoder.seq_layers.0.bias f4 [128]
0	0x00000000	0.0
1	0x00000000	0.0
2	0x00000000	0.0
3	0x00000000	0.0
4	0x00000000	0.0
5	0x00000000	0.0
6	0x00000000	0.0
7	0x00000000	0.0
8	0x00000000	0.0
9	0x00000000	0.0
10	0x00000000	0.0
11	0x00000000	0.0
12	0x00000000	0.0
13	0x00000000	0.0
14	0x00000000	0.0
15	0x00000000	0.0
16	0x00000000	0.0
17	0x00000000	0.0
18	0x00000000	0.0
19	0x00000000	0.0
20	0x00000000	0.0
21	0x00000000	0.0
22	0x00000000	0.0
23	0x00000000	0.0
24	0x00000000	0.0
25	0x00000000	0.0
26	0x00000000	0.0
27	0x00000000	0.0
28	0x00000000	0.0
29	0x00000000	0.0
30	0x00000000	0.0
31	0x00000000	0.0
32	0x00000000	0.0
33	0x00000000	0.0
34	0x00000000	0.0
35	0x00000000	0.0
36	0x00000000	0.0
37	0x00000000	0.0
38	0x00000000	0.0
39	0x00000000	0.0
40	0x00000000	0.0
41	0x00000000	0.0
42	0x00000000	0.0
43	0x00000000	0.0
44	0x00000000	0.0
45	0x00000000	0.0
46	0x00000000	0.0
47	0x00000000	0.0
48	0x00000000	0.0
49	0x00000000	0.0
50	0x00000000	0.0
51	0x00000000	0.0
52	0x00000000	0.0
53	0x00000000	0.0
54	0x00000000	0.0
55	0x00000000	0.0
56	0x00000000	0.0
57	0x00000000	0.0
58	0x00000000	0.0
59	0x00000000	0.0
60	0x00000000	0.0
61	0x00000000	0.0
62	0x00000000	0.0
63	0x00000000	0.0
64	0x00000000	0.0
65	0x00000000	0.0
66	0x00000000	0.0
67	0x00000000	0.0
68	0x00000000	0.0
69	0x00000000	0.0
70	0x00000000	0.0
71	0x00000000	0.0
72	0x00000000	0.0
73	0x00000000	0.0
74	0x00000000	0.0
75	0x00000000	0.0
76	0x00000000	0.0
77	0x00000000	0.0
78	0x00000000	0.0
79	0x00000000	0.0
80	0x00000000	0.0
81	0x00000000	0.0
82	0x00000000	0.0
83	0x00000000	0.0
84	0x00000000	0.0
85	0x00000000	0.0
86	0x00000000	0.0
87	0x00000000	0.0
88	0x00000000	0.0
89	0x00000000	0.0
90	0x00000000	0.0
91	0x00000000	0.0
92	0x00000000	0.0
93	0x00000000	0.0
94	0x00000000	0.0
95	0x00000000	0.0
96	0x00000000	0.0
97	0x00000000	0.0
98	0x00000000	0.0
99	0x00000000	0.0
100	0x00000000	0.0
101	0x00000000	0.0
102	0x00000000	0.0
103	0x00000000	0.0
104	0x00000000	0.0
105	0x00000000	0.0
106	0x00000000	0.0
107	0x00000000	0.0
108	0x00000000	0.0
109	0x00000000	0.0
110	0x00000000	0.0
111	0x00000000	0.0
112	0x00000000	0.0
113	0x00000000	0.0
114	0x00000000	0.0
115	0x00000000	0.0
116	0x00000000	0.0
117	0x00000000	0.0
118	0x00000000	0.0
119	0x00000000	0.0
120	0x00000000	0.0
121	0x00000000	0.0
122	0x00000000	0.0
123	0x00000000	0.0
124	0x00000000	0.0
125	0x00000000	0.0
126	0x00000000	0.0
127	0x00000000	0.0

network_body._body_endoder.seq_layers.2.weight f4 [128, 128]
0	0x3d8425ba	0.06452508
1	0xbde61db3	-0.112361334
2	0x3dfd8cbd	0.12380359
3	0xbbe04860	-0.0068445653
4	0xbd2775ee	-0.04088395
5	0x3d850a21	0.064960726
6	0xbb8d4f49	-0.00431243
7	0xbca7a5df	-0.020464836
8	0x3d8c3cab	0.06847509
9	0xbe10c1b8	-0.14136398
10	0x3ca37e9a	0.01995783
11	0x3c8cc732	0.017184827
12	0x3e0ce634	0.1375969
13	0xbd0a5e62	-0.033781417
14	0x3d8c9784	0.06864837
15	0xbddbd8e3	-0.10734727
16	0x3d4ec5b1	0.050481502
17	0x3ae13ffd	0.0017185208
18	0xbd7e1c81	-0.062038902
19	0xbdab0f7c	-0.08352563
20	0xbdb3e3bb	-0.087836705
21	0x3e18db8e	0.14927503
22	0xbc178c13	-0.009249705
23	0xbd8b440c	-0.06800088
24	0x3d932c98	0.0718624
25	0x3b58eed3	0.0033101335
26	0xbd9c1fe4	-0.0762327
27	0xbe000d79	-0.1250514
28	0xbc61fad6	-0.013792714
29	0xbcfecf47	-0.031104697
30	0xbdfb6ebf	-0.122769825
31	0x3d896550	0.06708777
32	0x3bfd4ab5	0.007729853
33	0x3e1891b0	0.14899325
34	0x3c87da13	0.016583478
35	0xbc2e5dba	-0.010642463
36	0x3d3e335b	0.046435695
37	0x3d615b33	0.055018615
38	0xbdbf979c	-0.09355089
39	0xbc1ddabb	-0.009634669
40	0x3b91fb54	0.0044550095
41	0xbe6ab682	-0.22921184
42	0x3d7da011	0.06192023
43	0x3dfe66b2	0.12421931
44	0xbdafcb1d	-0.08583663
45	0x3de44693	0.111462735
46	0xbe04d9c9	-0.12973703
47	0xbc184c95	-0.009295602
48	0x3d4cb219	0.049974535
49	0x3d831124	0.06399754
50	0x3d18fb6f	0.03734916
51	0xbdbb9fa0	-0.091613054
52	0x3d2502d8	0.040285915
53	0x3dfc81f6	0.123294756
54	0x3da5a948	0.080889285
55	0xbe033cd5	-0.12816174
56	0xbcd00960	-0.025395095
57	0xbdbee8a1	-0.09321714
58	0x3d12ef70	0.035872877
59	0x3d90d983	0.07072737
60	0x3d2af71a	0.04173956
61	0xbd4cdd07	-0.050015476
62	0x3e07d91f	0.13266419
63	0x3da20c29	0.079124756
64	0xbc030db2	-0.007998871
65	0x3c64e301	0.013970138
66	0x3d1a81e2	0.037721522
67	0x3dbaa2cd	0.09113083
68	0xbd4b2ba6	-0.049602173
69	0x3b91a8e1	0.0044451808
70	0xbd3460c3	-0.04403759
71	0x3d05bbe1	0.03264988
72	0xbccbe8c0	-0.024891257
73	0x3cf71e51	0.030165823
74	0x3e84dc77	0.2594945
75	0x3d452b77	0.048137154
76	0xbdd0d202	-0.10196306
77	0x3c68baf4	0.014204729
78	0x3be660bd	0.007030575
79	0x3d82f777	0.063948564
80	0xbd644ff1	-0.0557403
81	0x3d4110c2	0.047135122
82	0xbd303142	-0.043015726
83	0xbdb19a28	-0.08671981
84	0x3d9e7370	0.07736862
85	0x3e63e6ae	0.22255966
86	0x3cbbc519	0.022921132
87	0x3d34e1cc	0.04416065
88	0x3c624f09	0.013812789
89	0xbcf1a2f1	-0.029496642
90	0x3e114730	0.14187312
91	0xbd913d69	-0.07091791
92	0xbd9f9d59	-0.077936836
93	0x3e435ac7	0.19077598
94	0x3b3f1d0e	0.0029161605
95	0x3db0b079	0.086274095
96	0x3ca8e6e9	0.020617919
97	0xbd601639	-0.054708693
98	0x3d2435e0	0.04009044
99	0x3db3dc80	0.087822914
100	0x3d1e827c	0.03869866
101	0x3d80b136	0.062838
102	0x3dc8bb9f	0.09801411
103	0x3e348261	0.1762786
104	0xbe231c0a	-0.15928665
105	0x3dc01864	0.09379652
106	0x3b9ee323	0.004848854
107	0x3d2bbd5f	0.041928645
108	0xbd842f57	-0.06454342
109	0xbd8d6d27	-0.06905585
110	0x3e15920b	0.14606492
111	0xbdeab3e8	-0.11460096
112	0x3e4cf120	0.20013857
113	0xbca91d56	-0.020643871
114	0x3da2ab76	0.0794286
115	0xbdcd6441	-0.100288875
116	0xb63a92dc	-2.7801643e-06
117	0x3e1d67af	0.15371583
118	0x3d29844d	0.041385937
119	0xbcd3f47f	-0.02587342
120	0x3c0feb10	0.008784071
121	0x3dea870e	0.11451541
122	0x3d8fc55f	0.070200674
123	0x3be925cd	0.007115102
124	0x3d05be56	0.03265222
125	0xbdac9cd5	-0.08428351
126	0xbcddeb22	-0.02708966
127	0xbd84ee77	-0.06490796
128	0xbdb64fd6	-0.08901946
129	0xbe086f7a	-0.13323775
130	0xba3ed55b	-0.0007279717
131	0x3e4a886b	0.19778602
132	0x3d287a35	0.04113217
133	0xbca31957	-0.019909544
134	0x3dd5a324	0.10431507
135	0xbe382ab0	-0.17985034
136	0xbcf7e478	-0.03026031
137	0x3c2c3658	0.010511003
138	0x3d90f3e8	0.070777714
139	0x3d23e693	0.040014815
140	0xbdcebcba	-0.100945905
141	0xbce4fffe	-0.027954098
142	0xbdd33b27	-0.10314017
143	0xbe0007f6	-0.12503037
144	0xbe6b66f1	-0.22988488
145	0xbdd8115f	-0.10550188
146	0xbe441e51	-0.1915219
147	0x3dbd0997	0.09230345
148	0xbc2d4f37	-0.010577968
149	0x3d9d0900	0.07667732
150	0x3d9adc03	0.07561495
151	0x3df0c7d4	0.11756864
152	0xbc9a6ebd	-0.018851632
153	0xbdc4f74b	-0.0961748
154	0xbd8897d3	-0.06669583
155	0xbcd89375	-0.0264375
156	0x3da1ad33	0.07894363
157	0x3d2ed23e	0.04268097
158	0x3d71b6b8	0.059012145
159	0x3ce88a11	0.028386148
160	0x3daa1375	0.083044924
161	0xbce0c1b4	-0.027436115
162	0x3ca10960	0.01965779
163	0xbda3fb0b	-0.08006867
164	0x3c377f51	0.011199788
165	0x3df340d7	0.118776016
166	0xbdb3a132	-0.0877098
167	0xbb7c4404	-0.003849269
168	0x3d586211	0.0528279
169	0xbe2d5157	-0.1692556
170	0x3da3a687	0.07990747
171	0xbd5cc263	-0.05389632
172	0x3bb9536c	0.0056556966
173	0x3d636369	0.055514727
174	0x3df068cb	0.11738738
175	0x3d59d1cb	0.05317859
176	0x3d14357d	0.036183823
177	0x3d10283f	0.03519463
178	0x3d5b1ac5	0.053492326
179	0xbcadadf8	-0.021201119
180	0xbe25140d	-0.1612093
181	0x3cdde197	0.027085109
182	0x3df4626e	0.119328365
183	0xbe1058bb	-0.14096348
184	0x3ca9e099	0.02073698
185	0xbcbfde92	-0.02342156
186	0xbda415bf	-0.0801196
187	0x3d1223db	0.035678726
188	0x3d9c16c1	0.076215275
189	0xbdd6aaaa	-0.1048177
190	0x3d7c5346	0.061602853
191	0x3d2f83eb	0.042850416
192	0xbdf67faf	-0.120360725
193	0xbdaa1ab1	-0.08305872
194	0x3d1c5522	0.038167126
195	0x3d6c0113	0.057618212
196	0xbd989a9b	-0.07451364
197	0x3d92ea00	0.07173538
198	0xbd046686	-0.032324336
199	0xbc15fecc	-0.009154987
200	0x3c01fc1c	0.007933643
201	0xbd7e7cf2	-0.062130876
202	0x3c9f48e4	0.019443937
203	0xbc86c978	-0.01645349
204	0x3d99d076	0.07510464
205	0x3cdf219f	0.027237711
206	0x3e734842	0.23758033
207	0x3b2023fd	0.0024435513
208	0xbc6cc7e1	-0.014451952
209	0x3d0fae6f	0.035078462
210	0xbe03a707	-0.12856685
211	0x3d1d42fe	0.038393967
212	0x3d63b5c8	0.055593282
213	0x3d0cc202	0.034364708
214	0xbdf5d84e	-0.120041475
215	0xbddf12d8	-0.10892266
216	0xbe059c08	-0.13047802
217	0x3e074e7e	0.13213536
218	0x3ca168fc	0.01970338
219	0x3e05dbf0	0.13072181
220	0xbe1dbaaa	-0.15403238
221	0xbd072d40	-0.03300214
222	0x3da1176f	0.07865798
223	0x3dff32f8	0.124608934
224	0xbd12e0ba	-0.035858847
225	0xbbefeb77	-0.007321771
226	0xbc5a76c1	-0.013333977
227	0xbd9306bc	-0.07179019
228	0xbd52d543	-0.051472913
229	0xbcedeec7	-0.029044522
230	0x3c83abd0	0.016073138
231	0x3c469929	0.012121477
232	0xbd76847a	-0.060184933
233	0x3afda68c	0.0019352003
234	0x3bd7259b	0.006565762
235	0x3add1e35	0.0016869964
236	0x3e06d2c9	0.13166346
237	0x3d037bd9	0.032100532
238	0x3d45e19b	0.048310857
239	0xbe1860e9	-0.14880718
240	0xbd0d89b7	-0.034555163
241	0x3cbaf824	0.0228234
242	0x3d1fe229	0.039034043
243	0xbdb83639	-0.08994717
244	0x3e0f9895	0.14023049
245	0x3c294c02	0.010333063
246	0x3c668b1d	0.014071253
247	0x3da235e2	0.079204336
248	0xbd185c7d	-0.03719758
249	0xbd610697	-0.054937925
250	0xbbcab8ae	-0.0061865663
251	0x3e11b2a6	0.14228305
252	0x3e70a35a	0.23499814
253	0xbe1502b3	-0.14551811
254	0x3d875657	0.06608265
255	0xbd51e330	-0.051242054

network_body._body_endoder.seq_layers.2.bias f4 [128]
0	0x00000000	0.0
1	0x00000000	0.0
2	0x00000000	0.0
3	0x00000000	0.0
4	0x00000000	0.0
5	0x00000000	0.0
6	0x00000000	0.0
7	0x00000000	0.0
8	0x00000000	0.0
9	0x00000000	0.0
10	0x00000000	0.0
11	0x00000000	0.0
12	0x00000000	0.0
13	0x00000000	0.0
14	0x00000000	0.0
15	0x00000000	0.0
16	0x00000000	0.0
17	0x00000000	0.0
18	0x00000000	0.0
19	0x00000000	0.0
20	0x00000000	0.0
21	0x00000000	0.0
22	0x00000000	0.0
23	0x00000000	0.0
24	0x00000000	0.0
25	0x00000000	0.0
26	0x00000000	0.0
27	0x00000000	0.0
28	0x00000000	0.0
29	0x00000000	0.0
30	0x00000000	0.0
31	0x00000000	0.0
32	0x00000000	0.0
33	0x00000000	0.0
34	0x00000000	0.0
35	0x00000000	0.0
36	0x00000000	0.0
37	0x00000000	0.0
38	0x00000000	0.0
39	0x00000000	0.0
40	0x00000000	0.0
41	0x00000000	0.0
42	0x00000000	0.0
43	0x00000000	0.0
44	0x00000000	0.0
45	0x00000000	0.0
46	0x00000000	0.0
47	0x00000000	0.0
48	0x00000000	0.0
49	0x00000000	0.0
50	0x00000000	0.0
51	0x00000000	0.0
52	0x00000000	0.0
53	0x00000000	0.0
54	0x00000000	0.0
55	0x00000000	0.0
56	0x00000000	0.0
57	0x00000000	0.0
58	0x00000000	0.0
59	0x00000000	0.0
60	0x00000000	0.0
61	0x00000000	0.0
62	0x00000000	0.0
63	0x00000000	0.0
64	0x00000000	0.0
65	0x00000000	0.0
66	0x00000000	0.0
67	0x00000000	0.0
68	0x00000000	0.0
69	0x00000000	0.0
70	0x00000000	0.0
71	0x00000000	0.0
72	0x00000000	0.0
73	0x00000000	0.0
74	0x00000000	0.0
75	0x00000000	0.0
76	0x00000000	0.0
77	0x00000000	0.0
78	0x00000000	0.0
79	0x00000000	0.0
80	0x00000000	0.0
81	0x00000000	0.0
82	0x00000000	0.0
83	0x00000000	0.0
84	0x00000000	0.0
85	0x00000000	0.0
86	0x00000000	0.0
87	0x00000000	0.0
88	0x00000000	0.0
89	0x00000000	0.0
90	0x00000000	0.0
91	0x00000000	0.0
92	0x00000000	0.0
93	0x00000000	0.0
94	0x00000000	0.0
95	0x00000000	0.0
96	0x00000000	0.0
97	0x00000000	0.0
98	0x00000000	0.0
99	0x00000000	0.0
100	0x00000000	0.0
101	0x00000000	0.0
102	0x00000000	0.0
103	0x00000000	0.0
104	0x00000000	0.0
105	0x00000000	0.0
106	0x00000000	0.0
107	0x00000000	0.0
108	0x00000000	0.0
109	0x00000000	0.0
110	0x00000000	0.0
111	0x00000000	0.0
112	0x00000000	0.0
113	0x00000000	0.0
114	0x00000000	0.0
115	0x00000000	0.0
116	0x00000000	0.0
117	0x00000000	0.0
118	0x00000000	0.0
119	0x00000000	0.0
120	0x00000000	0.0
121	0x00000000	0.0
122	0x00000000	0.0
123	0x00000000	0.0
124	0x00000000	0.0
125	0x00000000	0.0
126	0x00000000	0.0
127	0x00000000	0.0

action_model._continuous_distribution.log_sigma f4 [1, 2]
0	0x00000000	0.0
1	0x00000000	0.0

action_model._continuous_distribution.mu.weight f4 [2, 128]
0	0x3d2f0cce	0.04273682
1	0xbbefba2d	-0.007315895
2	0xbc82ac74	-0.015951373
3	0x3b18b4e7	0.0023301186
4	0xbc0e2308	-0.008675344
5	0x3d035d1f	0.03207123
6	0xbcb21cff	-0.021742342
7	0xb8b50d23	-8.6331995e-05
8	0x3cef6315	0.02922205
9	0x3c97503f	0.018470882
10	0x3baeec8c	0.005338257
11	0xbbaabbc0	-0.00521037
12	0x3c17b677	0.009259812
13	0x3cde9fe0	0.027175844
14	0x3c8e1f01	0.017348768
15	0xbcce5ab2	-0.025189731
16	0xbb3557cd	-0.0027670742
17	0x3d11371d	0.03545295
18	0xbc767f28	-0.015044965
19	0x3d1cef6f	0.03831428
20	0x3cc36f8a	0.023856897
21	0xbc39b70f	-0.0113351485
22	0xbc961979	-0.018322693
23	0x3bd64205	0.006538632
24	0xb96756db	-0.00022062233
25	0xbcb9b87f	-0.022670982
26	0xbc63acd0	-0.013896182
27	0xb9b371f7	-0.0003422645
28	0xbbb390f7	-0.0054799276
29	0xbc346b77	-0.01101195
30	0x3bc051d3	0.005869129
31	0xbb04ba3d	-0.0020252608
32	0xbb13775f	-0.002250157
33	0x3c92cce7	0.01791997
34	0x3c488611	0.012238995
35	0xbc8eef8e	-0.017448213
36	0xbb99cdb7	-0.0046937126
37	0x3c684800	0.014177322
38	0xba79c467	-0.00095278624
39	0xba307609	-0.0006731456
40	0x3bc3c7e3	0.005974756
41	0xbc939187	-0.018013729
42	0x3bb4e16a	0.0055200355
43	0x3c733c6a	0.014845947
44	0x3cf7f3af	0.030267565
45	0x3c671d0b	0.0141060455
46	0x3c9b907b	0.018989792
47	0xba89aceb	-0.0010503804
48	0x3aef859a	0.0018274069
49	0xbc5b3a20	-0.013380557
50	0x3cada174	0.02119515
51	0xbc315ad6	-0.01082488
52	0x3bcfbedb	0.0063398904
53	0x3c87748a	0.016535062
54	0xbc7789df	-0.015108555
55	0xbcd99d37	-0.026564224
56	0x3c2c8283	0.010529163
57	0x3cb88d3a	0.02252828
58	0x3bee263f	0.007267743
59	0x3a951823	0.0011374991
60	0xbceea177	-0.029129727
61	0xbc55e5df	-0.013055294
62	0xbc42c147	-0.011886901
63	0x3c2259b3	0.009909081
64	0xbba2a05b	-0.0049629635
65	0x3bb80004	0.0056152362
66	0x3ca3c748	0.019992486
67	0xbb3a1c2e	-0.0028398144
68	0x3c7e3fef	0.015518173
69	0xbae52580	-0.0017482489
70	0x3b80044f	0.0039067636
71	0x3ba7de7f	0.005122959
72	0x3c9755cc	0.018473528
73	0x3baace31	0.005212568
74	0x39964797	0.00028663568
75	0xbc9d8df3	-0.019232726
76	0x3c2a6dd6	0.0104021635
77	0xbbba272b	-0.0056809387
78	0x3baffe37	0.005370881
79	0xbc919742	-0.01777232
80	0xbd0b9185	-0.034074325
81	0x3d0ffe82	0.035154827
82	0xbd380bdf	-0.044933196
83	0x3c32f401	0.010922433
84	0x3c5838da	0.013197148
85	0x3cc82bda	0.024434973
86	0x3c354568	0.011063911
87	0xbc6e7e90	-0.014556542
88	0x3c0545c5	0.00813431
89	0x3cfab51f	0.030603943
90	0x3c0ecd9f	0.008716016
91	0xbc2ae36e	-0.0104302
92	0xbcf46247	-0.029832019
93	0xb9858e09	-0.0002547356
94	0xbc309e3b	-0.010779913
95	0x3cfc1ac0	0.030774474
96	0x3cc70678	0.024295077
97	0xbca0229f	-0.019547759
98	0x3bd69d9f	0.0065495516
99	0x3b55b18f	0.0032607054
100	0xbc2ca5a3	-0.010537538
101	0x3bb35647	0.0054729315
102	0x3c4e7195	0.012600322
103	0xba5f7228	-0.00085237855
104	0x3a8049c3	0.0009787608
105	0x3bc8a3ef	0.006123058
106	0x3b0b82d0	0.0021287687
107	0x3ba401cd	0.0050050975
108	0xbc64e705	-0.013971095
109	0xbafd3f4b	-0.0019321231
110	0x3cb0d780	0.021587133
111	0x3c85680c	0.016284965
112	0xbca6767c	-0.02032017
113	0x3c211de9	0.009833791
114	0x3c0f7115	0.008754988
115	0xbcdce402	-0.026964191
116	0x3c2c23e3	0.010506603
117	0x3c1b2fd1	0.00947185
118	0xbc144d4c	-0.009051632
119	0xbc2bcd8f	-0.010486021
120	0x3c85e38b	0.016343853
121	0xbb275929	-0.0025535321
122	0x3bbad6cc	0.0057018753
123	0x3b93f955	0.0045158067
124	0x3be5e4af	0.0070157866
125	0x3bc03cd1	0.005866625
126	0x3cd5c765	0.026096055
127	0x3cede715	0.029040853
128	0x3bd750dd	0.006570919
129	0xbca410bd	-0.020027513
130	0xbcee1580	-0.029062986
131	0xbcd3c9c7	-0.02585305
132	0x3c5cf328	0.013485707
133	0xbc706cb2	-0.0146743525
134	0xbbe48bc2	-0.0069746682
135	0x3c6be133	0.014396953
136	0xbc97b544	-0.018519051
137	0x3c8b9d72	0.01704285
138	0xbcb8376d	-0.022487367
139	0x3c1c361b	0.009534384
140	0xbc7ce3b0	-0.015435144
141	0x3b088826	0.0020833104
142	0x3b92026d	0.0044558556
143	0x3c564dab	0.013080041
144	0x3cdd14ba	0.026987422
145	0x3c395297	0.011311195
146	0x3d0c481e	0.034248464
147	0xbd540542	-0.051762827
148	0x3b606d52	0.0034244847
149	0x3b1f494d	0.0024305165
150	0x3bf4e9b7	0.00747415
151	0x3b62e447	0.0034620927
152	0x3c71b56a	0.014752725
153	0xbcf2d838	-0.029644117
154	0xbc40edb4	-0.011775423
155	0x3c41d82f	0.011831327
156	0xbab9d266	-0.0014177084
157	0x3cd057fd	0.025432581
158	0x3c8bbf01	0.017058851
159	0x3c37be8b	0.011214863
160	0xbafc3aa0	-0.0019243546
161	0x3c0a231f	0.008431225
162	0x3b3d10e7	0.0028849186
163	0xbc3b7536	-0.0114415195
164	0xbd0fe8a3	-0.03513397
165	0x3d57b37d	0.052661408
166	0xbb0ec14b	-0.0021782692
167	0xbd0922bc	-0.03348039
168	0xbc1a5973	-0.00942074
169	0x3c9306df	0.017947612
170	0x3be34840	0.006936103
171	0x3c89a343	0.016801482
172	0x3b67cecd	0.0035371066
173	0x3c3f2506	0.011666542
174	0x3d0c5bb1	0.03426713
175	0xbc347c60	-0.011015981
176	0xbcd816cf	-0.026378063
177	0xbbc7eb18	-0.0061010234
178	0x3c7967d2	0.015222507
179	0xbcab84a3	-0.02093727
180	0x3c057c13	0.008147257
181	0xba2710fe	-0.00063730765
182	0xbd3223d5	-0.043491203
183	0x3d1a4f7a	0.03767345
184	0x3cc2598b	0.023724338
185	0xbbf32a1f	-0.0074207927
186	0x3a9e4268	0.0012074234
187	0xbc1b2b21	-0.009470732
188	0xbbc04a50	-0.0058682337
189	0x3bdef7bf	0.006804436
190	0x3c10733c	0.0088165365
191	0xbc2c1d59	-0.010505044
192	0x3cd1d545	0.02561439
193	0xbcc6d5b9	-0.024271833
194	0x3c991b1d	0.018689686
195	0x3a9770a2	0.0011553953
196	0xba484da1	-0.0007640962
197	0xbb999f03	-0.004688145
198	0xbc9a1908	-0.018810764
199	0xbd0751e7	-0.033037093
200	0xbd0f8903	-0.035042774
201	0xbc0eaa07	-0.00870753
202	0x3c876739	0.016528713
203	0x3c5918e8	0.013250567
204	0xbbdf8eda	-0.006822449
205	0x3c846566	0.016161632
206	0xbcc80a60	-0.02441901
207	0x3cddf928	0.027096346
208	0xbc4baae3	-0.012430879
209	0xbcbfb613	-0.02340225
210	0xbb126f53	-0.0022344186
211	0xbd0b65f3	-0.034032773
212	0x3d0b8de3	0.03407086
213	0xbd0f6c8b	-0.035015624
214	0x3c89179b	0.016734889
215	0xbc4e7c2d	-0.012602848
216	0x39f1d9e3	0.0004612944
217	0xbb36e503	-0.0027907498
218	0xbb3c41ef	-0.0028725823
219	0xbc4d32a5	-0.012524282
220	0xbc261be0	-0.010138482
221	0xbcc83268	-0.024438098
222	0x3c1329c7	0.008982128
223	0xbc79539f	-0.015217691
224	0xbb3c84a5	-0.0028765586
225	0x3bc818ce	0.0061064726
226	0xbc74d673	-0.014943707
227	0xbc31e2a7	-0.010857261
228	0x3b874f87	0.0041293534
229	0x3cb6586b	0.022258958
230	0x3c89649f	0.016771613
231	0x3bf4bcaf	0.007468782
232	0xbba6951f	-0.0050836946
233	0x3bebcdcb	0.0071961633
234	0xbbb8013f	-0.005615383
235	0x3ccb75c8	0.024836436
236	0x3cbe482d	0.023227775
237	0xbba26086	-0.004955354
238	0x3cc1e089	0.023666637
239	0xbc4ac679	-0.012376421
240	0xbb5fd9ed	-0.0034156993
241	0xbbf6def8	-0.007533904
242	0xbd19d5ae	-0.037557296
243	0xbd0a24d7	-0.03372654
244	0x3ce23367	0.027612401
245	0xbc92826d	-0.017884457
246	0x3c63de32	0.013907956
247	0x3bf5b545	0.0074984157
248	0xbc68f9e2	-0.014219733
249	0xbc3a961f	-0.011388331
250	0xbc2c2e2f	-0.010509058
251	0x3ad53762	0.0016267116
252	0xbb1c84b3	-0.0023882806
253	0xbb1ba879	-0.002375154
254	0x3c83f7eb	0.016109427
255	0xb96435a0	-0.00021763751

action_model._continuous_distribution.mu.bias f4 [2]
0	0x00000000	0.0
1	0x00000000	0.0

network_body._body_endoder.seq_layers.0.weight f4 [128, 11]
0	0x3e76103b	0.24029629
1	0xbdf7cd90	-0.12099755
2	0x3c5908e9	0.013246753
3	0x3eb63161	0.35584548
4	0x3e4a7786	0.19772157
5	0x3ca2a029	0.019851761
6	0xbedc97b4	-0.4308449
7	0xbd22d4b9	-0.03975365
8	0x3d4d557d	0.050130356
9	0xbd91c098	-0.071168125
10	0xbdd22b3a	-0.10262151
11	0x3d288454	0.041141823
12	0x3eaba29e	0.33522505
13	0x3e539dfc	0.20665735
14	0x3eed6a72	0.46370274
15	0xbddbaf08	-0.10726744
16	0xbea1cf7c	-0.3160361
17	0xbb9f9707	-0.004870299
18	0xbe14eb95	-0.14542992
19	0xbeed5bdf	-0.46359155
20	0x3e5d26d5	0.21596844
21	0xbebce537	-0.36893627
22	0x3ead66ca	0.33867484
23	0x3e7f47fe	0.24929807
24	0xbdab3b72	-0.08360948
25	0x3e6117bf	0.21981715
26	0xbdff2d72	-0.1245984
27	0x3e1534f0	0.14570975
28	0xbf151778	-0.58238935
29	0x3d1900ad	0.03735416
30	0xbeeb0b8f	-0.45907256
31	0x3ec5ef2a	0.3865903
32	0x3e9a1279	0.3009222
33	0xbf002e80	-0.50070953
34	0xbede68ea	-0.43439418
35	0xbb4d6921	-0.003134318
36	0x3eb0aa05	0.34504715
37	0x3d82ae36	0.06380884
38	0x3e9ba0aa	0.30396014
39	0xbe1e35d3	-0.1545022
40	0x3d97e6c9	0.07417066
41	0xbe84ad9e	-0.2591371
42	0x3eec0577	0.4609792
43	0xbe6cfc22	-0.23143056
44	0xbdedced8	-0.11611718
45	0xbeed5f1f	-0.46361634
46	0x3eb6951e	0.35660642
47	0x3bc883b1	0.0061192145
48	0xbe50426f	-0.20337842
49	0xbef600cc	-0.48047483
50	0xbeafcc89	-0.34335735
51	0xbd8f8ce6	-0.07009296
52	0xbdddd8d9	-0.10832376
53	0xbe12feab	-0.1435496
54	0xbe8d8896	-0.2764327
55	0xbe44770a	-0.19186035
56	0xbdf4cb66	-0.11952858
57	0xbe1b0513	-0.15138654
58	0x3d64fba1	0.055904035
59	0xbd8b5cf4	-0.06804839
60	0xbe6b3ba3	-0.22971968
61	0x3e9240d4	0.28565085
62	0xbe25e69a	-0.16201249
63	0xbf0823ec	-0.5317981
64	0xbf05da48	-0.52286196
65	0x3710464c	8.599436e-06
66	0x3db4cf58	0.0882861
67	0x3d0cf0f8	0.034409493
68	0xbd8a7ff4	-0.06762686
69	0xbee27cd8	-0.44235873
70	0xbd20d01a	-0.03926096
71	0x3e97a795	0.29620042
72	0x3e851a52	0.25996643
73	0x3e64b5c9	0.2233497
74	0x3f3cd474	0.7376168
75	0x3f0f5d68	0.560019
76	0xbdefd624	-0.11710766
77	0xbc6ca785	-0.014444237
78	0xbe22ff14	-0.15917617
79	0xbeb55de8	-0.35423207
80	0x3ebb48b8	0.36578918
81	0xbdf1c0f9	-0.11804385
82	0x3c07aac8	0.0082804635
83	0x3e1d9f63	0.15392832
84	0x3c8358c2	0.016033534
85	0xbec34b28	-0.38143277
86	0xbe99b688	-0.30022073
87	0xbea1075a	-0.3145092
88	0x3e4a03b9	0.19727983
89	0xbe5578dc	-0.20846885
90	0x3e722f4b	0.23650853
91	0xbd76578b	-0.06014208
92	0xbd15b1b9	-0.036546443
93	0xbf0968aa	-0.5367533
94	0x3edc7b5a	0.4306286
95	0x3eeb8bd7	0.46005127
96	0xbd72e7bb	-0.059303027
97	0xbd284275	-0.041079003
98	0xbe2ca360	-0.16859198
99	0x3e9b888c	0.30377614
100	0xbde6a8f5	-0.11262695
101	0x3f163020	0.5866718
102	0x3df5eb0e	0.12007724
103	0xbe789a50	-0.24277616
104	0xbe7203cf	-0.23634265
105	0xbddb9060	-0.10720897
106	0xbf143d2a	-0.5790583
107	0x3e0b6320	0.13612032
108	0xbe508c59	-0.20366038
109	0x3ef28a5d	0.47371188
110	0xbf38ccac	-0.72187304
111	0x3ecd3fe6	0.40087813
112	0x3e9b2987	0.3030512
113	0x3eb38b51	0.35067227
114	0x3e241fd0	0.1602776
115	0x3e8def25	0.27721515
116	0x3de23ab3	0.11046352
117	0x3be026a2	0.006840543
118	0x3db55dd6	0.088557884
119	0xbe44931e	-0.19196746
120	0xbde9bfb1	-0.11413515
121	0x3f16d76c	0.5892246
122	0xbee905f5	-0.45512357
123	0xbe3c23b8	-0.18373
124	0x3e836690	0.25664186
125	0xbe71a5dc	-0.23598427
126	0x3d0d956e	0.034566335
127	0x3ddaae00	0.10677719
128	0x3e716f75	0.23577674
129	0x3d5caf58	0.05387816
130	0x3e59e604	0.2127915
131	0xbc862196	-0.016373437
132	0x3dce3aea	0.10069831
133	0xbeca09b2	-0.39460522
134	0xbf3c2723	-0.7349722
135	0x3f0509e1	0.519682
136	0x3e07e6fb	0.13271706
137	0x3d8905a6	0.066905305
138	0x3e578a2a	0.21048799
139	0xbe3c8cf1	-0.1841314
140	0x3c25ac59	0.010111892
141	0x3e22e6cb	0.15908353
142	0xbec913f3	-0.39273033
143	0xbdaa7e1e	-0.08324836
144	0xbe003076	-0.12518486
145	0xbe1e68e6	-0.15469703
146	0xbdaaba34	-0.08336297
147	0x3e4efe96	0.20214304
148	0xbf777d6f	-0.9667577
149	0x3e4e15cd	0.20125504
150	0xbe9232cf	-0.2855439
151	0x3d96e2d8	0.07367486
152	0x3f357733	0.7088501
153	0x3dfa0257	0.122074775
154	0x3ea9701b	0.33093342
155	0x3e2d0366	0.16895828
156	0xbe992576	-0.29911393
157	0x3f0816bd	0.53159696
158	0x3f12bd60	0.57320213
159	0xbe4acddf	-0.19805096
160	0xbea74342	-0.326685
161	0xbe0afcfe	-0.13573071
162	0x3e09fb95	0.13474877
163	0xbf018eba	-0.5060841
164	0xbeeb6f63	-0.4598342
165	0x3d919ed7	0.071103744
166	0x3cd3da0d	0.02586081
167	0xbbfb6431	-0.007671856
168	0xbdaba9a1	-0.083819635
169	0xbefdedff	-0.4959564
170	0xbf17c489	-0.59284264
171	0x3cf0a70a	0.029376525
172	0xbdeef2b4	-0.11667386
173	0xbe347ec1	-0.17626478
174	0x3e4180b8	0.18896759
175	0x3f19f286	0.60135686
176	0xbe89e9a9	-0.2693608
177	0x3e98db71	0.2985492
178	0xbd26799b	-0.040643316
179	0xbc83215b	-0.016007116
180	0xbebcf646	-0.36906642
181	0xbeb17cbd	-0.3466548
182	0xbc853cec	-0.016264401
183	0xbe07b3ea	-0.13252226
184	0x3cca39ac	0.024685703
185	0xbf1d2d23	-0.61397
186	0xbe937cba	-0.28806096
187	0xbf01ad41	-0.5065499
188	0xbe2a2283	-0.16614728
189	0xbbbc83ba	-0.0057530077
190	0x3dbb686a	0.09150775
191	0xbe7fec36	-0.24992451
192	0x3dfd973d	0.12382362
193	0x3cb70b10	0.022344142
194	0x3e44f29b	0.19233172
195	0xbf1dc670	-0.61630917
196	0xbe69b5d9	-0.22823276
197	0x3e8c9f27	0.27465174
198	0xbe471214	-0.1944049
199	0xbe513aba	-0.20432559
200	0xbe4f5f80	-0.20251274
201	0x3eac67e4	0.33673012
202	0x3e854dd0	0.2603593
203	0xbe45bb32	-0.1930969
204	0xbde03e2b	-0.109493576
205	0xbe3f4947	-0.18680297
206	0x3f13051c	0.5742967
207	0xbe19f1d0	-0.1503365
208	0x3db7e27c	0.08978745
209	0xbe9ae0e9	-0.30249718
210	0x3e7ca0d9	0.24670734
211	0x3f1e1b32	0.61760247
212	0xbedd8f30	-0.43273306
213	0x3dbcb903	0.09214976
214	0xbc749a1a	-0.014929319
215	0xbe032df9	-0.12810506
216	0xbebb4330	-0.36574697
217	0x3e1eabf4	0.15495282
218	0x3d5f85b7	0.05457088
219	0xbc03ba1a	-0.008039976
220	0x3e3ca91f	0.1842389
221	0xbf094784	-0.5362475
222	0x3d03401c	0.03204356
223	0x3dc9a4f0	0.098459125
224	0xbee7f820	-0.45306492
225	0x3e6cd9b8	0.23129928
226	0x3d7bd61e	0.061483495
227	0xbb4e1a7e	-0.0031448896
228	0x3e2ec2e0	0.17066526
229	0x3db588a4	0.08863953
230	0x3e8760ff	0.2644119
231	0x3ee1ecdf	0.4412603
232	0xbd30b29b	-0.04313908
233	0x3df08368	0.11743814
234	0xbdc5f491	-0.09665788
235	0x3e8a7dbb	0.2704905
236	0xbebe66ab	-0.37187704
237	0x3db0671d	0.08613417
238	0xbebe5fdc	-0.3718251
239	0xbd0104ca	-0.031498708
240	0x3e83b192	0.25721413
241	0xbe9b08a2	-0.30280024
242	0xbd2855dc	-0.041097507
243	0xbe906ea0	-0.282094
244	0xbd47b653	-0.048757862
245	0xbe3af662	-0.1825805
246	0xbebe97c3	-0.3722516
247	0x3d32a144	0.043610826
248	0x3d795301	0.060870174
249	0x3ea24ccc	0.31699216
250	0x3e8f19e7	0.2794945
251	0x3e6e1be1	0.23252822
252	0x3d50045e	0.050785415
253	0x3ebb3858	0.36566424
254	0x3e080d49	0.13286318
255	0xbdaed955	-0.085375465

network_body._body_endoder.seq_layers.0.bias f4 [128]
0	0x00000000	0.0
1	0x00000000	0.0
2	0x00000000	0.0
3	0x00000000	0.0
4	0x00000000	0.0
5	0x00000000	0.0
6	0x00000000	0.0
7	0x00000000	0.0
8	0x00000000	0.0
9	0x00000000	0.0
10	0x00000000	0.0
11	0x00000000	0.0
12	0x00000000	0.0
13	0x00000000	0.0
14	0x00000000	0.0
15	0x00000000	0.0
16	0x00000000	0.0
17	0x00000000	0.0
18	0x00000000	0.0
19	0x00000000	0.0
20	0x00000000	0.0
21	0x00000000	0.0
22	0x00000000	0.0
23	0x00000000	0.0
24	0x00000000	0.0
25	0x00000000	0.0
26	0x00000000	0.0
27	0x00000000	0.0
28	0x00000000	0.0
29	0x00000000	0.0
30	0x00000000	0.0
31	0x00000000	0.0
32	0x00000000	0.0
33	0x00000000	0.0
34	0x00000000	0.0
35	0x00000000	0.0
36	0x00000000	0.0
37	0x00000000	0.0
38	0x00000000	0.0
39	0x00000000	0.0
40	0x00000000	0.0
41	0x00000000	0.0
42	0x00000000	0.0
43	0x00000000	0.0
44	0x00000000	0.0
45	0x00000000	0.0
46	0x00000000	0.0
47	0x00000000	0.0
48	0x00000000	0.0
49	0x00000000	0.0
50	0x00000000	0.0
51	0x00000000	0.0
52	0x00000000	0.0
53	0x00000000	0.0
54	0x00000000	0.0
55	0x00000000	0.0
56	0x00000000	0.0
57	0x00000000	0.0
58	0x00000000	0.0
59	0x00000000	0.0
60	0x00000000	0.0
61	0x00000000	0.0
62	0x00000000	0.0
63	0x00000000	0.0
64	0x00000000	0.0
65	0x00000000	0.0
66	0x00000000	0.0
67	0x00000000	0.0
68	0x00000000	0.0
69	0x00000000	0.0
70	0x00000000	0.0
71	0x00000000	0.0
72	0x00000000	0.0
73	0x00000000	0.0
74	0x00000000	0.0
75	0x00000000	0.0
76	0x00000000	0.0
77	0x00000000	0.0
78	0x00000000	0.0
79	0x00000000	0.0
80	0x00000000	0.0
81	0x00000000	0.0
82	0x00000000	0.0
83	0x00000000	0.0
84	0x00000000	0.0
85	0x00000000	0.0
86	0x00000000	0.0
87	0x00000000	0.0
88	0x00000000	0.0
89	0x00000000	0.0
90	0x00000000	0.0
91	0x00000000	0.0
92	0x00000000	0.0
93	0x00000000	0.0
94	0x00000000	0.0
95	0x00000000	0.0
96	0x00000000	0.0
97	0x00000000	0.0
98	0x00000000	0.0
99	0x00000000	0.0
100	0x00000000	0.0
101	0x00000000	0.0
102	0x00000000	0.0
103	0x00000000	0.0
104	0x00000000	0.0
105	0x00000000	0.0
106	0x00000000	0.0
107	0x00000000	0.0
108	0x00000000	0.0
109	0x00000000	0.0
110	0x00000000	0.0
111	0x00000000	0.0
112	0x00000000	0.0
113	0x00000000	0.0
114	0x00000000	0.0
115	0x00000000	0.0
116	0x00000000	0.0
117	0x00000000	0.0
118	0x00000000	0.0
119	0x00000000	0.0
120	0x00000000	0.0
121	0x00000000	0.0
122	0x00000000	0.0
123	0x00000000	0.0
124	0x00000000	0.0
125	0x00000000	0.0
126	0x00000000	0.0
127	0x00000000	0.0

network_body._body_endoder.seq_layers.2.weight f4 [128, 128]
0	0xbc4a22d0	-0.0123374015
1	0xbbf96ff8	-0.0076122247
2	0xbdd37387	-0.103247695
3	0xbd54da1d	-0.05196582
4	0xbd2e690f	-0.04258066
5	0x3deadba2	0.11467673
6	0x3d9ed7a0	0.07755971
7	0x3cff313b	0.031151405
8	0xbdde0d50	-0.10842383
9	0x3e2c6415	0.16835053
10	0x3c85fc12	0.016355548
11	0xbce99245	-0.02851213
12	0xbd9bd6e4	-0.076093465
13	0x3da65bd0	0.081229806
14	0x3deb55ab	0.11490949
15	0xbda8756a	-0.0822552
16	0xbc19d399	-0.009388828
17	0x3ca684a5	0.020326922
18	0x3c9df90d	0.019283796
19	0xbe14e10c	-0.14538974
20	0x3ce0939a	0.027414132
21	0x3e4ad8b9	0.19809236
22	0x3dcfd2cc	0.10147628
23	0x3d363637	0.044485297
24	0xbd8fc9db	-0.07020923
25	0xbd27db6a	-0.040980734
26	0x3c1fcc66	0.009753322
27	0xbd138ae3	-0.036021125
28	0xbb2b8818	-0.0026173647
29	0xbd071125	-0.032975335
30	0x3df508bf	0.11964559
31	0x3de84bef	0.11342608
32	0x3d4bf498	0.04979381
33	0x3d500237	0.050783362
34	0xbd96ab34	-0.07356873
35	0x3ce70de1	0.02820486
36	0x3c031ba7	0.008002198
37	0xbddaf1da	-0.10690661
38	0xbe049760	-0.1294837
39	0xbc179128	-0.009250917
40	0x3db48314	0.08814064
41	0xb9ceda6d	-0.00039454122
42	0x3caa55f0	0.020792931
43	0x3dc43415	0.09580246
44	0x3d29b187	0.04142907
45	0x3dbb8813	0.091568135
46	0xbcfb1c93	-0.030653274
47	0xbd84e45b	-0.06488868
48	0xbcea2c13	-0.02858547
49	0xbd769a78	-0.060205907
50	0xbdb0bec6	-0.08630137
51	0x3dfecebe	0.12441777
52	0x3d8e5a02	0.069507614
53	0x3dadcf56	0.08486812
54	0xbdd18e9c	-0.10232279
55	0x3cdffa81	0.02734113
56	0xbe145ddb	-0.14488928
57	0x3da4f5dc	0.080547065
58	0xbd673792	-0.05644948
59	0x3d55f6e8	0.05223742
60	0xbd553ac8	-0.05205801
61	0xbc7c2a4c	-0.015390944
62	0x3c268266	0.010162925
63	0xbcd54541	-0.026034
64	0xbce23274	-0.027611949
65	0xbddcac51	-0.10775054
66	0x3cb154d3	0.021646893
67	0x3de4b43a	0.11167188
68	0x3e58a7b8	0.2115773
69	0x3da18153	0.07885995
70	0x3e36e413	0.17860441
71	0x3da65d66	0.08123283
72	0xbe33da7b	-0.17563812
73	0x3db1a131	0.08673323
74	0x3e1f5706	0.1556054
75	0xbc1af669	-0.009458163
76	0x3e123fe5	0.14282186
77	0xbe05000f	-0.12988304
78	0x3e2c037d	0.16798206
79	0x3d6ffea7	0.058592465
80	0xbdb07e64	-0.08617857
81	0xbd70b73d	-0.0587685
82	0xbdbba9b9	-0.091632314
83	0x3dfef02c	0.12448153
84	0x3d176047	0.03695705
85	0xbd881db3	-0.0664629
86	0xbe1d1e4a	-0.15343586
87	0xbd78f4bd	-0.060780276
88	0xbe091d4a	-0.13390079
89	0x3d3bd6e5	0.045859236
90	0x3d1e154b	0.038594525
91	0xbd039748	-0.032126695
92	0x3d06aac7	0.03287771
93	0x3cfd8be2	0.03095049
94	0x3c8dc7d8	0.017307207
95	0xbd1a7415	-0.03770836
96	0x3c21c508	0.009873636
97	0x3e313652	0.17305878
98	0xbe078d08	-0.13237393
99	0x3d8e8294	0.069584996
100	0x3e0ee537	0.13954626
101	0x3afd2f6f	0.0019316504
102	0x3d00e5f2	0.031469293
103	0x3d35dd6f	0.04440063
104	0xbd768839	-0.060188506
105	0xbd9bb3a3	-0.07602622
106	0x3d524233	0.051332664
107	0x3dffc301	0.12488366
108	0x3d3622d3	0.044466805
109	0x3c9b5d27	0.018965317
110	0xbc89febf	-0.016845105
111	0xbd3b95f5	-0.045797307
112	0x3c0db0d8	0.00864812
113	0x3df5ee99	0.120083995
114	0x3e06ba8a	0.13157097
115	0x3db733c5	0.08945421
116	0xbc1ed34d	-0.009693933
117	0xbd81b754	-0.06333795
118	0x3d9d683b	0.07685896
119	0x3b827f86	0.003982487
120	0x3e12bcdb	0.14329855
121	0x3e671c3b	0.22569363
122	0x3d5a9b8d	0.053371
123	0xbd5f802d	-0.054565597
124	0xbcf68d03	-0.030096537
125	0x3d470875	0.04859205
126	0xbd00cc9d	-0.031445134
127	0xbc86df1b	-0.016463807
128	0xbd15fc08	-0.03661731
129	0xbc6f1c09	-0.014594086
130	0xbd780276	-0.060549222
131	0xbd483b97	-0.048884954
132	0x3c17050a	0.00921751
133	0x3db6ebe6	0.08931713
134	0xbcdfb857	-0.02730958
135	0xbd911149	-0.07083375
136	0xbd741239	-0.05958769
137	0xbd8a8676	-0.06763928
138	0xbd9ba0ee	-0.07599054
139	0xbd0ba314	-0.03409107
140	0xbab2b3d2	-0.0013633913
141	0xbe8b24ea	-0.271766
142	0x3d1dcb1c	0.03852378
143	0x3da7a842	0.081863895
144	0xbc461d59	-0.012091958
145	0xbdb45980	-0.08806133
146	0x3d7d52ae	0.061846428
147	0xbdc25ad1	-0.09489978
148	0xbd7962ce	-0.060885243
149	0x3e203c60	0.15648031
150	0xbdb76f4f	-0.08956777
151	0xbc3a4a19	-0.011370205
152	0xbd535c3e	-0.05160164
153	0xbe1c0007	-0.15234385
154	0xbdd5c180	-0.10437298
155	0x3d1188f0	0.035530984
156	0xbd8a8cda	-0.067651466
157	0xbe0a409a	-0.13501206
158	0x3d885803	0.06657412
159	0xbbec1ab5	-0.007205332
160	0xbc60bffb	-0.013717647
161	0x3d6672b8	0.056261748
162	0xbdb43691	-0.0879947
163	0xbd49e0e2	-0.04928673
164	0x3c7d34ce	0.015454484
165	0x3cbee6bb	0.02330338
166	0xbb9c13a6	-0.0047630845
167	0x3e180125	0.14844187
168	0x3d1d76e7	0.038443472
169	0x3d167bcf	0.036739167
170	0x3dbc8378	0.09204763
171	0x3d4d121a	0.05006609
172	0x3d193fa9	0.037414227
173	0xbc8b1349	-0.01697697
174	0xbd2764bd	-0.040867556
175	0xbd648026	-0.055786274
176	0x3d38496b	0.04499189
177	0xbd8dc17d	-0.069216706
178	0xbd30b5da	-0.043142177
179	0xbd244fb4	-0.040115073
180	0x3e5f91da	0.21832982
181	0x3ddc7a3d	0.107655026
182	0xbe2b2aba	-0.16715518
183	0x3c17fbff	0.009276389
184	0xbdd80401	-0.10547639
185	0xbc26abc7	-0.010172791
186	0xbe2278f3	-0.15866451
187	0xbdf0d36f	-0.11759078
188	0x3cfa6751	0.030566843
189	0xbc6b23ac	-0.014351767
190	0x3c47dc1d	0.012198475
191	0x3ca52da1	0.02016336
192	0xbdc00132	-0.09375228
193	0x3d3765e1	0.044774894
194	0xbe293655	-0.16524632
195	0xbd770497	-0.06030711
196	0xbde29d8b	-0.11065205
197	0xbd7fa14a	-0.062409677
198	0xbd9aa8dc	-0.075517386
199	0xbd2206de	-0.03955733
200	0x3c774bab	0.015093724
201	0xbe104b48	-0.14091218
202	0x3dbc6bc6	0.09200244
203	0xbc803aac	-0.015652977
204	0x3daec56a	0.085337475
205	0x3b8f8de6	0.0043809293
206	0xbdd0226b	-0.10162815
207	0xbd2e264b	-0.042516988
208	0xbe32cfb8	-0.17462051
209	0x3e57e315	0.21082719
210	0x3d856e76	0.065152094
211	0x3da18f18	0.07888621
212	0x3bda1947	0.0066558453
213	0xbd5e005f	-0.054199573
214	0xbcf7cf56	-0.030250233
215	0xbdf23518	-0.11826533
216	0xbde6beee	-0.11266886
217	0x3e000ac3	0.12504105
218	0xbe672086	-0.22571
219	0xbd90ded2	-0.070737496
220	0x3db4998e	0.08818351
221	0xbbea776f	-0.007155351
222	0xbe2e00d8	-0.1699251
223	0x3d984c3e	0.07436417
224	0x3c71c28f	0.014755859
225	0xbd2d0306	-0.04223921
226	0xbd84586d	-0.064621784
227	0x3d549313	0.051898073
228	0x3c9bcf9f	0.0190199
229	0xbd717889	-0.058952842
230	0xbdb41414	-0.08792892
231	0x3e0070c8	0.12543023
232	0x3df5e4ca	0.12006529
233	0xbe35a487	-0.17738543
234	0xbd1cff68	-0.038329512
235	0x3d0be366	0.03415241
236	0x3d6af8b6	0.057366095
237	0xbc969b0c	-0.018384479
238	0x3c661475	0.014042963
239	0x3e5f354e	0.21797678
240	0xbe052ee2	-0.13006166
241	0x3c8c0e7f	0.017096756
242	0x3d8fcd7e	0.070216164
243	0xbd2ec2af	-0.042666133
244	0x3e24f43c	0.16108793
245	0x3dcd3ffe	0.10021971
246	0x3e0ba9ce	0.13638994
247	0x3c0e1887	0.00867284
248	0xbe27fb94	-0.16404563
249	0xb9ad9d2d	-0.00033114236
250	0x3d483b29	0.048884545
251	0xbd81444d	-0.063118555
252	0xbe09eecf	-0.13470004
253	0x3c90c811	0.017673524
254	0x3d14fdd0	0.036374867
255	0xbcd5187e	-0.026012655

network_body._body_endoder.seq_layers.2.bias f4 [128]
0	0x00000000	0.0
1	0x00000000	0.0
2	0x00000000	0.0
3	0x00000000	0.0
4	0x00000000	0.0
5	0x00000000	0.0
6	0x00000000	0.0
7	0x00000000	0.0
8	0x00000000	0.0
9	0x00000000	0.0
10	0x00000000	0.0
11	0x00000000	0.0
12	0x00000000	0.0
13	0x00000000	0.0
14	0x00000000	0.0
15	0x00000000	0.0
16	0x00000000	0.0
17	0x00000000	0.0
18	0x00000000	0.0
19	0x00000000	0.0
20	0x00000000	0.0
21	0x00000000	0.0
22	0x00000000	0.0
23	0x00000000	0.0
24	0x00000000	0.0
25	0x00000000	0.0
26	0x00000000	0.0
27	0x00000000	0.0
28	0x00000000	0.0
29	0x00000000	0.0
30	0x00000000	0.0
31	0x00000000	0.0
32	0x00000000	0.0
33	0x00000000	0.0
34	0x00000000	0.0
35	0x00000000	0.0
36	0x00000000	0.0
37	0x00000000	0.0
38	0x00000000	0.0
39	0x00000000	0.0
40	0x00000000	0.0
41	0x00000000	0.0
42	0x00000000	0.0
43	0x00000000	0.0
44	0x00000000	0.0
45	0x00000000	0.0
46	0x00000000	0.0
47	0x00000000	0.0
48	0x00000000	0.0
49	0x00000000	0.0
50	0x00000000	0.0
51	0x00000000	0.0
52	0x00000000	0.0
53	0x00000000	0.0
54	0x00000000	0.0
55	0x00000000	0.0
56	0x00000000	0.0
57	0x00000000	0.0
58	0x00000000	0.0
59	0x00000000	0.0
60	0x00000000	0.0
61	0x00000000	0.0
62	0x00000000	0.0
63	0x00000000	0.0
64	0x00000000	0.0
65	0x00000000	0.0
66	0x00000000	0.0
67	0x00000000	0.0
68	0x00000000	0.0
69	0x00000000	0.0
70	0x00000000	0.0
71	0x00000000	0.0
72	0x00000000	0.0
73	0x00000000	0.0
74	0x00000000	0.0
75	0x00000000	0.0
76	0x00000000	0.0
77	0x00000000	0.0
78	0x00000000	0.0
79	0x00000000	0.0
80	0x00000000	0.0
81	0x00000000	0.0
82	0x00000000	0.0
83	0x00000000	0.0
84	0x00000000	0.0
85	0x00000000	0.0
86	0x00000000	0.0
87	0x00000000	0.0
88	0x00000000	0.0
89	0x00000000	0.0
90	0x00000000	0.0
91	0x00000000	0.0
92	0x00000000	0.0
93	0x00000000	0.0
94	0x00000000	0.0
95	0x00000000	0.0
96	0x00000000	0.0
97	0x00000000	0.0
98	0x00000000	0.0
99	0x00000000	0.0
100	0x00000000	0.0
101	0x00000000	0.0
102	0x00000000	0.0
103	0x00000000	0.0
104	0x00000000	0.0
105	0x00000000	0.0
106	0x00000000	0.0
107	0x00000000	0.0
108	0x00000000	0.0
109	0x00000000	0.0
110	0x00000000	0.0
111	0x00000000	0.0
112	0x00000000	0.0
113	0x00000000	0.0
114	0x00000000	0.0
115	0x00000000	0.0
116	0x00000000	0.0
117	0x00000000	0.0
118	0x00000000	0.0
119	0x00000000	0.0
120	0x00000000	0.0
121	0x00000000	0.0
122	0x00000000	0.0
123	0x00000000	0.0
124	0x00000000	0.0
125	0x00000000	0.0
126	0x00000000	0.0
127	0x00000000	0.0

value_heads.value_heads.extrinsic.weight f4 [1, 128]
0	0x3c70e6a4	0.0147034265
1	0xbe59011f	-0.21191834
2	0x3c0fff9b	0.008788968
3	0xbe54b4c7	-0.20772086
4	0x3dd66ad5	0.10469595
5	0x3e3bed5b	0.18352263
6	0x3dfcf8b6	0.12352125
7	0x3dbc4bad	0.091941215
8	0xbe26fea5	-0.16308077
9	0xbcc9e8ce	-0.024647143
10	0xbe159414	-0.14607269
11	0x3d9dc437	0.07703441
12	0x3e11bfdc	0.14233345
13	0xbe348be5	-0.1763149
14	0x3e202257	0.156381
15	0xbe0ac4c6	-0.13551626
16	0xbd273191	-0.040818755
17	0xbe127d00	-0.14305496
18	0xbe3fc48f	-0.18727325
19	0x3de6ab24	0.11263111
20	0xbe20e1da	-0.15711156
21	0xbdbc10b3	-0.091828726
22	0x3e36c6b1	0.17849232
23	0xbe26952d	-0.16267844
24	0xbe03e2a7	-0.1287943
25	0x3dcefefb	0.101072274
26	0x3e3eff58	0.18652093
27	0xbe02b165	-0.12762983
28	0xbd398e9d	-0.045302022
29	0xbe23673c	-0.1595735
30	0x3e316447	0.17323409
31	0xbe55a800	-0.20864868
32	0xbdad84de	-0.08472608
33	0x3cf6dccd	0.030134583
34	0x3e464a19	0.19364204
35	0x3e20997f	0.15683554
36	0xbd4e6d2d	-0.050397087
37	0x3dfeebdf	0.124473326
38	0xbc6946a7	-0.014238036
39	0x3d9ead56	0.07747905
40	0x3e573216	0.210152
41	0xbe277a3d	-0.16355224
42	0x3e2a9cf3	0.16661434
43	0x3d40c025	0.047058243
44	0x3e1dd42a	0.15412965
45	0xbbef483e	-0.007302313
46	0x3e4c3065	0.19940336
47	0xbe127b9a	-0.14304963
48	0x3e4d5428	0.20051634
49	0xbdc9e01b	-0.09857198
50	0x3e3e3fed	0.18579073
51	0xbe59b899	-0.21261825
52	0x3e41d0c7	0.18927298
53	0x3d5d52ed	0.054034162
54	0x3e33182f	0.17489694
55	0x3e293824	0.16525322
56	0x3e1c64fa	0.15272895
57	0xbe0963a0	-0.1341691
58	0xbdd6a1c1	-0.10480071
59	0x3dc83e31	0.09777487
60	0xbe2d245e	-0.16908404
61	0x3e1a4b03	0.15067677
62	0xbd89a2a1	-0.06720472
63	0xbd80ee10	-0.06295407
64	0xbe118437	-0.14210592
65	0xbe11cb66	-0.14237747
66	0xbda2fcc9	-0.07958371
67	0x3e2a3908	0.16623318
68	0x3e4d88dc	0.20071739
69	0x3e1f02d0	0.15528417
70	0xbe12133f	-0.14265154
71	0x3dfc84ce	0.12330018
72	0xbe44facb	-0.19236295
73	0xbe317635	-0.17330249
74	0x3cdfa63e	0.02730095
75	0x3e48c568	0.19606555
76	0x3d4ed42f	0.050495323
77	0x3ddaf53a	0.106913045
78	0xbdc622eb	-0.09674629
79	0x3dbe5406	0.0929337
80	0xbe3239ff	-0.17404936
81	0x3dd49f73	0.10381975
82	0xbe0ba653	-0.13637666
83	0x3db0b48d	0.08628187
84	0xbd562c05	-0.052288074
85	0x3e1adb5c	0.15122741
86	0xbde3cde3	-0.11123254
87	0xbdee7277	-0.11642926
88	0xbd82800d	-0.0637208
89	0xbe411963	-0.1885734
90	0xbd984ad0	-0.07436144
91	0xbe05c963	-0.13065104
92	0x3e19e0ff	0.15027235
93	0x3d1ef8ca	0.038811482
94	0xba3ed803	-0.0007280113
95	0xbdc62fbd	-0.09677074
96	0xbe080262	-0.13282159
97	0x3e37f7b7	0.1796559
98	0xbe345d82	-0.17613795
99	0xbe3a9000	-0.18218994
100	0x3d60ea17	0.054910745
101	0xbdea1e8e	-0.11431609
102	0xbdf864e4	-0.12128618
103	0xbcf65c74	-0.030073382
104	0x3b8778f6	0.0041342927
105	0x3a740318	0.00093083223
106	0x3df31eec	0.11871132
107	0xbd991bfe	-0.07476042
108	0xbdcccc37	-0.099998884
109	0x3e26bbca	0.16282573
110	0x3e24d253	0.16095857
111	0x3d97bc93	0.074090146
112	0xbd16c2ac	-0.036806747
113	0x3e4fb7d0	0.20284963
114	0xbdb918b7	-0.09037917
115	0x3c93d550	0.018046051
116	0xbe190204	-0.14942175
117	0x3df98945	0.12184385
118	0xbdb01205	-0.08597187
119	0x3cdfeced	0.027334655
120	0xbc40acde	-0.011759965
121	0x3cbe3192	0.023216996
122	0xbe3654e0	-0.17805815
123	0x3e248ce3	0.16069369
124	0xbddaded9	-0.10687036
125	0x3e33871c	0.17532009
126	0x3e340f1a	0.17583886
127	0x3e2f6fe1	0.17132522
