results/test/MoveAgentToApple/MoveAgentToApple-200021.onnx (onnx, 74550 bytes, 7 tensors)

network_body._body_endoder.seq_layers.0.weight f4 [128, 5]
000000 72 46 6d be 2a 28 eb 3e c8 15 11 bf 62 ce d2 be
       -0.23171404 0.4592908 -0.5667386 -0.41173083
000010 67 12 81 3e 60 aa 26 be 76 94 bb 3d 31 00 db 3e
       0.25209352 -0.1627593 0.09159176 0.42773584
000020 56 99 29 3f bd 0a 07 3f 63 64 5d 3f fe 2d d8 3e
       0.662496 0.5275076 0.864813 0.4222259
000030 0d b3 3e be 92 df 18 3d 60 f7 b2 be 40 e2 04 bf
       -0.1862299 0.03732259 -0.34954357 -0.5190773
000040 aa ce de be 55 ef 86 3f 64 be 04 bf 34 f6 79 be
       -0.43517047 1.0541788 -0.51853013 -0.24410325
000050 83 80 a0 bf 5a 7b be bd ba bf 02 3e 04 75 00 3e
       -1.2539219 -0.09300871 0.1276845 0.12544638
000060 3f 77 98 be 60 53 b2 bc 98 04 b9 be 95 5d c2 3e
       -0.29778478 -0.021768272 -0.36136317 0.37962022
000070 d3 8b 8b 3e 4a 8b 9b 3d 65 64 33 3f a8 05 ea bc
       0.27255115 0.07594927 0.70075065 -0.02856715
000080 64 dc d5 3e c3 76 18 be 18 c7 5e 3e 2f 9e bf 3d
       0.41769707 -0.14889054 0.21755636 0.09356343
000090 10 99 ce be 97 62 0c 3f 77 2b b9 3e 4b f1 b0 3b
       -0.40351152 0.54837936 0.36165974 0.005399858
0000a0 09 88 5d bb 55 bc d8 3c b7 03 25 3f 6e 72 89 3d
       -0.0033803007 0.026456991 0.64458793 0.06711279
0000b0 f0 50 8f 3e 64 ce 60 be bc 85 b7 bb 08 4e 3a bf
       0.27991438 -0.21953732 -0.005600659 -0.72775316
0000c0 82 2c 10 3e d5 53 8a be f6 47 fc be 54 c5 97 3f
       0.14079478 -0.27017084 -0.49273652 1.1857095
0000d0 ca ee 1a bf 6e c0 76 bd 43 96 0f be 51 61 e9 bd
       -0.60520613 -0.06024211 -0.14022164 -0.11395515
0000e0 27 0a fc 3e c9 35 b1 be 5b cd 07 bf 9f 2a 57 be
       0.49226496 -0.34611347 -0.5304772 -0.21012352
0000f0 76 af 1c be 45 3e df be 6e 79 43 bf d8 a7 71 bf
       -0.15301308 -0.43602195 -0.7635716 -0.94396734
000100 72 7e c8 3d 76 39 92 3e f9 b4 92 3c 20 59 33 be
       0.097897425 0.28559464 0.01790856 -0.17514467
000110 f9 c5 4f 3f 4c 90 01 3b b0 b7 ef be e5 16 4e be
       0.8116146 0.0019769846 -0.4681983 -0.20125921
000120 85 6a 2c bf 0b 2f cb 3e ec d7 26 3e dc 73 d9 3e
       -0.67350036 0.39684328 0.16293305 0.42471206
000130 df 5d a6 3e 9a 96 41 be 96 43 e3 be d7 55 95 be
       0.32493493 -0.18905106 -0.443875 -0.29167053
000140 b6 83 9c 3d 4a e1 a2 3d ea 54 65 3e 02 60 2d 3f
       0.07642309 0.07953127 0.22395673 0.6772462
000150 5c 4f 3a be 8f 0c 82 3e 52 65 cb be 24 2c 12 3f
       -0.18194336 0.25400206 -0.3972574 0.57098603
000160 6f 73 fc 3e 60 67 e6 be a8 cc 98 be 72 6b bc be
       0.4930682 -0.45000744 -0.2984364 -0.36800724
000170 39 3f 33 be a3 1c d2 be 80 36 6b bf ec fa 9d 3e
       -0.17504586 -0.41037473 -0.91880035 0.308555
000180 d2 88 c3 bd ce ce 75 3e 5f 61 43 3d 78 41 0b bf
       -0.09547581 0.24004671 0.047700282 -0.5439677
000190 6d 6b ee be a8 37 3c be 02 ea 4b 3f db 62 2d be
       -0.46566334 -0.18380606 0.7965394 -0.16932242
0001a0 77 a0 2a be 2b 7b f4 be 4c f6 3f 3e d5 32 46 3f
       -0.16662775 -0.4775022 0.18746299 0.77421314
0001b0 9e 2c 28 bf 7e 32 13 bf e3 f0 ce 3d d1 01 32 be
       -0.6569308 -0.5749892 0.10104539 -0.17383505
0001c0 4a 3f d5 3e a3 67 28 3e aa 97 bd 3e fa 15 0d bf
       0.41649848 0.16445784 0.37029773 -0.5511166
0001d0 4c 13 dc 3e fc 7d 36 bd 31 61 e8 3d 47 f4 c3 be
       0.42983472 -0.04455374 0.11346663 -0.38272306
0001e0 cf 7c b9 be 26 0b 67 3e 0c 6d 33 bf 2e b4 06 3f
       -0.36228034 0.22562847 -0.7008827 0.5261868
0001f0 77 b0 e0 be e6 6e b0 3e 04 fa 8f 3e 23 83 ce 3d
       -0.43884632 0.3445961 0.28120434 0.10083606
000200 4c de 44 3f ea bd e6 3c 13 d4 db 3e c9 f3 e1 be
       0.769017 0.02816673 0.42935237 -0.44131306
000210 85 8d 8f 3e 4b 40 81 bf 14 8e 2e 3f ee 4c 2e bd
       0.28037658 -1.0097746 0.68185544 -0.042553835
000220 d0 6c 77 3b 21 50 f0 3d be 10 18 be ac 97 de be
       0.0037754066 0.117340334 -0.14850137 -0.4347509
000230 3b 04 60 be e0 ec 0c 3f 2f 96 88 3c 53 45 99 3e
       -0.21876614 0.5504894 0.016673176 0.29935703
000240 48 88 8d be cf 6f 22 be d1 7b 95 be 1c d5 af 3d
       -0.27643037 -0.15862964 -0.29196027 0.08585569
000250 11 a6 9d 3e 1c e7 6a 3f aa 6d ac be 32 41 98 bd
       0.3079076 0.91758895 -0.33677417 -0.0743431
000260 ee dd 9d 3e da fa fd 3c fc 52 11 bf d1 53 a8 bf
       0.3083338 0.031003404 -0.5676725 -1.3150579
000270 e5 55 56 bf e4 76 3d 3f 22 91 30 bf 01 df 80 be
       -0.83724815 0.7400954 -0.68971455 -0.25170138
000280 64 4e 6a 3e 2c 08 6b 3e 5f cd 0d be b5 e9 97 3e
       0.22881466 0.22952336 -0.13847874 0.29670492
000290 49 4a 59 3d dd e1 ff be e8 ec 15 3e 71 48 9c ba
       0.05304936 -0.49977008 0.14641154 -0.0011923445
0002a0 55 9a 76 3e 25 3e 07 3f b7 35 12 3e 7c 8e fb bd
       0.2408231 0.528292 0.14278303 -0.12283036
0002b0 3c 13 d4 be a5 ef f2 be c6 e5 d7 bd e0 7c 01 3f
       -0.41420925 -0.4744846 -0.10541873 0.5058117
0002c0 3f 7c 3f 3e b4 8d d9 be 60 b9 93 be 59 8a df 3e
       0.1869974 -0.42490923 -0.28852367 0.43660238
0002d0 fd 25 a9 3d 7f 22 40 3e b9 c2 46 bf 58 8e b2 be
       0.08259199 0.18763159 -0.77640873 -0.34874225
0002e0 53 4f 79 3f 6c 52 06 3f 96 64 32 3f 2c 06 d5 bd
       0.97386664 0.52469516 0.6968473 -0.10401568
0002f0 09 74 0f bf 10 cb 10 be dc 4e 2b 3e 1b 49 41 bf
       -0.5603643 -0.14139962 0.16729301 -0.75502175
000300 f7 b5 57 3f 17 18 02 bf cf a1 99 bd f9 c1 07 3f
       0.8426203 -0.5081801 -0.07501566 0.53030354
000310 ce 14 9f 3e ea 59 a0 3e a0 fa fd 3e bd f9 83 3d
       0.3107056 0.313186 0.49605274 0.06444118
000320 62 2e 02 3f 26 2a de 3e e3 39 23 bd 46 19 53 3e
       0.50852025 0.43391532 -0.039850127 0.2061511
000330 d8 df 00 bf 97 4b 05 bf 58 58 28 3e 41 05 a2 be
       -0.5034156 -0.52068466 0.1643995 -0.31644633
000340 71 a4 98 3d 21 c1 8f be 07 97 25 3e 2b 62 05 3f
       0.0745324 -0.28077033 0.16170894 0.5210292
000350 37 53 ed 3e 08 bf 91 bf e5 94 c8 3e f9 a0 a8 3e
       0.4635255 -1.1386423 0.39176098 0.32935312
000360 61 1b 0c 3f a7 a0 36 3d fd de 45 be 84 ae 5c 3e
       0.54729277 0.044586804 -0.19323345 0.21550947
000370 1c b5 4a be ec 36 82 be c2 fe 86 be 17 e0 eb be
       -0.1979565 -0.25432527 -0.2636624 -0.46069404
000380 54 01 a8 3e c0 53 4b be 64 53 fc be b9 3c 2b be
       0.32813513 -0.19856167 -0.49282372 -0.16722383
000390 42 b5 3a 3e 9d 3c 59 be 9f 6e 08 bf f2 a0 de be
       0.18233207 -0.21214528 -0.53293794 -0.43482167
0003a0 2b 32 92 bf b4 de dd be 4d 0e a7 3e 51 0b 9e 3e
       -1.142156 -0.43333972 0.32628098 0.3086801
0003b0 07 ae 6d 3e a0 b1 41 bf ae 42 11 3f 84 bc 86 be
       0.23210917 -0.7566166 0.5674237 -0.263157
0003c0 c4 b4 b6 3d 0a 48 61 bf b6 6a 0d 3f cd ce 09 bd
       0.08921197 -0.8800055 0.5524095 -0.033644486
0003d0 2b 2b 40 3f aa 96 fc bd e5 9d a9 bd 32 99 97 bd
       0.7506587 -0.123334244 -0.08282069 -0.074022666
0003e0 16 3d 26 3e 91 50 5a be aa 43 86 3e ad 12 86 be
       0.1623424 -0.21319796 0.262235 -0.26186123
0003f0 1d 98 44 3f 4d 10 d1 3e c5 48 f1 3e c8 f2 32 3e
       0.76794606 0.4083275 0.4712583 0.17475426

network_body._body_endoder.seq_layers.0.bias f4 [128]
000000 2e 66 d1 3c ab a9 c4 3c c2 92 d4 3b 45 5b 8e ba
       0.025561418 0.024006685 0.0064872215 -0.0010860941
000010 7c 9e 65 3d df 03 1f 3c 72 21 b3 ba d1 45 e1 3c
       0.056059346 0.009705513 -0.0013666584 0.027499111
000020 c9 c8 85 3c 54 5c 84 bc b2 2c 77 bb 97 0b 88 bd
       0.016331093 -0.016157307 -0.003771585 -0.066428356
000030 0f aa b1 3d 3e 8e c3 3c b6 ea c8 3c 36 c4 87 bd
       0.08675014 0.023871537 0.024525981 -0.06629221
000040 5f 2e f6 3c ef 7b b5 3c 28 23 bb 3c 5c a8 be bc
       0.030051408 0.022153823 0.022843912 -0.02327364
000050 36 98 9e 3b 9a 6c fb 3c c1 68 ee 3c 1e 28 0e bd
       0.0048399223 0.030691434 0.029102685 -0.034706227
000060 b0 84 95 bc e2 19 14 3d ce 1d c0 bc 46 d5 14 bd
       -0.018251747 0.036157496 -0.023451712 -0.036336206
000070 23 f5 d4 bc 3b 92 83 bc 69 50 b6 bc 89 f9 71 3d
       -0.025995797 -0.016060939 -0.02225514 0.059075866
000080 4d 07 4c b9 6e 30 65 bd 26 d2 3d 3d d0 fd 08 bb
       -0.00019457676 -0.05595439 0.04634299 -0.0020903237
000090 a7 b9 52 3a 50 08 8b 3c 58 81 15 3d 61 3c fa 3c
       0.00080385286 0.016971737 0.036500305 0.030546369
0000a0 2d cb 35 bd 5f fd a8 bc a9 c5 14 3c d2 69 a8 3b
       -0.044383217 -0.02062863 0.009080329 0.005139568
0000b0 d3 98 e8 bc 3e 16 00 bd ef 80 80 3c bc 1f 7f 3c
       -0.028393185 -0.03127121 0.01568648 0.015571531
0000c0 33 7a b0 bb b0 05 b0 bc 77 6a 03 3c 80 c5 e2 bc
       -0.005385661 -0.021487087 0.008020989 -0.027682066
0000d0 05 8b 12 3d 44 1b 72 3d 70 b9 5f 3d 48 52 0b 3c
       0.03577711 0.059108034 0.054620206 0.008503504
0000e0 f4 4b 1d bd d6 84 9e 3c 34 86 ef 3b 96 c4 ac ba
       -0.038402513 0.01935045 0.0073096994 -0.0013181146
0000f0 9d 38 03 bd f2 c0 ea 3c 90 1c 77 3b fd 40 66 bc
       -0.032036413 0.028656457 0.0037706234 -0.01405358
000100 2d 6d 82 3c 05 50 1a ba 6c 29 a4 3d 95 be 3d 3b
       0.0159212 -0.00058865576 0.08015713 0.0028952707
000110 55 ba ae 3b 9d f7 e1 bc 85 bc 95 3c 5e 1e a6 ba
       0.005332271 -0.027583892 0.01827837 -0.0012673845
000120 d0 08 39 bd 0a ba 03 3d 8f 0a 45 bb 0d 71 15 3d
       -0.04517442 0.032159843 -0.0030066108 0.036484767
000130 a5 5f 8c 3d 85 4a b6 bc 0d 9e 22 3c 62 e3 54 3c
       0.0685418 -0.02225233 0.009925378 0.012993665
000140 3b 99 11 3d b9 d9 62 bd 4d ab 9f 3c 27 bd 2e bb
       0.035546523 -0.055383418 0.019490862 -0.0026663037
000150 b8 ef 70 bb c2 bd 21 3d 3d 05 c3 3d dc b3 00 bd
       -0.0036763977 0.039487608 0.095224835 -0.031421527
000160 97 29 fb 3b 59 8e 14 bc 1d ac 2e 3c 37 19 30 3d
       0.00766487 -0.009067141 0.010661152 0.042992797
000170 87 8a fb bb ed 1b 81 bb 3f f7 2c 3d 60 5c 33 3d
       -0.007676426 -0.0039400966 0.04222798 0.043789268
000180 df 75 cf 3c 33 34 51 3c c9 55 8f 3d 14 5d 1f bd
       0.02532476 0.012768793 0.06998784 -0.038907126
000190 00 55 99 3d 91 9f 28 bd d8 2a e1 3d b6 1d 8d 3c
       0.074869156 -0.0411678 0.109945 0.017226081
0001a0 a8 16 9b 3c ed 8e c8 bb 06 03 49 bc c5 0c 10 3d
       0.018931702 -0.0061205537 -0.012268787 0.035168428
0001b0 bc 88 b8 bc c5 1f ae 3c 66 df bd bc a2 11 a8 3b
       -0.022526138 0.021255383 -0.023177814 0.005129055
0001c0 dc 40 9d 3d 64 80 58 3d 55 ce 04 3c 48 a0 85 3d
       0.076783866 0.052856818 0.008105834 0.06524712
0001d0 47 25 f1 bc ca a4 6b 3d 51 d1 30 bd e0 11 c2 3b
       -0.02943672 0.057530202 -0.04316837 0.005922541
0001e0 6c 70 c9 bb 6e 9e 55 3b 01 ed 83 bb bc a7 17 3d
       -0.006147435 0.0032595652 -0.004026056 0.0370252
0001f0 9f 97 5d bc 64 cb a3 bc f3 4a 97 3c 68 22 3f 3c
       -0.013524919 -0.019994445 0.018468356 0.011665918

network_body._body_endoder.seq_layers.2.weight f4 [128, 128]
000000 73 aa 8d 3c e8 5c 36 3d 1a 6a a3 3d 4d 26 07 be
       0.01729319 0.044522196 0.07979222 -0.13198204
000010 22 62 1e 3e 18 ad ac bd 1d 45 ff bd 09 49 94 be
       0.15467122 -0.084314525 -0.12464354 -0.2896197
000020 90 cb 20 3c a1 4f d7 3d 7f 98 91 bd 6c 85 cb bd
       0.009814158 0.10513235 -0.071091644 -0.099375576
000030 bd 4c 3a bc a5 9d 86 bd 34 36 48 3e bb fa 3a 3e
       -0.011370835 -0.06573037 0.19551927 0.18259709
000040 56 c4 96 bd 72 08 1c be 70 29 25 3d e0 a3 b8 bd
       -0.07361667 -0.15237597 0.04032272 -0.09015632
000050 a9 1d 68 bd 1f 11 c9 bd 1f 74 21 3e f4 f4 19 be
       -0.05666891 -0.09817719 0.15766953 -0.15034848
000060 2e fb 12 3e cf 4e 3a bc 6a 62 36 be e2 ea 88 3d
       0.1435363 -0.0113713285 -0.1781098 0.06685425
000070 6b ce 04 3e 14 86 44 bd 77 ae 94 bd 7b d9 a0 3d
       0.12969367 -0.04797943 -0.07259839 0.07853981
000080 e2 86 02 be 0e c6 d0 3b c8 fe 5d be e7 ea 13 3d
       -0.12746766 0.006371266 -0.21679223 0.036112692
000090 ed 40 b4 bb 9c 31 ea bd 39 43 3d be fe fa fa bd
       -0.005500904 -0.114352435 -0.18482675 -0.12254904
0000a0 cd 3e db 3c 47 77 86 bd 54 57 2e be 3e 0a a6 3c
       0.026763344 -0.06565719 -0.170255 0.020268556
0000b0 86 75 de bc 6c 7b 3c 3d 6b 63 d6 3d 23 38 0e bd
       -0.027155649 0.04601614 0.10468181 -0.034721505
0000c0 9e 5a ae 3d 50 fb 66 3c 75 37 ee ba 15 1e 1e 3d
       0.085133776 0.0140980035 -0.0018174486 0.038602907
0000d0 c4 13 40 3d 38 19 6d bc 35 a2 47 3d 72 07 61 3d
       0.04689385 -0.014471345 0.048738677 0.05493874
0000e0 24 0d 18 3e d4 2a a2 3d ff f3 92 bd b9 b3 89 3d
       0.14848763 0.07918325 -0.07175445 0.067237325
0000f0 96 0f 3d 3c e0 b1 0c be d6 e5 98 bd 7a 8e 05 3d
       0.0115393605 -0.13739729 -0.07465713 0.03260658
000100 53 76 10 bd 1d 49 42 bd 97 5d ff 3d 49 48 9c 3c
       -0.035269093 -0.047433008 0.12469023 0.019077437
000110 08 92 11 3e fd 2c 02 bd 9e 74 95 be 1e 39 1f bd
       0.14215863 -0.031781185 -0.29190534 -0.03887283
000120 58 65 8e 3e 79 73 cc bd 26 b3 10 be a8 1b 28 be
       0.27811694 -0.09982962 -0.1413084 -0.164168
000130 4c 16 48 3e f6 1a e6 3d ad 88 14 be 3f ff fc bd
       0.19539756 0.11235611 -0.14505263 -0.12353372
000140 9b 86 84 3d 5e cb db bd 63 47 d8 bd 7a 05 8a 3c
       0.064709865 -0.107321486 -0.10560491 0.016848315
000150 53 bf ac 3d 44 cf cb 3d f2 3e 98 bd 48 f6 39 3e
       0.0843493 0.09951642 -0.07433881 0.18160355
000160 d7 2c 49 3c 6a 42 bd bd 31 8a b1 3d 30 e3 8f 3d
       0.012278757 -0.09241183 0.08668936 0.070257545
000170 09 d0 04 3e 58 a0 29 3e c5 7b 98 bd f5 6c f7 bb
       0.12969984 0.16565073 -0.07445482 -0.0075508305
000180 a8 97 f3 bd 62 3e 0f bd 0d 81 ba bd 6c 6e b9 bc
       -0.118941605 -0.034971602 -0.09106646 -0.022635661
000190 fc 21 09 bc 55 42 09 3e b8 ae 3b be 7f ed 60 bd
       -0.008369919 0.1340421 -0.18328369 -0.054913994
0001a0 7a 1e 3f bb 5b 02 2d 3d f2 a2 ae 3d 75 be d4 bd
       -0.0029162453 0.042238574 0.08527173 -0.10387889
0001b0 ee 24 d3 bd 07 b0 4a 3d cc db 22 3d cf 92 b2 bd
       -0.10309778 0.04948428 0.039760396 -0.08719408
0001c0 ad 60 54 be e3 31 2e 3e eb d5 b5 3c bc 46 36 be
       -0.20740004 0.17011218 0.02219673 -0.1780042
0001d0 93 38 48 3c 34 74 c5 bc cd 19 96 3d 76 bf a3 3d
       0.01222052 -0.024103262 0.0732914 0.07995503
0001e0 58 ed 9f bd 39 8f 65 3e f4 9e 06 3e 4e 92 af bd
       -0.078089416 0.22417916 0.13146573 -0.08572827
0001f0 be a1 ce bc c5 0c 0f 3d 4c 7d b4 bd 5b 57 b7 3d
       -0.025223609 0.034924287 -0.08812961 0.089522086
000200 eb 64 8e bd 57 40 45 3d e9 be ad 3d b1 c4 86 bd
       -0.06952842 0.048157062 0.08483679 -0.06580485
000210 5f 99 00 3e f2 0d 92 bd 9f 71 24 3e 66 86 b4 bd
       0.12558506 -0.07131566 0.16058968 -0.08814697
000220 83 fa 15 3d c8 a2 c1 bd a5 50 1b 3e b7 9a c6 bd
       0.03661586 -0.09454876 0.15167482 -0.09697478
000230 a5 9a d9 3d 98 62 4e be f9 6e b4 bd 00 db 7d 3c
       0.10625199 -0.20154798 -0.08810229 0.015494108
000240 2b 6e 86 3d 5e 3f 71 bc a1 41 05 3c 9f 7a ee bc
       0.065639816 -0.014724581 0.008133323 -0.029111205
000250 8e 81 6e ba 1e b1 b2 3d 11 e1 76 bc ea 10 87 3b
       -0.00090982846 0.08725189 -0.015068308 0.0041218894
000260 fb 2c 3f 3e e8 f1 19 be ce 9e 13 3d b4 f1 8c 3c
       0.18669502 -0.15033686 0.03604012 0.017205097
000270 fb 47 3a 3b 05 22 e9 bc a9 12 96 bd 54 30 83 3d
       0.0028424251 -0.028458605 -0.07327778 0.06405702
000280 da cc 81 bd 66 73 f3 bd 59 2c 8f 3c 12 79 54 bb
       -0.063379005 -0.11887245 0.017477201 -0.0032420796
000290 f2 a5 f1 3d 55 c6 bd 3d 87 70 0b 3e a2 19 f4 3d
       0.1179923 0.092663445 0.13617145 0.119189516
0002a0 68 97 c9 bd 60 3a d6 3a 96 a1 46 3e 09 54 21 3d
       -0.098433316 0.0016344301 0.19397578 0.039386783
0002b0 91 04 17 bd 98 5f 2e bc 3d 4b b6 3d 36 46 e0 bd
       -0.03686959 -0.0106429085 0.08901069 -0.10950892
0002c0 37 b1 45 bd 10 d0 09 be 4a ac af bd 84 be 7f be
       -0.04826471 -0.13458276 -0.085777834 -0.2497502
0002d0 49 e6 65 be 6b e1 0c 3c 3f 6a 39 3b b2 51 e9 bc
       -0.22451128 0.008598666 0.0028292087 -0.028481338
0002e0 c5 d0 86 bd eb 25 0a be f5 22 af 3d 5d 4b 38 3d
       -0.065827884 -0.13491027 0.085515894 0.044993747
0002f0 bf c7 0e be 67 0f 03 3e 47 89 10 3d 0f e2 34 bc
       -0.13943385 0.12798844 0.035287168 -0.011040225
000300 c3 13 14 bd 90 69 0f 3d 76 e8 12 be 59 45 83 bd
       -0.03615166 0.03501278 -0.1434649 -0.064097114
000310 a2 08 04 be 3e 49 5e 3d 14 3a a2 3d 45 9f 74 3d
       -0.12893918 0.054269068 0.07921234 0.059722204
000320 5d 93 96 3c 18 b2 d7 bd 83 2b a3 3c 99 b9 6a 3c
       0.018380815 -0.105320156 0.019918209 0.0143264765
000330 f3 78 c9 bd 65 c2 ad 3c 6b 12 8e 3c 92 1a dd bd
       -0.09837522 0.021210859 0.017342767 -0.107960835
000340 17 e4 9d 3d 77 00 30 3e ff f1 05 3c 69 51 0a 3c
       0.0770952 0.17187677 0.008175372 0.008442261
000350 02 7e 3f b9 9b f7 30 be 33 1c 3a 3e ac c1 91 3d
       -0.00018262121 -0.17281954 0.1817482 0.07117018
000360 9c d1 e7 3d cf 52 55 3e 8f 51 1c 3e 09 79 f4 3d
       0.11319277 0.2083237 0.15265487 0.11937148
000370 e5 48 76 bd b5 f8 8a 3d ba b0 1f be ae a7 bd bd
       -0.06012811 0.06785718 -0.1559476 -0.09260498
000380 f0 66 28 3d 35 e9 49 3d fa b9 cf 3d 34 e4 25 3c
       0.041113794 0.04929467 0.10142894 0.010125209
000390 7d 3b 58 3c 81 5a 19 be 08 72 c1 3d 9d fe 25 3e
       0.013197777 -0.14975931 0.09445578 0.16210409
0003a0 28 4e e0 bc 9d b9 fb bd 1c 96 09 be a6 56 81 3e
       -0.027381018 -0.12291262 -0.13436168 0.2526142
0003b0 86 03 2b 3d a0 7a 48 bd e4 87 bb bc eb 1d 31 be
       0.041751407 -0.04894507 -0.022891946 -0.17296569
0003c0 a2 0f 40 bd 5f 09 82 3d a3 04 01 be 15 96 8e 3d
       -0.04688991 0.06349444 -0.12599425 0.069622196
0003d0 ff 00 17 be f5 d4 d1 3d 22 ba 83 bc 79 fb 1d 3e
       -0.14746474 0.102456965 -0.016079966 0.1542796
0003e0 93 74 34 3d 92 64 e3 bc d5 9f 31 3d 82 13 89 3d
       0.044056486 -0.027757917 0.04336532 0.06693174
0003f0 12 f3 05 3d 05 3d 85 3d ca d3 78 3d 31 9a 5e 3c
       0.032702513 0.06505779 0.060748853 0.013586567

network_body._body_endoder.seq_layers.2.bias f4 [128]
000000 30 25 1c 3d d3 08 26 3d b3 61 3a bc 0d c5 a3 ba
       0.038121402 0.04053576 -0.011375832 -0.0012494639
000010 f4 9d 56 3c 1a 7b 72 bb f7 1c 64 3c b6 b3 4d 3c
       0.013099182 -0.0036999644 0.013922921 0.012555053
000020 b7 bc af 3c b4 ca 38 bc f0 e4 06 3d aa b4 c7 3c
       0.021452291 -0.011278797 0.032933176 0.02437814
000030 1b 59 f1 3b c6 42 d2 bc 3c 7d e3 3a e5 cd f9 3c
       0.0073653585 -0.025666606 0.0017356048 0.030493686
000040 5e 91 78 3c d5 6f bd 3c cb b4 0b bb d3 4c 27 bc
       0.015171377 0.023124615 -0.0021317478 -0.010211187
000050 b4 ba 02 3d 7a 31 9d 3c e4 ee 92 3c 84 be 3b 3b
       0.031916335 0.019188631 0.017936178 0.0028647492
000060 ee 6b 2a 3c 83 83 2c 3c a5 43 ec 3c 3b e0 a3 3c
       0.010401709 0.010529402 0.02884085 0.020004382
000070 c3 cf 8e 3c cc 75 32 3c 2c 73 90 bc c8 d6 db 3c
       0.017433053 0.010892343 -0.017633043 0.026835814
000080 a0 57 4c ba c0 5e 0e 3d e6 f4 fc 3b 40 57 68 bd
       -0.00077950396 0.03475833 0.007719624 -0.056723833
000090 62 d9 45 bd c7 90 00 3d 2a 40 a7 3c 51 e9 8a 39
       -0.048303016 0.03138807 0.020416338 0.00026495245
0000a0 0b a6 b5 3b b7 8d e6 3c 1d 40 d1 b9 21 36 c5 3c
       0.0055434755 0.028143747 -0.00039911355 0.024073662
0000b0 34 24 56 bc 7a dc 66 bc 53 a5 4d bd 8a 0f 9c 3c
       -0.013070155 -0.014090652 -0.050206494 0.019050378
0000c0 b2 ca b9 3b a2 69 11 3d b6 66 c6 3c 50 f5 06 bc
       0.005669915 0.03550113 0.024218898 -0.008237198
0000d0 f0 30 16 3c 08 79 11 3d 01 fb 36 bc a2 12 37 3d
       0.009166941 0.035515815 -0.011168242 0.044695504
0000e0 62 74 4f 3c 30 5c 0d bd 43 e0 b5 3c 41 90 74 3c
       0.012662025 -0.034511745 0.022201663 0.014926971
0000f0 e1 33 1b bd a4 a0 e8 3c 10 ee c5 bc 7c 07 3b 3c
       -0.037891272 0.028396912 -0.024161369 0.011415359
000100 6b 27 1a 3b 37 e2 3c 3d 6e 35 45 bd 31 cc 09 3d
       0.002352203 0.046114173 -0.048146658 0.033641998
000110 20 7e 0d bd 19 65 1c 3d 5e e4 38 bd 0b c9 1c bd
       -0.03454411 0.03818235 -0.045139663 -0.038277667
000120 8a 82 ee 3c e1 e6 95 3b 79 0a 1d bd a8 b5 6b 3d
       0.02911498 0.004574642 -0.038340066 0.057546288
000130 35 9c 00 3d 6b 85 48 3c 65 d6 79 3c 8d 5d fa bb
       0.03139897 0.012238841 0.01524887 -0.0076405467
000140 2e fd 28 bb e7 7c fa 3c 44 c6 f9 3c 99 d4 df 3c
       -0.0025785672 0.030577136 0.030490048 0.027323054
000150 2c 53 1e 3b 53 bf 26 3d 31 1e 19 3d d7 d0 91 3c
       0.002415846 0.040709805 0.03738231 0.017799778
000160 43 0b 00 bc 4e 02 aa 3c bf 5a 5b bc 32 b2 39 ba
       -0.007815185 0.020753052 -0.013388335 -0.0007083743
000170 6f 95 e1 bb 08 96 00 3b 4a 2a b0 bb 88 fd 40 3c
       -0.006884269 0.0019620676 -0.005376135 0.011779197
000180 95 9f b2 3b 1b 78 33 3d a7 0a 23 3d 0f bc e3 3c
       0.0054511526 0.043815713 0.03980508 0.027799634
000190 3b 17 ff 3c eb 8a b3 bc 9e f7 3b 3c 23 71 50 bc
       0.031139007 -0.021916827 0.011472611 -0.012722286
0001a0 cd ac fa 3c f1 1a 8b bc df fc bf 3c 40 91 8e bc
       0.030599976 -0.01698062 0.023436008 -0.017403245
0001b0 77 1f e2 3c d4 1b 77 3c ec 08 38 3d 3d 0e 06 3d
       0.027602894 0.015082318 0.044930384 0.032728422
0001c0 8a 87 70 3b c8 22 c8 bc 8a 6b 80 3c 8c 06 17 bb
       0.0036701881 -0.024430647 0.015676279 -0.0023044674
0001d0 a7 23 34 3d ea 8b c8 3c 34 58 c6 3a ae 44 3a 3c
       0.043979313 0.024480779 0.0015132488 0.011368914
0001e0 ec 91 02 3c a1 6e 81 bb e4 ae dd 3b 0d 1e 31 3c
       0.007969361 -0.0039499556 0.0067652334 0.010810387
0001f0 b8 9e 3b 3d c9 3d 2d 3d 2a 0f a0 3c 98 0d 42 bc
       0.045805663 0.04229525 0.01953848 -0.011844061

action_model._continuous_distribution.log_sigma f4 [1, 2]
000000 e8 91 b6 bd f7 bb 0a bd
       -0.08914548 -0.033870663

action_model._continuous_distribution.mu.weight f4 [2, 128]
000000 0c 7d 19 bd 0c 70 2e 3c 42 fa a7 3b 3d c9 c2 bc
       -0.03747277 0.010646831 0.0051262686 -0.023777599
000010 27 01 73 3c 4f 02 b3 bb fd 19 0a bd a2 27 fc 3c
       0.014831818 -0.0054629217 -0.03371619 0.030780617
000020 c4 ee 3b 3d fc bb 8c bc 43 ca 06 3d bc 30 e3 3c
       0.045882 -0.017179482 0.032907736 0.0277332
000030 79 5a 0f bd a0 93 90 bc 1f 8e fd 3c fc 96 68 bd
       -0.03499839 -0.017648518 0.030951558 -0.056784615
000040 25 fc 9b bc 2e 99 88 3d 04 27 77 bc f6 9b cb 3c
       -0.01904113 0.06669842 -0.015084986 0.024854641
000050 df c2 ea bc cd 82 49 bd 22 31 8f 3c 89 81 12 bc
       -0.028657375 -0.049197007 0.017479483 -0.008942016
000060 1b 9f 8e 3c ba 78 e1 bc 58 bb 3d bd eb 77 8e bd
       0.017409852 -0.027523387 -0.046321243 -0.06956466
000070 85 23 71 bc a0 3a 2a 3c 73 b8 d4 ba 9e 5d ae ba
       -0.014717941 0.010389954 -0.0016229287 -0.0013303047
000080 53 ea 5d 3c 26 b1 91 bd 8a 47 2f 3d 9a 94 71 3c
       0.013544637 -0.071138665 0.042792834 0.014744902
000090 ef 8b 2a 3c ca b8 b9 bc 0c 94 31 bd 0c 8d e5 3a
       0.010409339 -0.022671122 -0.04335408 0.0017513349
0000a0 ad a1 d4 bb c9 0d 38 3d 19 04 b0 bc 2b 57 36 3d
       -0.006489 0.04493502 -0.021486329 0.044516724
0000b0 cf f8 b0 bb 42 ed 99 bc bf 94 53 bc 24 53 c3 3c
       -0.005400754 -0.018789891 -0.012913882 0.023843355
0000c0 b9 ba e3 3c ba 40 b3 3c 1d b5 52 bd ea 29 eb 3c
       0.027798997 0.02188145 -0.051442254 0.02870651
0000d0 8b 0f c0 3c 60 ea db 3d 53 98 a6 bc 4e 2f 82 3d
       0.023444911 0.10738063 -0.020336306 0.06356679
0000e0 49 31 4a 3c cb af c6 bc 08 77 80 bd b6 20 31 bd
       0.012340852 -0.024253746 -0.062727034 -0.043244086
0000f0 ec 81 06 3d 11 4f 8e bd c8 fc 12 bb 4c ba 31 bd
       0.032838747 -0.069486745 -0.0022428501 -0.043390557
000100 b4 be 80 3b ba e5 b6 bd c6 ae 03 bd 0c 2d d1 bd
       0.0039289836 -0.089305356 -0.0321491 -0.1021367
000110 cb 8b ac 3c 64 6f 12 3d 9a 80 88 3c 9d 5b c2 3c
       0.021062752 0.03575076 0.016662885 0.023725325
000120 6b 17 11 3d 0f 20 1c bd 86 ff c6 3b 22 6f db bc
       0.035422724 -0.03811651 0.0060729412 -0.02678639
000130 57 0b 45 3d bb f4 41 bd 69 9f 54 bc 32 cb 41 3c
       0.048106518 -0.047352534 -0.0129774595 0.011828231
000140 36 47 6f bd 26 25 24 3d 6d 0b 18 3d d6 1d 11 3b
       -0.05841752 0.04007449 0.03712027 0.0022143028
000150 28 f0 40 3d 64 68 90 bc bc 31 3a 3d 89 bf 15 3d
       0.04710403 -0.017627902 0.045457587 0.036559615
000160 09 e1 29 3c 3e 4c fc 3c 71 7a 67 38 88 6a 16 bc
       0.010368594 0.030798074 5.5188724e-05 -0.0091806725
000170 d7 d6 f5 ba 36 b2 40 3d 38 89 d5 3b 79 19 fc 3c
       -0.0018756044 0.047044955 0.006516602 0.030773865
000180 bd 8e 16 3d fe 7d 87 3d 62 4d dd bc 2f 8f a6 bd
       0.03675722 0.06615828 -0.027014438 -0.08132779
000190 bf f8 76 bd 44 61 85 3c f8 fe 18 bd d2 5a 9b bc
       -0.060295817 0.016281731 -0.037352532 -0.018964205
0001a0 37 ba 0a 3c 29 cb f5 bc 4a 36 a0 3b ed fe 5a bc
       0.008467249 -0.0300041 0.0048892843 -0.013366443
0001b0 a4 a6 04 bd 53 a1 8a bc 0c a6 32 bd 66 91 ee 3c
       -0.032385483 -0.016922629 -0.043615386 0.029122066
0001c0 72 e3 be 3c 3d 14 79 3c 75 d1 00 bd 0d b4 c5 3c
       0.023301814 0.015202579 -0.031449754 0.024133706
0001d0 0f 09 60 3b d3 15 74 bd ec 65 5a 3b 0a 32 10 bd
       0.0034185087 -0.059591126 0.003332491 -0.03520397
0001e0 98 d7 84 bb 79 9d f1 bc 0c e3 3c bd 5c 5b 50 bb
       -0.004054021 -0.029494034 -0.046114966 -0.0031792736
0001f0 7f 0b 4c bd c9 91 bb 3d fb 61 28 bd 7e a9 39 bc
       -0.04981565 0.09158666 -0.041109066 -0.011331914
000200 cf cc ca 3d 49 14 62 bd f2 b7 3a bb 3a 0c 98 3d
       0.099023454 -0.055195127 -0.0028490988 0.07424207
000210 27 a5 a6 bc 5c 4e b0 3c 40 36 2b 3d 77 af 14 3d
       -0.020342423 0.02152174 0.041799784 0.03630015
000220 c6 34 93 3d 52 2f e8 3a 99 02 78 bd 3a fa c5 3d
       0.071878 0.0017714298 -0.060549352 0.096668676
000230 6f 26 8e bb 62 f7 21 3d 05 5f 00 3d 90 88 d1 bc
       -0.0043380777 0.039542563 0.031340618 -0.025577813
000240 8a 81 ec 3c 07 40 f1 3b 3e 5b 56 3c 7b 58 98 3c
       0.028870363 0.007362369 0.013083277 0.018596878
000250 cb 27 89 3d 33 56 17 ba a7 78 9d bc ae 36 93 3d
       0.06697043 -0.00057730376 -0.01922257 0.07188164
000260 2f 09 ee 3a 60 64 ae bc 2d 46 8a 3d 10 c4 0b 3c
       0.0018160696 -0.021288097 0.06751666 0.008530632
000270 32 b9 46 bd 81 e1 84 3d f2 c3 be bb 2b 2a a3 bd
       -0.04851646 0.06488324 -0.0058216983 -0.07967027
000280 4e fa 58 3d 5b 97 84 3d 99 9d 1d 3d 19 70 6e 3c
       0.052973084 0.06474181 0.038480375 0.014553093
000290 bc 9e cc 3b f3 3f 62 bd 27 49 a7 3d d2 fa c1 3c
       0.0062445085 -0.055236768 0.081682496 0.02367917
0002a0 bb 60 a2 bc c5 64 82 bc 15 b7 f9 3c b9 f2 43 3d
       -0.019821515 -0.015917191 0.030482808 0.0478389
0002b0 37 c3 dd 3c 51 bf f2 3c ca fc 50 3d 33 df 5c 3c
       0.027070625 0.029632242 0.05102233 0.013480949
0002c0 b1 1a e8 3c 00 5f 60 bd 9c 76 93 bc 34 5c 67 bb
       0.02833304 -0.0547781 -0.018000893 -0.003530276
0002d0 9d 06 39 bc 6e 4f 57 3d 93 0d 4e 3d d6 98 52 bc
       -0.011293081 0.052565984 0.050305914 -0.012853822
0002e0 4e 28 d4 bc 4e 74 b1 3b 3e 38 13 bc 03 88 91 3d
       -0.025898125 0.005415476 -0.008985577 0.0710602
0002f0 58 75 01 3c 15 ec 9d bc 84 8d 1a 3d 1f a9 00 3d
       0.007901512 -0.019277612 0.037732616 0.031411286
000300 39 2a 94 3c 0c 63 c7 ba f3 48 70 3c 18 21 05 bd
       0.01808654 -0.0015212013 0.01466583 -0.032502264
000310 91 a1 5e 3d 5e 2d e1 3c a4 b5 e4 3c 18 2f 80 3d
       0.0543533 0.027487453 0.027918644 0.062589824
000320 fa c9 c5 3d 17 44 27 3c d9 c4 58 3c 6c 16 60 3d
       0.096576646 0.010209105 0.013230526 0.054708883
000330 cb 08 38 bc 38 22 84 b9 b9 dd 6b 3d 71 2a 1e b9
       -0.011232565 -0.00025202497 0.057584498 -0.00015083865
000340 a2 03 33 bc ed 07 03 bd ae 2c 02 bd bb 07 ad bd
       -0.010926159 -0.03198998 -0.03178089 -0.0844874
000350 af 21 b1 bc c1 e4 8d 3d 79 e5 b4 3d d0 b6 12 bc
       -0.021622507 0.06928397 0.08832831 -0.008954719
000360 57 c8 6a 3c 8c 2b 1c bd 1d ab c6 3c b1 a9 68 3d
       0.014329991 -0.038127467 0.024251515 0.056802455
000370 47 85 82 bc 37 e6 5c 3c 1c 63 e4 3b 42 39 7d 3c
       -0.015932692 0.013482622 0.0069698226 0.015455546
000380 60 02 7a bc fd 85 e5 ba 13 b9 74 3d 95 12 3b 3d
       -0.015259355 -0.0017511245 0.059746813 0.045672018
000390 80 9d d8 3c 09 e7 b2 3c 7b b2 35 bb fe 3c 1f 3c
       0.02644229 0.021838682 -0.002772479 0.0097191315
0003a0 e3 1f 8a bd 3c 79 38 3b 99 9e 78 3d 05 20 f8 3c
       -0.06744363 0.0028148433 0.060698126 0.030288706
0003b0 2d bb b5 3d bf 00 81 3d 23 3d 2e bd d3 02 80 bd
       0.088735916 0.062989704 -0.042538773 -0.06250539
0003c0 b8 18 57 3d bf b4 b6 bb 87 bb 25 bd 83 13 52 3d
       0.052513808 -0.005575746 -0.040462043 0.05128814
0003d0 a9 b2 86 bd 70 2c b9 3d ff 3f d4 3c 21 24 db bc
       -0.065770455 0.09041679 0.025909422 -0.026750626
0003e0 d9 8f 1f bd bc 87 16 bc 6d 41 c5 bc be 26 da 3c
       -0.038955543 -0.009187635 -0.024079049 0.026629802
0003f0 cf 38 a4 3d 85 66 58 bd 63 8f 07 bd c2 f0 fe 3c
       0.08018648 -0.052832145 -0.03309573 0.031120662

action_model._continuous_distribution.mu.bias f4 [2]
000000 98 db ca 3b 01 e7 89 bc
       0.0061907284 -0.016833784
